trained_model_original_200epochs.pth (torch, 369695 bytes, 6 tensors)

rnn.input2h.weight f4 [300, 2]
-0.2464822 0.24145184 -0.1257426 -0.80306685 -0.3827706 -0.5729857 0.42779028 0.011484563
0.959965 -0.53900373 -0.62364435 -0.8253052 -0.32637826 0.4622214 0.5756416 0.6064793
0.291861 -0.54211456 0.6193347 -0.11353703 -0.40764007 0.13775013 0.37901106 -0.1304629
0.4865221 -0.8980146 -0.21836285 -0.3580468 -0.2114466 0.75009453 0.72370636 0.33797857
0.04043592 0.06337035 0.04394031 -0.29851556 -0.5236008 0.01790291 -0.5696793 -0.3035885
0.75208646 -0.32331496 -0.3039039 0.63515776 -0.7885169 0.36603463 -0.97891295 0.42285335
0.7873889 -0.66367275 0.03237119 -0.03255958 -0.16808349 0.28476942 0.05442763 0.8271828
-0.32399783 0.5422585 -0.9784172 -0.8188757 -0.5009837 0.20952803 0.38495055 -0.37371632
-0.23452798 -1.0208193 -0.037202723 0.014568622 0.7186558 0.64056736 0.70163536 0.6057076
0.0798054 -0.015617042 0.9320771 -0.18967716 -0.27281028 0.42322436 -0.04517907 0.59645516
-0.7017792 -0.5730805 0.68431 0.7788425 -0.69855887 0.75532585 0.79088515 -0.31940806
0.35361356 0.23851813 -0.6915919 -0.06036407 0.36893725 0.9144034 -0.6326718 -0.95655805
0.8628093 0.107899 -0.27644646 -0.15621677 0.19984716 -0.43442866 -0.4736547 0.6534876
0.05703847 0.6735199 0.738803 -0.8978968 0.3254007 0.2686536 -0.0562206 0.46490616
0.5597389 0.38365534 0.5694013 0.32528016 0.9581566 0.17665553 -0.27796584 -0.4090801
-0.0945671 0.6602286 -0.8450451 -0.05674605 0.08642036 -0.110057235 0.5663414 -0.32614145
-0.356562 0.12725818 0.4904104 0.0395298 0.23526245 -0.3082108 -0.5247148 -0.21859732
-0.94841945 0.24640353 -0.58884007 0.09067852 0.4811601 -1.0179144 -0.36018848 0.05416438
0.8386904 -0.94878644 -0.73521787 -0.19241141 -0.7800697 -0.64059377 -0.50260097 -0.99671733
-0.008633724 0.43004957 -0.2562017 0.03828481 -0.24816503 0.06501022 0.083118364 0.81860185
0.83932215 0.21785046 -0.7451514 -0.16039705 0.18518674 0.18826443 -0.45512146 0.6151102
0.4358613 0.6957196 0.361782 -0.23403555 -0.94325584 0.82981837 -0.68896395 0.29208905
-0.06049009 0.32687616 -0.28353113 -0.338398 -0.31197703 0.5232107 -0.515976 -0.14662045
-0.064637065 -0.44994012 -0.9807275 -0.3032825 -0.4982037 -0.45496055 -0.57382 -0.38947335
0.88621956 -0.78219634 0.06552464 -0.47198242 0.08000982 0.15006764 0.6393947 0.79536
-0.24342142 0.59571606 -0.11203468 -0.011374772 -0.21925999 -0.392617 -0.71436906 0.43875718
-0.31178492 0.5781936 -0.70347476 0.9981814 0.73381704 -0.42551962 0.54653156 0.93052775
0.7182738 -0.2694473 0.48554707 0.027798159 1.0209951 0.7826967 0.346197 -0.33565763
0.05095464 0.008041955 -0.64624816 0.40479597 0.057138316 0.5483657 -0.32306403 -0.11315924
-0.37414524 -0.3605145 -1.1842487 0.39589432 0.20845246 -0.19946045 -0.99922085 0.6507615
-0.64570427 -0.7121437 0.059704434 -0.25665012 0.043873936 0.6152621 0.3313698 0.5406846
0.2131378 0.031371236 0.14937449 -0.2568713 -0.3089112 -0.5475502 0.68022937 -0.64560694
00000000: d465 7cbe 273f 773e abc2 00be ca95 4dbf
00000010: 82fa c3be 31af 12bf 5407 db3e c029 3c3c
00000020: 44c0 753f 26fc 09bf 28a7 1fbf 3447 53bf
00000030: 0d1b a7be 49a8 ec3e 3f5d 133f 3a42 1b3f
00000040: ce6e 953e 05c8 0abf b88c 1e3f 1a86 e8bd
00000050: 33b6 d0be 5f0e 0d3e bd0d c23e 1198 05be
00000060: 6d19 f93e 49e4 65bf 839a 5fbe e951 b7be
00000070: 7585 58be 3206 403f d244 393f 870b ad3e
00000080: 23a0 253d 50c8 813d c1fa 333d 08d7 98be
00000090: b40a 06bf 20a9 923c 81d6 11bf f46f 9bbe
000000a0: bd88 403f 8a89 a5be 4b99 9bbe b399 223f
000000b0: 3edc 49bf e468 bb3e 0a9a 7abf 3c80 d83e
000000c0: 5292 493f 75e6 29bf a797 043d 325d 05bd
000000d0: 141e 2cbe 4ccd 913e 82ef 5e3d 41c2 533f
000000e0: 0be3 a5be 74d1 0a3f 8d79 7abf d6a1 51bf
000000f0: 7840 00bf 848e 563e 3d18 c53e bf57 bfbe
00000100: 1a28 70be 35aa 82bf e261 18bd 3bb1 6e3c
00000110: d4f9 373f 39fc 233f 609e 333f a70f 1b3f
00000120: 0371 a33d 9fde 7fbc 9b9c 6e3f bb3a 42be
00000130: caad 8bbe ddb0 d83e b00d 39bd 49b1 183f
00000140: cda7 33bf 67b5 12bf f12e 2f3f 3962 473f
00000150: c1d4 32bf 095d 413f 7377 4a3f 7489 a3be
00000160: d60c b53e 193e 743e 2b0c 31bf 5140 77bd
00000170: 58e5 bc3e 5716 6a3f c7f6 21bf fde0 74bf
00000180: 12e1 5c3f 27fa dc3d 648a 8dbe 4af7 1fbe
00000190: bca4 4c3e 6f6d debe de82 f2be f74a 273f
000001a0: 2ca1 693d cd6b 2c3f 3222 3d3f 91dc 65bf
000001b0: ec9a a63e f78c 893e 9247 66bd 2e08 ee3e
000001c0: 0c4b 0f3f 796e c43e 49c4 113f 1f8b a63e
000001d0: c049 753f 30e5 343e 8a51 8ebe f272 d1be
000001e0: 65ac c1bd be04 293f e054 58bf 8c6e 68bd
000001f0: 28fd b03d b065 e1bd c0fb 103f 03fc a6be
00000200: 4b8f b6be f84f 023e 1217 fb3e 00ea 213d
00000210: a4e8 703e cecd 9dbe b653 06bf fad7 5fbe
00000220: 9ecb 72bf 3551 7c3e 39be 16bf a9b5 b93d
00000230: 9e5a f63e 054b 82bf a06a b8be 78db 5d3d
00000240: 6ab4 563f abe3 72bf 3d37 3cbf 7f07 45be
00000250: a6b2 47bf f4fd 23bf 75aa 00bf de28 7fbf
00000260: 7774 0dbc 752f dc3e df2c 83be 88d0 1c3d
00000270: f91e 7ebe 1424 853d f639 aa3d e48f 513f
00000280: d1dd 563f 3114 5f3e 3ec2 3ebf 203f 24be
00000290: 98a1 3d3e 64c8 403e ae05 e9be dd77 1d3f
000002a0: 3629 df3e ae1a 323f 7e3b b93e 04a7 6fbe
000002b0: 3779 71bf fa6e 543f f15f 30bf b28c 953e
000002c0: 75c4 77bd 505c a73e fe2a 91be 8142 adbe
000002d0: 74bb 9fbe 23f1 053f 0117 04bf ac23 16be
000002e0: 7060 84bd 8d5e e6be f510 7bbf d847 9bbe
000002f0: 8e14 ffbe 97f0 e8be dee5 12bf 0d69 c7be
00000300: 49df 623f 053e 48bf c831 863d aea7 f1be
00000310: 30dc a33d 55ab 193e 5faf 233f b79c 4b3f
00000320: 7743 79be d980 183f 7072 e5bd 405d 3abc
00000330: b185 60be 1805 c9be e4e0 36bf c8a4 e03e
00000340: 46a2 9fbe 7f04 143f ec16 34bf d188 7f3f
00000350: 6fdb 3b3f b5dd d9be 7ee9 0b3f 1137 6e3f
00000360: cbe0 373f fff4 89be a099 f83e f7b8 e33c
00000370: f8af 823f d05e 483f bc40 b13e 51db abbe
00000380: d0b5 503d 67c2 033c 8570 25bf 6b41 cf3e
00000390: de09 6a3d b261 0c3f a668 a5be 08c0 e7bd
000003a0: f78f bfbe 5b95 b8be 7695 97bf a9b2 ca3e
000003b0: 9074 553e 5c3f 4cbe f0cc 7fbf 4e98 263f
000003c0: e04c 25bf 0d4f 36bf a38c 743d a567 83be
000003d0: 28b5 333d d181 1d3f 4da9 a93e 4e6a 0a3f
000003e0: cc40 5a3e 207f 003d a0f5 183e a384 83be
000003f0: 9c29 9ebe 402c 0cbf 8323 2e3f 7f46 25bf

rnn.input2h.bias f4 [300]
0.0070029837 0.28018573 0.50426644 0.30179587 -0.2773814 0.08270554 0.024669543 0.27985156
0.42046952 0.59081405 0.49794725 0.41756305 -0.38665333 0.06529938 -0.06463851 0.2750581
0.09196558 -0.21912158 -0.70555747 0.61873245 -0.09204329 0.14767796 -0.06312102 -0.15303203
-0.2125129 0.20401546 -0.439904 0.09935646 0.4267657 -0.28109828 0.00029093967 0.11332829
-0.17637715 0.26682416 -0.10257916 0.24333845 0.23132394 -0.0121672135 0.051421203 -0.6233702
-0.32779324 0.3131225 -0.16488506 0.22369581 0.47019917 -0.30836093 -0.12883177 0.06034488
0.20049392 0.3818331 0.41189304 0.28628755 0.1610403 -0.31404316 0.449339 0.39791754
0.347554 0.5642342 -0.10869829 0.3966129 0.3958847 0.65266556 -0.13157818 0.077202186
-0.3479423 -0.5601125 -0.52021635 0.24081443 -0.0687832 -0.045098834 -0.084198505 0.064242296
-0.10859822 0.10819042 0.08710992 -0.32772332 0.25844735 0.28710735 0.48852703 0.23612681
0.14570217 0.19151048 -0.38883206 0.07408632 -0.1628713 -0.0017396266 -0.13246496 0.5535443
0.22861457 0.5446253 0.3959644 0.31348497 -0.5782834 -0.25900242 -0.11082747 0.53774256
-0.3672795 -0.56921864 -0.12882198 0.633165 0.3208869 -0.57422686 0.18926264 -0.022557132
-0.13480076 -0.15301442 0.46881264 -0.0766202 0.44751382 0.17405932 -0.32267842 0.31030807
0.18134153 0.1254615 -0.04537467 -0.3877252 0.09777581 -0.18511432 -0.3002286 -0.2920143
0.05337816 0.34421295 0.54398376 0.44452146 -0.5637143 -0.081778236 0.58331525 0.14130817
-0.45977163 -0.14596155 -0.70605206 -0.3366945 -0.3475834 -0.5725966 0.005658882 0.5952733
0.48897293 0.48225197 -0.12554036 0.33041686 0.42158195 0.19973798 0.06397032 -0.53365403
-0.019267403 0.42771992 -0.33556503 0.33753586 0.43473372 0.46220767 0.6310403 0.11428147
0.035634227 0.017937282 0.3345953 -0.3264011 -0.12301014 -0.6275617 -0.20496504 -0.69346225
-0.042412892 -0.6051672 -0.083184876 -0.09221456 -0.6051959 0.49819598 -0.33668682 0.34078085
-0.63548815 0.11384312 -0.0015503843 0.568511 0.5783728 0.013773595 -0.5929658 0.003988722
0.053005595 0.21375227 -0.002039788 -0.14934717 -0.19636336 -0.28573877 0.4772994 0.2689388
-0.24140552 0.5865311 0.34807095 0.26074025 0.012241041 0.45590335 0.5091836 -0.21178338
0.50156134 0.37236467 -0.28938055 -0.21299797 0.0775339 -0.006945484 0.09775458 0.21128508
-0.4047875 0.5198982 0.1880578 0.149252 0.046986315 -0.5817854 0.03305449 0.119664945
0.0991015 0.359001 0.2972696 0.21921214 -0.21439631 0.4265824 0.18574733 -0.5659886
-0.0013111568 0.12314718 0.17974229 0.28913355 0.04466372 -0.24775235 -0.033307146 -0.64803314
-0.20004584 0.61051136 0.42447233 -0.07808273 0.20402671 -0.32639542 -0.08284886 -0.2679133
-0.24737126 0.13478136 -0.17262428 0.15642792 0.3348871 -0.20743397 0.12834972 -0.6489656
-0.004679937 -0.193811 0.16699696 -0.05685417 0.00045525804 0.2444886 0.092119455 -0.1284897
0.41060102 0.4553695 -0.3188965 0.17898123 0.31980124 -0.4497678 -0.667814 -0.51945555
00000000: 4979 e53b 8174 8f3e 9b17 013f fd84 9a3e
00000010: ef04 8ebe 8661 a93d c817 ca3c b448 8f3e
00000020: c847 d73e 973f 173f f1f2 fe3e d3ca d53e
00000030: 6df7 c5be aebb 853d 3261 84bd 6ad4 8c3e
00000040: 7358 bc3d 6861 60be 6a9f 34bf 4065 1e3f
00000050: 3181 bcbd e438 173e 9845 81bd 6eb4 1cbe
00000060: fb9c 59be 6ee9 503e 193b e1be 667b cb3d
00000070: 0981 da3e 1dec 8fbe 4389 9839 aa18 e83d
00000080: 369c 34be 2d9d 883e 0615 d2bd b72d 793e
00000090: 2fe0 6c3e fe58 47bc 0a9f 523d 3095 1fbf
000000a0: 84d4 a7be 9851 a03e a1d7 28be 8410 653e
000000b0: f2bd f03e 7ce1 9dbe 7aec 03be 312c 773d
000000c0: 474e 4d3e a17f c33e a5e3 d23e 4894 923e
000000d0: c0e7 243e 44ca a0be c30f e63e d9bb cb3e
000000e0: 99f2 b13e a771 103f 369d debd d910 cb3e
000000f0: 66b1 ca3e 1715 273f 6ebc 06be 2e1c 9e3d
00000100: 7e25 b2be 8863 0fbf e62c 05bf 0f98 763e
00000110: 35de 8cbd 8eb9 38bd 4470 acbd 7791 833d
00000120: be68 debd f092 dd3d b066 b23d 5acb a7be
00000130: 3653 843e bcff 923e 3720 fa3e 3acb 713e
00000140: f332 153e 531b 443e ff14 c7be 92ba 973d
00000150: bcc7 26be 2f04 e4ba e5a4 07be 14b5 0d3f
00000160: f019 6a3e 906c 0b3f d9bb ca3e 1a81 a03e
00000170: 620a 14bf f79b 84be 83f9 e2bd 7fa9 093f
00000180: 0f0c bcbe 50b8 11bf e9e9 03be 1a17 223f
00000190: 4a4b a43e 8800 13bf 11ce 413e bcc9 b8bc
000001a0: 3609 0abe d0af 1cbe 3608 f03e 0deb 9cbd
000001b0: 8820 e53e 9b3c 323e 1b36 a5be b3e0 9e3e
000001c0: 98b1 393e fb78 003e cada 39bd eb83 c6be
000001d0: af3e c83d 9c8e 3dbe 90b7 99be e682 95be
000001e0: 0fa3 5a3d ae3c b03e 8542 0b3f 5198 e33e
000001f0: 954f 10bf 597b a7bd 2654 153f 17b3 103e
00000200: 3067 ebbe f276 15be d4bf 34bf 3963 acbe
00000210: 74f6 b1be b195 12bf 256e b93b d563 183f
00000220: a95a fa3e bbe9 f63e a78d 00be 662c a93e
00000230: 97d9 d73e 1d88 4c3e df02 833d 8d9d 08bf
00000240: acd6 9dbc 1bfe da3e 2ecf abbe 80d1 ac3e
00000250: 6b95 de3e 7ca6 ec3e db8b 213f 670c ea3d
00000260: 32f5 113d 35f1 923c 1350 ab3e 0c1e a7be
00000270: beec fbbd e2a7 20bf 5be2 51be be86 31bf
00000280: 24b9 2dbd 3dec 1abf d55c aabd fdda bcbd
00000290: 1eee 1abf 8b13 ff3e 3762 acbe d47a ae3e
000002a0: 5aaf 22bf 9526 e93d 4436 cbba f089 113f
000002b0: 3d10 143f a5aa 613c 9bcc 17bf d3b3 823b
000002c0: 651c 593d e0e1 5a3e f7ad 05bb 77ee 18be
000002d0: 7a13 49be 5a4c 92be 9660 f43e 59b2 893e
000002e0: 0233 77be e726 163f 5b36 b23e bf7f 853e
000002f0: a68e 483c 2a6c e93e db59 023f bedd 58be
00000300: 5366 003f 95a6 be3e b029 94be 241c 5abe
00000310: 18ca 9e3d f196 e3bb 8e33 c83d 1e5b 583e
00000320: 4f40 cfbe 0c18 053f 3992 403e 84d5 183e
00000330: b974 403d e3ef 14bf 2564 073d e512 f53d
00000340: baf5 ca3d fbce b73e b933 983e 2679 603e
00000350: b58a 5bbe 0269 da3e 8c34 3e3e a1e4 10bf
00000360: 1fdb abba 9734 fc3d 5d0e 383e 5009 943e
00000370: 4ef1 363d cbb2 7dbe 136d 08bd 80e5 25bf
00000380: d1d8 4cbe 794a 1c3f 7054 d93e d7e9 9fbd
00000390: 61ec 503e 4d1d a7be aaac a9bd ef2b 89be
000003a0: e44e 7dbe 2004 0a3e 6bc4 30be a42e 203e
000003b0: 5276 ab3e 9269 54be 1c6e 033e 9c22 26bf
000003c0: 285a 99bb 6476 46be 4001 2b3e ebdf 68bd
000003d0: b3af ee39 385b 7a3e 20a9 bc3d ce92 03be
000003e0: 4c3a d23e 3126 e93e 6746 a3be db46 373e
000003f0: fdbc a33e f747 e6be dcf5 2abf 0afb 04bf

rnn.h2h.weight f4 [300, 300]
-0.0026031744 0.056034356 -0.0016787924 0.037582558 -0.08825357 0.02249405 -0.10721865 -0.1777954
-0.0017491471 -0.009099255 0.049626693 0.0100962585 0.055046782 0.032453127 -0.12558326 -0.067502655
-0.084259115 0.03657191 -0.0046992004 0.07119337 -0.05404201 -0.041154254 -0.037190404 -0.047183223
0.059872076 -0.028885568 -0.02426413 -0.26430818 -0.088314176 0.2546586 -0.058582976 -0.051116418
0.2941828 0.014008426 -0.37770787 -0.15313089 -0.005767942 -0.14108332 -0.05516861 -0.051969044
-0.0004651065 -0.041737884 -0.11201449 -0.08591976 -0.085683994 0.06170008 -0.8782294 0.31905618
0.030592639 0.017566497 0.06446698 0.0068828412 -0.2211537 0.02414585 0.008481532 -0.032023493
-0.056761395 -0.035155807 -0.21725076 0.045362573 -0.102169365 0.0019647977 -0.056876004 -0.01720424
0.00085506216 0.018631682 -0.02916212 -0.031574346 0.06977559 0.07640757 0.10909389 -0.044461932
0.08611741 0.08486797 0.21811146 0.41785252 -0.1320285 0.08114425 0.022362849 -0.021246431
0.036958043 -0.017746763 0.043367393 0.019283483 -0.54608035 -0.043318033 -0.08068128 0.00670888
-0.058500815 -0.010840795 -0.034468144 -0.022050029 0.02033148 0.20966883 0.25884774 0.018259294
0.05360609 0.027165748 -0.043536123 -0.19996816 -0.013258977 0.051967278 0.037628114 -0.028179817
-0.010030146 -0.15422523 -0.05040667 -0.596827 0.052445687 0.01754735 -0.3082506 -0.011560581
-0.04524434 -0.0013587609 -0.13014172 -0.031629287 0.073706664 -0.073559165 0.055758066 -0.18940543
0.18184836 0.053954214 0.047817435 0.012742207 0.037091985 -0.011691959 0.07083308 -0.036281943
0.04063835 0.2989644 -0.021794014 0.32073274 -0.027765144 -0.014378373 -0.10797659 0.0127870785
0.02063768 0.009235983 0.12371391 -0.037837975 0.029748209 0.06435988 0.31415755 0.023052298
-0.41107967 0.066061236 0.022562735 -0.098630734 -0.055079747 -0.03141501 0.08031437 -0.03216422
-0.3596891 -0.101107955 -0.03155796 -0.012284618 -0.36515105 -0.04528632 -0.06439488 0.022972561
0.021829385 0.007575497 0.052934524 -0.3022946 -0.019279402 0.00063830893 -0.04624186 -0.0065170065
0.04796198 0.067805365 0.041654717 -0.06328368 -0.091767825 -0.12777668 0.0003098473 -0.18399416
-0.1671007 -0.07814491 0.09177434 0.23383287 -0.27026156 0.010317594 0.08140111 -0.03891009
0.34695825 0.075026736 -0.06249545 0.13242833 0.23063135 -0.0038778225 0.002644526 -0.03196874
-0.008159806 -0.040662464 0.3962815 0.3193163 -0.1418188 -0.19951136 -0.08262109 0.12663995
-0.15730894 -0.15939356 -0.09647593 0.016691634 0.033316802 0.043034263 -0.14347033 -0.094581045
-0.016445873 -0.0123372665 -0.18196328 -0.053496614 -0.006258952 0.032788694 -0.1848707 0.024212949
0.06424942 -0.24410546 -0.00871874 -0.0362956 -0.03971436 -0.15927011 0.028046507 -0.025072515
-0.2920755 -0.07604984 0.0031681485 -0.066396706 0.03433331 -0.3903514 -0.07078644 0.010144613
0.2839415 -0.090021126 0.30431217 -0.14729893 -0.015306348 -0.06704862 -0.08388854 -0.02156214
-0.6548777 0.1905778 -0.0064783096 0.030258575 -0.32797715 -0.09904984 0.030997884 0.08381393
0.04389191 -0.04393231 0.4001277 0.076079145 -0.018827498 -0.044173047 -0.007862199 -0.041872714
00000000: 059a 2abb 4884 653d ed0a dcba 2bf0 193d
00000010: 4abe b4bd 7145 b83c 7495 dbbd ff0f 36be
00000020: a343 e5ba 0b15 15bc 5c45 4b3d c76a 253c
00000030: bc78 613d 92ed 043d e698 00be d53e 8abd
00000040: 0b90 acbd 6dcc 153d c0fb 99bb d4cd 913d
00000050: 285b 5dbd 5d91 28bd f754 18bd 3243 41bd
00000060: 6c3c 753d 6da1 ecbc 92c5 c6bc 6753 87be
00000070: 10de b4bd 9d62 823e b4f4 6fbd 735f 51bd
00000080: 219f 963e 9983 653c ed62 c1be 58ce 1cbe
00000090: 0101 bdbb 2578 10be 7bf8 61bd 7edd 54bd
000000a0: 8ad9 f3b9 58f5 2abd da67 e5bd b3f6 afbd
000000b0: 177b afbd 39b9 7c3d a4d3 60bf 555b a33e
000000c0: 6a9d fa3c 9de7 8f3c 4407 843d 7589 e13b
000000d0: 1e76 62be 85cd c53c 20f6 0a3c 112b 03bd
000000e0: a37e 68bd 89ff 0fbd fc76 5ebe 1bce 393d
000000f0: 2c3e d1bd d6c3 003b d0f6 68bd e8ef 8cbc
00000100: 4026 603a 78a1 983c 66e5 eebc 1a54 01bd
00000110: 81e6 8e3d 927b 9c3d 9e6c df3d b71d 36bd
00000120: 535e b03d 42cf ad3d 9c58 5f3e c4f0 d53e
00000130: 7b32 07be f52e a63d 4b32 b73c ff0c aebc
00000140: 5161 173d a961 91bc 02a2 313d 65f8 9d3c
00000150: eccb 0bbf 406e 31bd 3a3c a5bd 2ad6 db3b
00000160: 8d9e 6fbd 979d 31bc 782e 0dbd 43a2 b4bc
00000170: 348e a63c 6db3 563e b187 843e 8494 953c
00000180: 0f92 5b3d b48a de3c ef52 32bd 74c4 4cbe
00000190: 2e3c 59bc a4db 543d f01f 1a3d 5cd9 e6bc
000001a0: 7b55 24bc 38ed 1dbe 3977 4ebd a7c9 18bf
000001b0: 4ad1 563d 76bf 8f3c 06d3 9dbe 9768 3dbc
000001c0: 2152 39bd 7318 b2ba df43 05be b68d 01bd
000001d0: 85f3 963d 30a6 96bd 9262 643d 7ff3 41be
000001e0: 7536 3a3e 18ff 5c3d 37dc 433d b1c4 503c
000001f0: c4ed 173d a18f 3fbc ef10 913d 609c 14bd
00000200: 6674 263d dd11 993e 5c89 b2bc 1537 a43e
00000210: ba73 e3bc 4493 6bbc d522 ddbd e580 513c
00000220: 5a10 a93c 8552 173c b85d fd3d fefb 1abd
00000230: 84b2 f33c 1dcf 833d 42d9 a03e 2cd8 bc3c
00000240: 0979 d2be 1d4b 873d 7cd5 b83c e9fe c9bd
00000250: 4d9b 61bd 07ad 00bd dc7b a43d a1be 03bd
00000260: 2b29 b8be b011 cfbd eb42 01bd 6c45 49bc
00000270: 14f5 babe 267e 39bd 76e1 83bd f430 bc3c
00000280: 8ad3 b23c e03b f83b dfd1 583d 5cc6 9abe
00000290: d6ef 9dbc 3054 273a 1b68 3dbd 9d8c d5bb
000002a0: c873 443d 8add 8a3d 239e 2a3d e09a 81bd
000002b0: c5f0 bbbd e4d7 02be 0073 a239 f768 3cbe
000002c0: 721c 2bbe 700a a0bd 2ff4 bb3d e271 6f3e
000002d0: b95f 8abe 200b 293c a0b5 a63d 3060 1fbd
000002e0: 83a4 b13e 9ea7 993d 3bfb 7fbd 4b9b 073e
000002f0: a02a 6c3e 1123 7ebb c94f 2d3b a7f1 02bd
00000300: b5b0 05bc af8d 26bd 69e5 ca3e 6d7d a33e
00000310: f338 11be b54c 4cbe 3f35 a9bd e7ad 013e
00000320: 9815 21be 1138 23be 2c95 c5bd e5bc 883c
00000330: 3377 083d b244 303d e3e9 12be b5b3 c1bd
00000340: 7fb9 86bc 3f22 4abc 9554 3abe 441f 5bbd
00000350: e517 cdbb 704d 063d bf4e 3dbe 3c5a c63c
00000360: 3395 833d c8f6 79be 0cd9 0ebc b2aa 14bd
00000370: 86ab 22bd b417 23be cac1 e53c e064 cdbc
00000380: ec8a 95be 05c0 9bbd b6a0 4f3b fffa 87bd
00000390: 16a1 0c3d 24dc c7be 7bf8 90bd 9735 263c
000003a0: c860 913e ff5c b8bd cece 9b3e 88d5 16be
000003b0: 7ac7 7abc c950 89bd c1cd abbd 16a3 b0bc
000003c0: 11a6 27bf d426 433e 0048 d4bb d5e0 f73c
000003d0: 9fec a7be a4da cabd 46ef fd3c a3a6 ab3d
000003e0: 01c8 333d 5ef2 33bd 8add cc3e 62cf 9b3d
000003f0: 203c 9abc ccee 34bd 74d0 00bc b982 2bbd

rnn.h2h.bias f4 [300]
0.062319916 0.04863479 -0.088914044 -0.05463944 0.2873998 -0.0052151214 -0.050633054 -0.011717854
-0.06419383 0.023621608 -0.12590872 -0.08864851 0.23973082 0.2944493 0.30122957 -0.12587512
-0.1845976 0.015729567 -0.043703657 -0.011175706 0.24900258 0.07799571 0.03615433 0.31696326
0.28987107 -0.22083429 -0.0027065016 0.13085008 -0.106026284 0.18844225 -0.05086036 -0.06203643
0.12245247 -0.29139444 0.010509534 -0.103215404 -0.19700284 0.16084853 0.02648624 -0.046390153
0.089863576 -0.058365736 0.35104793 0.19938698 -0.11822188 0.07766076 0.25851756 0.22911263
0.016056854 -0.085853055 -0.11762432 -0.121034674 -0.13551134 0.1947232 -0.10897433 -0.15305074
-0.17219968 -0.059596483 0.2207058 -0.09374157 0.021339256 0.033157367 -0.05667887 -0.005667184
-0.045292445 0.0021353588 0.034168303 -0.09297651 0.15031902 0.059675843 0.18290392 0.27709794
0.045255728 0.027592594 0.15114704 0.20965858 -0.039205115 -0.059327316 -0.10435719 0.02742577
0.0126002105 -0.0051958123 0.027020365 0.10895231 0.2520192 -0.087386936 0.27604654 -0.1520576
-0.05641301 -0.137843 -0.08795727 -0.1466833 -0.05669596 0.1980987 0.13718188 -0.101889834
0.34857896 -0.04864794 -0.1047951 -0.04672537 -0.11662737 -0.034865133 -0.03757676 0.27119493
0.023672756 0.26962265 -0.12174 0.18470205 -0.094676174 -0.057588015 0.25192258 -0.08073735
-0.28309357 -0.023315173 -0.011175088 -0.02025833 -0.019232912 0.07612392 -0.012865849 0.19497265
0.24211477 -0.13464837 -0.084542 -0.15778935 -0.02531441 -0.046897665 -0.030332074 -0.031403035
0.015889682 0.30231628 0.05024515 0.27901784 0.23511551 0.024230525 0.25277543 -0.0069035753
-0.14137724 -0.083112955 0.18708064 0.062084697 -0.086570114 -0.068294846 0.11825419 0.029144756
-0.040029857 -0.066011846 -0.04909408 -0.09013426 -0.00413285 -0.094654575 0.017568951 -0.025676671
0.1390578 0.04499647 -0.07116818 0.018208414 0.10028343 0.04593602 0.10516808 -0.026663363
0.05175484 0.03308917 0.06827099 0.3126629 0.03457413 -0.040845945 -0.035600472 -0.1398041
-0.029463252 0.02633718 0.16511787 -0.108046606 -0.052625597 0.055832278 -0.03710208 0.19031408
-0.065508805 0.0628535 0.07257511 0.34600312 0.2718605 0.008280721 -0.015659608 -0.08095385
0.25422677 -0.068541974 -0.099441856 -0.030126326 0.19510913 -0.12147097 -0.17651312 0.30317843
-0.110747196 -0.21661994 0.32034206 0.3120821 0.25627884 0.08614289 0.02488597 0.20416597
0.23982356 -0.038429864 -0.14253668 -0.018542027 -0.059041742 0.034181975 0.21879779 -0.10724921
0.00071211986 -0.20421062 -0.07337546 0.07918016 -0.005474584 -0.17528258 0.09779798 0.05631516
0.06531917 0.21527115 -0.060057536 -0.13417792 0.16854972 0.14524244 -0.09230035 0.038165353
0.32715726 -0.13944115 -0.15250151 0.014470872 -0.0037508484 0.3010063 -0.05228816 0.06601242
0.28082505 0.011125373 0.14933036 0.0874112 0.018899063 0.1560066 -0.05521406 0.004547529
0.19449717 0.31035057 -0.11534277 0.013448486 0.20280561 -0.052128818 0.036307156 0.22629091
-0.18104853 -0.19386064 0.2296275 0.021525782 -0.052993912 0.04902619 0.042443313 -0.017018601
00000000: 2b43 7f3d 4635 473d 9118 b6bd 9bcd 5fbd
00000010: 1126 933e 9ce3 aabb 9b64 4fbd 3efc 3fbc
00000020: 0e78 83bd 1a82 c13c 37ee 00be 5a8d b5bd
00000030: ff7b 753e 0fc2 963e c33a 9a3e 68e5 00be
00000040: 2707 3dbe 4bdb 803c 9b02 33bd 4f1a 37bc
00000050: 88fa 7e3e 37bc 9f3d 9016 143d 0249 a23e
00000060: fb69 943e 6222 62be 905f 31bb 90fd 053e
00000070: 4f24 d9bd 01f7 403e f452 50bd e919 7ebd
00000080: 5cc8 fa3d a731 95be 2e30 2c3c 9962 d3bd
00000090: 1dbb 49be 7ab5 243e acf9 d83c 9a03 3ebd
000000a0: 650a b83d e910 6fbd 8ebc b33e 1a2c 4c3e
000000b0: 501e f2bd 9b0c 9f3d 6a5c 843e 809c 6a3e
000000c0: aa89 833c bad3 afbd 05e5 f0bd 07e1 f7bd
000000d0: 7cc3 0abe 8565 473e ef2d dfbd 55b9 1cbe
000000e0: 1d55 30be 711b 74bd b400 623e 95fb bfbd
000000f0: aacf ae3c 05d0 073d 1a28 68bd c9b3 b9bb
00000100: 9284 39bd 60f1 0b3b 10f4 0b3d 786a bebd
00000110: 3bed 193e a86e 743d 2a4b 3b3e c8df 8d3e
00000120: 125e 393d dd09 e23c 4ac6 1a3e bdb0 563e
00000130: 8b95 20bd 3301 73bd 39b9 d5bd 02ac e03c
00000140: 1d71 4e3c a241 aabb d059 dd3c 6422 df3d
00000150: a908 813e ecf7 b2bd f955 8d3e fdb4 1bbe
00000160: 5411 67bd b726 0dbe f122 b4bd 2634 16be
00000170: 063a 68bd 63da 4a3e 6879 0c3e 9eab d0bd
00000180: f178 b23e 1043 47bd d09e d6bd 1a63 3fbd
00000190: 55da eebd bece 0ebd 17ea 19bd 10da 8a3e
000001a0: 5eed c13c fb0b 8a3e d252 f9bd 8922 3d3e
000001b0: 95e5 c1bd 69e1 6bbd fffb 803e a059 a5bd
000001c0: a4f1 90be 76ff bebc b717 37bc ccf4 a5bc
000001d0: 578e 9dbc dce6 9b3d 48cb 52bc e9a6 473e
000001e0: efec 773e 43e1 09be 5b24 adbd 8893 21be
000001f0: 2a60 cfbc c417 40bd f87a f8bc 78a0 00bd
00000200: 142b 823c 33c9 9a3e dccd 4d3d 6ddb 8e3e
00000210: 1fc2 703e 187f c63c c86b 813e 6337 e2bb
00000220: 32c5 10be 2037 aabd 1192 3f3e 864c 7e3d
00000230: ac4b b1bd 2bde 8bbd 412f f23d fcc0 ee3c
00000240: 59f6 23bd 3831 87bd e016 49bd 5098 b8bd
00000250: dc6c 87bb 42da c1bd c3ec 8f3c e257 d2bc
00000260: 2b65 0e3e 384e 383d 9fc0 91bd d029 953c
00000270: 6661 cd3d 6827 3c3d 5d62 d73d 206d dabc
00000280: e2fc 533d 8288 073d a9d1 8b3d 5a15 a03e
00000290: 9a9d 0d3d 144e 27bd cdd1 11bd ce28 0fbe
000002a0: eb5c f1bc 12c1 d73c a914 293e 8a47 ddbd
000002b0: f08d 57bd 63b0 643d 5af8 17bd b2e1 423e
000002c0: 7b29 86bd 56b9 803d 42a2 943d 5227 b13e
000002d0: 4d31 8b3e dcab 073c 9448 80bc 22cb a5bd
000002e0: 032a 823e bc5f 8cbd 2ca8 cbbd 7ccb f6bc
000002f0: b0ca 473e c6c5 f8bd dbbf 34be 343a 9b3e
00000300: 6dcf e2bd 9ed1 5dbe e003 a43e 3ac9 9f3e
00000310: fb36 833e af6b b03d a9dd cb3c e210 513e
00000320: 4f94 753e a268 1dbd 23f5 11be 73e5 97bc
00000330: c1d5 71bd 6602 0c3d 870c 603e 79a5 dbbd
00000340: 8ead 3a3a 971c 51be e045 96bd 3529 a23d
00000350: 2464 b3bb 477d 33be 4f4a c83d baaa 663d
00000360: 0fc6 853d 0a70 5c3e e4fe 75bd f065 09be
00000370: 4c98 2c3e 6fba 143e f707 bdbd 4653 1c3d
00000380: 2881 a73e a9c9 0ebe 5b29 1cbe 3c17 6d3c
00000390: cbd0 75bb 7f1d 9a3e 1c2c 56bd 8531 873d
000003a0: 4dc8 8f3e 3247 363c 0fea 183e a504 b33d
000003b0: 35d2 9a3c 32c0 1f3e 2328 62bd 7003 953b
000003c0: 442a 473e 45e6 9e3e d538 ecbd 0a57 5c3c
000003d0: 46ac 4f3e 0785 55bd d0b6 143d ceb8 673e
000003e0: c964 39be 6783 46be 7923 6b3e d656 b03c
000003f0: 2510 59bd b0cf 483d 0ad9 2d3d 986a 8bbc

fc.weight f4 [2, 300]
0.004543989 -0.102138005 -0.030709088 -0.0614352 -0.09432472 -0.053708907 -0.005311864 0.06085215
0.027868226 0.121651195 -0.008494894 0.017197551 -0.016718851 3.1593745 -0.014715818 -0.08198373
-0.10647536 0.0022369262 0.026199743 -0.0852882 0.0068001417 -0.106806815 0.09149944 0.16525686
-0.22328372 -0.0937807 0.018743321 0.8300805 0.045877203 -0.037666492 0.03480239 0.021479068
0.040030427 -0.0659505 -0.022916274 -0.025357064 -0.065778896 -0.041028146 -0.102749676 0.030497268
-0.04691657 -0.1250493 0.0051544164 0.1298285 0.00026457573 -0.0533258 -0.08782944 0.055157043
0.07554561 0.050681625 -0.00930135 -0.053967904 -0.010177287 -0.051050834 -0.013206419 0.022044368
-0.0035313454 0.025018657 -0.034551293 0.029621929 -0.0549757 -0.07990747 0.036588546 0.006930234
0.041740634 0.012002505 0.007298976 -0.014073506 0.009450885 -0.90090054 -0.016841667 -3.2251463
0.0507904 -0.41936126 0.08666578 0.13687946 0.05798211 0.030345934 -0.03583625 0.024588449
0.060907308 -0.07116786 0.025166266 -0.023096872 -0.22737737 -0.041512188 -0.00064083096 -0.0057025207
0.019035181 0.018987877 -0.023963213 0.06939407 -0.0061702766 0.017858014 0.039114907 0.014038226
-0.25009218 -0.035768647 0.04866255 0.004867114 0.03303389 -0.035749342 0.0015639428 0.06599929
0.044620924 0.13117728 -0.05412598 -0.091695696 -0.05346333 -0.07081739 -0.04498281 -0.038815826
0.0069774343 -0.054321714 0.00058802 0.009335913 0.07178607 0.11409353 -0.019794632 -0.02027841
-1.6614516 -0.10837241 0.021870513 -0.07087801 -0.014360711 0.03529228 0.050929654 -0.018820798
-0.0445891 0.059794106 -0.05190047 0.24879335 -0.14186044 -0.027057257 0.15649925 -0.06514854
-0.022281783 -0.054767597 0.0827217 -0.098390386 -0.05912862 -0.15252729 -0.053043112 -0.009460315
-0.086056195 -0.010504004 0.014043093 0.04202988 0.07679813 0.02238383 0.033186093 -0.0908798
-0.042315993 -0.016158745 0.010738357 -0.011126518 0.05864557 -0.015733443 0.51708233 0.026405081
-0.01776174 0.015649699 -0.005073931 -0.09852458 -0.0014593564 -0.0721728 -0.056010377 0.040791072
0.019103557 -0.11272105 -0.006859763 -0.033935286 -0.027087145 0.06597302 0.02162712 -0.5434746
0.0014379369 -0.026976135 0.02462376 0.14345358 -0.31321615 -0.0019844275 0.07441682 -0.11097023
0.07978834 0.014984384 -0.06739996 -0.07557676 0.1506032 0.077877395 -0.023815757 0.23697053
-0.025047723 -0.06196945 0.07118881 -0.113987625 -0.33994913 0.084067225 0.00058766827 -0.6622563
-0.031411603 0.025483895 -0.03600382 0.07771729 0.0060047507 0.025976397 0.0055604633 0.048536275
0.051726956 0.023660844 0.023092415 0.009605477 0.060871262 -0.06010139 0.44073617 -0.0014085881
-0.09343544 2.2582638 -0.022116208 -0.016625416 0.06389081 -0.35274917 0.05554541 -0.042209312
-0.1473106 0.04752627 -0.05420903 -0.008032235 0.022012487 -0.087925434 0.03681242 0.007870041
0.14955421 0.10136296 0.0990731 -0.75331944 0.02670775 0.013466945 0.051919684 -0.027957268
-0.06023522 -0.14056535 -0.03742761 -0.004045732 1.6335698 0.01368172 -0.037357453 -0.14195845
-0.021730194 -0.111233205 0.15115792 -0.0712963 0.12293403 -0.023340281 0.042491198 -0.01299125
00000000: bee5 943b bb2d d1bd a091 fbbc 7aa3 7bbd
00000010: 522d c1bd dffd 5bbd 250f aebb 1b40 793d
00000020: e84b e43c 4324 f93d 2b2e 0bbc e1e1 8c3c
00000030: f9f5 88bc 3133 4a40 9d1a 71bc 16e7 a7bd
00000040: c10f dabd 6599 123b d8a0 d63c 94ab aebd
00000050: b9d3 de3b 88bd dabd 0f64 bb3d 1839 293e
00000060: 7da4 64be 1810 c0bd 988b 993c 2880 543f
00000070: bce9 3b3d 2e48 1abd f38c 0e3d dff4 af3c
00000080: f2f6 233d 0e11 87bd e9ba bbbc 9eb9 cfbc
00000090: 16b7 86bd 210d 28bd 6c6e d2bd 68d5 f93c
000000a0: 972b 40bd ec0c 00be 61e6 a83b c3f1 043e
000000b0: c1b6 8a39 276c 5abd ecdf b3bd 5aec 613d
000000c0: a8b7 9a3d 8997 4f3d b164 18bc 730d 5dbd
000000d0: a3be 26bc ae1a 51bd bc5f 58bc 6496 b43c
000000e0: 256e 67bb edf3 cc3c a885 0dbd b0a9 f23c
000000f0: 332e 61bd 87a6 a3bd dfdd 153d 0417 e33b
00000100: 3af8 2a3d 28a6 443c 402c ef3b 9094 66bc
00000110: e2d7 1a3c 6ba1 66bf 89f7 89bc cc68 4ec0
00000120: 9809 503d 85b6 d6be d47d b13d 212a 0c3e
00000130: a67e 6d3d 0998 f83c 08c9 12bd b76d c93c
00000140: f179 793d 74c0 91bd 7c29 ce3c a735 bdbc
00000150: 9dd5 68be af08 2abd 70fd 27ba 36dc babb
00000160: abef 9b3c 778c 9b3c 804e c4bc 7a1e 8e3d
00000170: 0830 cabb f84a 923c f436 203d 9600 663c
00000180: 150c 80be 2582 12bd 6252 473d 507c 9f3b
00000190: 8b4e 073d e76d 12bd 36fd cc3a a32a 873d
000001a0: 6ec4 363d 5653 063e 34b3 5dbd f4ca bbbd
000001b0: 5dfc 5abd b508 91bd e53f 38bd 58fd 1ebd
000001c0: f6a2 e43b 7280 5ebd 5b25 1a3a a8f5 183c
000001d0: 9304 933d dea9 e93d 5a28 a2bc e81e a6bc
000001e0: 72aa d4bf 5bf2 ddbd ca29 b33c 7d28 91bd
000001f0: 3049 6bbc a38e 103d 9d9b 503d 132e 9abc
00000200: 0fa3 36bd aaea 743d 9695 54bd afc3 7e3e
00000210: dd43 11be 2ea7 ddbc 5741 203e 996c 85bd
00000220: 4988 b6bc fd53 60bd ff69 a93d e680 c9bd
00000230: da30 72bd 1d30 1cbe bc43 59bd 70ff 1abc
00000240: 3b3e b0bd fc18 2cbc 0015 663c 8627 2c3d
00000250: 5748 9d3d 4b5e b73c 24ee 073d 301f babd
00000260: 8953 2dbd 585f 84bc efef 2f3c 004c 36bc
00000270: 5636 703d 6ce3 80bc 825f 043f 784f d83c
00000280: 1281 91bc cc33 803c 3843 a6bb 41c7 c9bd
00000290: e047 bfba 55cf 93bd 236b 65bd 8a14 273d
000002a0: 107f 9c3c 4bda e6bd ddc7 e0bb baff 0abd
000002b0: dce5 ddbc dd1c 873d 5c2b b13c 2721 0bbf
000002c0: 2879 bc3a 0efd dcbc c4b7 c93c 7fe5 123e
000002d0: de5d a0be 2b0d 02bb d967 983d 5c44 e3bd
000002e0: 1268 a33d 1081 753c fd08 8abd fdc7 9abd
000002f0: ba37 1a3e 2f7e 9f3d 4319 c3bc 67a8 723e
00000300: e230 cdbc aed3 7dbd 70cb 913d 5872 e9bd
00000310: d00d aebe 702b ac3d c00d 1a3a a189 29bf
00000320: 74a9 00bd 9ac3 d03c be78 13bd 3e2a 9f3d
00000330: 80c3 c43b 74cc d43c 8c34 b63b f9cd 463d
00000340: a5df 533d 63d4 c13c 4e2c bd3c 4a60 1d3c
00000350: 2554 793d e02c 76bd 2ca8 e13e 60a0 b8ba
00000360: 145b bfbd 6587 1040 0d2d b5bc 0632 88bc
00000370: 2fd9 823d 8a9b b4be 9583 633d ace3 2cbd
00000380: 97d8 16be e8aa 423d 4a0a 5ebd a399 03bc
00000390: 8853 b43c 4012 b4bd 9fc8 163d 58f1 003c
000003a0: bd24 193e 6297 cf3d d6e6 ca3d 8bd9 40bf
000003b0: 36ca da3c 76a4 5c3c bca9 543d a406 e5bc
000003c0: 35b9 76bd 5df0 0fbe b24d 19bd 0f92 84bb
000003d0: d118 d13f 4b29 603c 2104 19bd 8e5d 11be
000003e0: 8503 b2bc 3cce e3bd 24c9 1a3e cb03 92bd
000003f0: d6c4 fb3d 1e34 bfbc 400b 2e3d 40d9 54bc

fc.bias f4 [2]
0.015858583 -0.03420156
00000000: dce9 813c ef16 0cbd
