trained_model_with_input_noise_rnn_noise_200epochs.pth (torch, 369967 bytes, 6 tensors)

rnn.input2h.weight f4 [300, 2]
-2.0495605 -1.1623635 1.1535181 -1.4305772 -0.4089658 0.26910457 2.2696042 -1.1820734
-1.3922626 0.54162705 -0.34989694 0.739658 0.52253526 -0.041137837 -0.115148365 -0.053247213
1.8043916 1.7465262 -0.5558353 -2.75401 0.22238775 0.8354313 0.3871577 0.4863518
-0.10460902 -0.35557282 -1.5634263 -1.0374615 0.52535117 -2.200167 -1.0595396 -1.6604565
-0.34040144 0.8126232 -1.6846011 -1.1615236 1.4894792 0.42606694 -2.2657292 0.3348504
-0.2996763 0.2670069 -0.09297966 1.1641356 1.232158 0.6659452 1.8348289 0.413711
0.20043196 2.3378587 -0.33910605 0.18012713 -1.1205895 1.0466937 -2.0252697 1.8613038
1.5729928 -1.974517 -1.6935617 -0.25176355 1.6197908 1.1034415 0.5152745 -1.9295301
-1.9717292 1.4525218 1.1060727 -2.1153069 1.5834917 -0.16182408 -1.1136571 1.8264993
-0.2525481 -2.4056897 1.5095085 -1.7616276 1.2683694 1.4167545 -1.437591 -1.4613817
-1.7623888 0.7597431 1.0438012 0.9064243 1.4293737 0.6468777 0.0072603323 -2.6098561
1.0662858 -0.082609445 -0.32433122 -1.9190699 -1.3137909 0.070148565 1.6521637 -0.23958765
-1.4193594 1.7231063 -2.1846075 0.60086846 -0.21683952 -0.3098256 0.47220024 1.3854916
2.0341263 -0.6226496 0.18094133 -0.48456484 -1.0687329 1.0744612 -1.0560123 0.5034343
-0.062428903 -0.31745923 -2.7464647 -0.2544855 1.2350041 1.5388037 -1.1105251 1.1645774
0.26252317 0.21012105 -1.1056867 -1.3384302 -0.19459093 0.17232227 2.57633 -0.07820204
-0.42975792 -0.16773349 -1.6284468 0.57906973 0.78534895 0.16057484 2.4348805 0.0011191749
2.6148264 -0.33548006 1.2183294 -0.98594284 -1.3341333 2.053842 -0.71201247 -0.78692603
-0.15898654 -2.1027489 -0.7649849 1.1253614 0.25643316 -0.16632104 1.2904625 1.4842778
0.12004104 1.8646615 -1.3219918 -0.01018311 1.149257 -1.2275113 -2.2345662 -0.7617203
-1.5475168 -0.43931264 1.1090177 -1.1055489 0.119242355 -0.9887965 -0.04065913 -0.23270851
1.2424377 -1.5099593 -0.68176264 2.1602833 2.3521106 -0.78746235 -0.54480946 2.7116485
-1.4885551 -1.1896031 2.4254308 -0.3880249 0.8364206 -0.5525109 -1.0041167 2.3410356
-0.5205983 -0.36229953 1.2833953 0.94628227 0.011625767 0.07200476 -1.2589964 0.6516699
-1.1982497 -1.9906955 1.7322048 -0.71028125 1.8037298 1.7613683 -2.1861553 0.20512812
1.8003331 -0.047910642 0.21842352 0.08741678 -0.49874434 -0.062887065 0.09713121 0.6102932
0.24657746 2.3013477 -1.7574074 -0.2583569 -2.339368 -1.1767875 0.68737084 1.0364919
1.2224187 0.84165853 0.042478003 -0.38935855 1.8420845 1.3610822 -0.61632055 1.2967814
0.9888154 1.6606903 -1.7787225 -1.365208 0.09880637 0.33974856 2.0516186 -0.8993572
-0.2930134 -0.26622185 -0.78048986 -1.3745543 0.25225246 0.23444253 -0.49883175 -2.585136
2.057927 0.3062334 -0.9165777 -0.9946696 0.8189468 -1.1556937 -1.4211516 -0.5031498
1.161181 0.96078515 -2.3395388 0.82366264 0.9340057 0.8730503 0.055500533 -0.08079761
00000000: 002c 03c0 54c8 94bf 7ba6 933f 271d b7bf
00000010: f763 d1be 13c8 893e 3241 1140 2e4e 97bf
00000020: a935 b2bf 12a8 0a3f b125 b3be 3a5a 3d3f
00000030: dfc4 053f 2680 28bd e8d2 ebbd c019 5abd
00000040: 4ef6 e63f 2c8e df3f 394b 0ebf b341 30c0
00000050: 9db9 633e d3de 553f 8939 c63e 1a03 f93e
00000060: 413d d6bd a40d b6be 5a1e c8bf 8acb 84bf
00000070: 6a7d 063f 89cf 0cc0 fe9e 87bf d789 d4bf
00000080: 1949 aebe 1308 503f 02a1 d7bf ceac 94bf
00000090: 41a7 be3f 7225 da3e b501 11c0 8371 ab3e
000000a0: 2c6f 99be 21b5 883e 1f6c bebd 6502 953f
000000b0: 5ab7 9d3f 627b 2a3f acdb ea3f eed1 d33e
000000c0: 093e 4d3e 7a9f 1540 4f9f adbe 3f73 383e
000000d0: 7a6f 8fbf 0ffa 853f 059e 01c0 343f ee3f
000000e0: d457 c93f f9bc fcbf a1c6 d8bf 27e7 80be
000000f0: 4e55 cf3f 923d 8d3f 08e9 033f d8fa f6bf
00000100: 9f61 fcbf 3cec b93f ca93 8d3f 3061 07c0
00000110: dbaf ca3f 36b5 25be 518c 8ebf bbca e93f
00000120: fc4d 81be d2f6 19c0 9337 c13f 037d e1bf
00000130: ee59 a23f 3658 b53f fb02 b8bf 8e0e bbbf
00000140: f595 e1bf 867e 423f 479b 853f 6c0b 683f
00000150: b8f5 b63f c799 253f 15e8 ed3b e207 27c0
00000160: 0e7c 883f 242f a9bd be0e a6be 15a4 f5bf
00000170: 4d2a a8bf 0daa 8f3d 1a7a d33f 7756 75be
00000180: 92ad b5bf bf8e dc3f 9cd0 0bc0 84d2 193f
00000190: 2e0b 5ebe 76a1 9ebe 3bc4 f13e ca57 b13f
000001a0: 202f 0240 f765 1fbf af48 393e e218 f8be
000001b0: 3dcc 88bf f287 893f 692b 87bf 12e1 003f
000001c0: 73b5 7fbd 048a a2be 14c6 2fc0 ec4b 82be
000001d0: 9d14 9e3f 85f7 c43f b025 8ebf df10 953f
000001e0: 7069 863e f929 573e 2487 8dbf ae51 abbf
000001f0: d842 47be 4075 303e 97e2 2440 6428 a0bd
00000200: 3b09 dcbe 54c2 2bbe f270 d0bf ea3d 143f
00000210: a10c 493f bb6d 243e 15d5 1b40 47b1 923a
00000220: 5159 2740 0bc4 abbe 38f2 9b3f c066 7cbf
00000230: e1c4 aabf 2672 0340 7346 36bf fc73 49bf
00000240: 5ecd 22be 7093 06c0 0dd6 43bf d80b 903f
00000250: 354b 833e 1050 2abe e02d a53f d1fc bd3f
00000260: 14d8 f53d 3aad ee3f 0737 a9bf 0fd7 26bc
00000270: da1a 933f 171f 9dbf 2203 0fc0 1a00 43bf
00000280: 0815 c6bf 96ed e0be 4bf4 8d3f a082 8dbf
00000290: 5635 f43d c421 7dbf 308a 26bd 244b 6ebe
000002a0: 3308 9f3f 5946 c1bf ff87 2ebf 1542 0a40
000002b0: fb88 1640 2297 49bf a278 0bbf a68b 2d40
000002c0: f988 bebf ea44 98bf 423a 1b40 33ab c6be
000002d0: a91f 563f 5b71 0dbf e586 80bf 87d3 1540
000002e0: ee45 05bf 537f b9be 4c46 a43f 8e3f 723f
000002f0: 007a 3e3c 3b77 933d cb26 a1bf d7d3 263f
00000300: 3f60 99bf 1ccf febf e3b8 dd3f fed4 35bf
00000310: 9ee0 e63f 8474 e13f f8e9 0bc0 1b0d 523e
00000320: 5171 e63f f33d 44bd 6aaa 5f3e 9207 b33d
00000330: 6b5b ffbe efca 80bd baec c63d 2d3c 1c3f
00000340: cd7e 7c3e 4849 1340 baf2 e0bf 5b47 84be
00000350: 35b8 15c0 f9a0 96bf 89f7 2f3f c4ab 843f
00000360: 3778 9c3f ef76 573f 6afd 2d3d 015a c7be
00000370: 6dc9 eb3f f137 ae3f 2fc7 1dbf effc a53f
00000380: 0223 7d3f 8091 d43f 2ead e3bf 23bf aebf
00000390: fe5a ca3d 86f3 ad3e b84d 0340 463c 66bf
000003a0: da05 96be 3b4e 88be 2fce 47bf 65f1 afbf
000003b0: 3c27 813e b411 703e e066 ffbe de72 25c0
000003c0: 13b5 0340 a0ca 9c3e d6a4 6abf aba2 7ebf
000003d0: 7fa6 513f c5ed 93bf 4ce8 b5bf 6dce 00bf
000003e0: 94a1 943f 04f6 753f 01bb 15c0 8edb 523f
000003f0: ff1a 6f3f 3980 5f3f 8754 633d 3879 a5bd

rnn.input2h.bias f4 [300]
0.62300575 0.16733798 -0.6628188 0.6030856 0.5489133 0.5198365 -0.5632874 -0.67330086
0.16630258 0.52269226 0.25233048 -0.6482136 -0.6985431 0.40167174 0.59866136 1.1071912
0.48177993 -0.6914114 0.78717256 0.40744498 -0.64391345 0.11376492 0.32481855 0.35079026
0.8098788 -0.47090217 -0.033876 0.55152446 0.4497981 0.5633887 1.3388389 0.7468509
0.29400784 0.5197992 0.66296154 0.7969894 0.82795846 0.55240846 0.24676092 -0.395496
0.7722723 0.61465746 0.6036165 1.2415825 0.04138855 0.8306707 0.3696042 0.3999349
0.6869289 0.60572755 -0.36645943 0.4713646 0.39639285 -0.6630473 0.10811429 0.6604182
-0.48948044 0.8178444 0.28280643 0.08575911 -0.61947775 0.41083443 -0.64933556 0.71509767
-0.58819115 0.30810437 -0.14465709 1.0062383 0.7016598 -0.80483776 0.47060442 0.42933547
0.39280894 -0.005440037 -0.5327196 0.02421191 0.4967444 0.28740835 0.076904595 0.9924595
0.6057004 -0.09850882 0.42612818 -0.654867 0.14164416 0.53072864 0.73964816 0.62673455
0.34343126 0.74909884 0.046767596 0.6857368 -0.63359475 0.93994963 -0.08366172 0.844465
0.6430573 0.20593911 0.6775237 0.7072231 0.7481258 0.118769296 -0.4651629 0.21260433
0.8288924 0.50340116 0.6374343 0.7674383 0.5482088 -0.57639897 0.34193975 0.34863892
0.33679873 0.5325068 -0.6853403 0.79105115 0.09489796 0.5245983 0.06964753 0.51421916
0.69634426 0.883995 -0.0018203265 0.9408125 -0.20290603 0.75579274 0.750009 -0.032720763
0.44498163 0.009047965 0.5686253 -0.6894344 0.5065712 0.040094692 0.05512616 0.4951615
1.1966915 0.68500364 0.6151784 0.34213012 0.6614858 0.37418115 1.2846061 0.5374481
-0.5429275 0.5402619 0.4996769 0.8062225 0.31155503 0.5616575 0.50890005 -0.15420541
0.55160624 0.21953122 0.16253081 0.23125724 0.42792392 0.40023917 0.34703076 -0.51891065
-0.56988263 0.72822976 0.3140091 -0.5398304 0.8123489 0.24012685 -0.13139349 0.5015063
0.29927245 -0.66291237 0.43266085 -0.37953997 0.7267013 0.76186347 -0.60717285 0.45771164
1.0333775 1.0002201 0.42818716 -0.17543264 1.0571215 0.8373622 0.88205045 0.33665097
0.55087525 0.63733315 0.8301712 0.71467507 0.7590278 0.4193346 0.7137024 0.6723287
-0.054306686 -0.39692947 0.8097153 0.6879597 0.38683447 -0.42491233 0.3912581 -0.09388798
0.716614 0.4100901 -0.64593565 0.46775234 0.0659882 -0.34797978 0.6603607 0.73233086
0.4518526 -0.0045006983 0.6773869 0.24440335 0.11095758 0.783283 0.4166267 0.38276616
0.9550401 0.5571863 0.40829122 0.7871161 0.60150564 0.19784424 0.21976346 -0.4376375
0.20439363 -0.03175795 0.44539502 -0.6434686 0.40468186 0.75804615 0.7368111 0.77284527
0.75618845 0.73674583 0.6859556 -0.3405211 0.28762546 -0.6121791 0.3777153 0.18581198
0.86122113 0.7310658 0.6195091 -0.59678376 0.7747009 0.55255604 0.45221183 0.2816563
0.5079138 0.6970884 0.15333924 0.0060338196 -0.1822948 0.767158 0.29827452 0.66069925
00000000: 4e7d 1f3f a65a 2b3e 7eae 29bf d163 1a3f
00000010: 9585 0c3f 0114 053f 9a33 10bf 725d 2cbf
00000020: 394b 2a3e 29cf 053f 7631 813e 54f1 25bf
00000030: b8d3 32bf eba7 cd3e df41 193f 71b8 8d3f
00000040: dcab f63e 5600 31bf 2484 493f a19c d03e
00000050: 83d7 24bf 95fd e83d 9e4e a63e c89a b33e
00000060: 3854 4f3f 171a f1be 90c1 0abd b530 0d3f
00000070: f04b e63e 3e3a 103f 135f ab3f 9f31 3f3f
00000080: 3288 963e 8f11 053f d9b7 293f 7f07 4c3f
00000090: 16f5 533f a46a 0d3f e5ae 7c3e 747e cabe
000000a0: a3b3 453f 315a 1d3f 9c86 1a3f 2dec 9e3f
000000b0: 0a87 293d d6a6 543f c33c bd3e 44c4 cc3e
000000c0: 93da 2f3f f610 1b3f 92a0 bbbe b356 f13e
000000d0: 01f4 ca3e 78bd 29bf 066b dd3d 2b11 293f
000000e0: 2e9d fabe 405e 513f 01cc 903e 79a2 af3d
000000f0: 1896 1ebf e458 d23e db3a 26bf a410 373f
00000100: b293 16bf dbbf 9d3e fd20 14be 6bcc 803f
00000110: fa9f 333f d909 4ebf 10f3 f03e dcd1 db3e
00000120: 411e c93e 5742 b2bb 5060 08bf 0e58 c63c
00000130: 4855 fe3e 3027 933e 2880 9d3d d311 7e3f
00000140: 2e0f 1b3f febe c9bd 792d da3e 5da5 27bf
00000150: 2b0b 113e d5dd 073f 9559 3d3f ad71 203f
00000160: 39d6 af3e f1c4 3f3f 618f 3f3d 728c 2f3f
00000170: 4433 22bf 8aa0 703f d656 abbd dc2e 583f
00000180: 679f 243f b4e1 523e 3172 2d3f 930c 353f
00000190: 2c85 3f3f 513d f33d d529 eebe f3b4 593e
000001a0: 4b32 543f e6de 003f e52e 233f d676 443f
000001b0: 6957 0c3f e28e 13bf ba12 af3e cd80 b23e
000001c0: e270 ac3e 5e52 083f 7672 2fbf 5482 4a3f
000001d0: dd59 c23d 134c 063f 5da3 8e3d dea3 033f
000001e0: 9e43 323f 7f4d 623f 0698 eeba 17d9 703f
000001f0: 99c6 4fbe a27b 413f 9700 403f 3506 06bd
00000200: a2d4 e33e ea3d 143c 6d91 113f c67e 30bf
00000210: a6ae 013f 553a 243d f8cb 613d cf85 fd3e
00000220: 302d 993f 665c 2f3f 557c 1d3f ae2b af3e
00000230: 2257 293f ac94 bf3e f96d a43f 3396 093f
00000240: 4cfd 0abf 9b4e 0a3f a7d5 ff3e 9964 4e3f
00000250: 2484 9f3e c9c8 0f3f 4647 023f 06e8 1dbe
00000260: 1136 0d3f cbcc 603e 7a6e 263e b3ce 6c3e
00000270: d818 db3e 26ec cc3e 04ae b13e 54d7 04bf
00000280: d4e3 11bf 446d 3a3f cdc5 a03e 5332 0abf
00000290: 19f6 4f3f d0e3 753e 048c 06be b862 003f
000002a0: 3d3a 993e a0b4 29bf b985 dd3e 1053 c2be
000002b0: 1909 3a3f 7c09 433f ae6f 1bbf 2e59 ea3e
000002c0: b745 843f 3607 803f 593b db3e 9da4 33be
000002d0: c24f 873f 5e5d 563f 0fce 613f 845d ac3e
000002e0: 2906 0d3f 4428 233f 1a86 543f f2f4 363f
000002f0: a54f 423f 06b3 d63e 33b5 363f bc1d 2c3f
00000300: b070 5ebd 573a cbbe 8049 4f3f 201e 303f
00000310: 2b0f c63e 1c8e d9be fb52 c83e 5748 c0bd
00000320: 0474 373f 54f7 d13e 0a5c 25bf 3c7d ef3e
00000330: d224 873d 682a b2be 660d 293f 097a 3b3f
00000340: 3959 e73e 987a 93bb 3a69 2d3f df44 7a3e
00000350: ba3d e33d 3c85 483f 1850 d53e edf9 c33e
00000360: 827d 743f c3a3 0e3f 8c0b d13e 7180 493f
00000370: 46fc 193f ae97 4a3e ac09 613e 0612 e0be
00000380: 904c 513e a014 02bd d10a e43e 5cba 24bf
00000390: 7632 cf3e 500f 423f a79f 3c3f 30d9 453f
000003a0: 9195 413f 609b 3c3f c99a 2f3f c858 aebe
000003b0: a543 933e c5b7 1cbf e663 c13e 7f45 3e3e
000003c0: fd78 5c3f 2127 3b3f 2698 1e3f d2c6 18bf
000003d0: cc52 463f 5074 0d3f 4f88 e73e 4135 903e
000003e0: a406 023f 6374 323f f604 1d3e 59b7 c53b
000003f0: 7dab 3abe 7764 443f 70b7 983e 9623 293f

rnn.h2h.weight f4 [300, 300]
-3.3566713 -0.51198786 0.28144076 0.3545836 -0.8243354 0.10563078 -0.08807751 -0.16087218
1.8918599 -1.4139434 0.15846254 0.10758667 0.065520085 -0.29739967 -0.91884625 -1.678531
-0.31150487 -0.67015165 0.9090732 -1.1278709 0.09158809 0.20586395 0.858528 0.9543774
0.95338637 -0.08013572 -0.86738026 -0.211258 -0.15933868 -1.2744532 0.8160405 -0.7645644
-0.85417944 -0.3753772 0.14774829 0.46746218 -1.0920693 0.012386677 1.2699981 -1.0330768
-0.72864836 0.75835335 0.826953 -1.1126201 0.18140098 -1.0925342 -1.5804425 0.41146594
0.1301947 -1.287936 -0.03633318 0.9363898 0.79519594 -0.055185795 -0.5415608 -0.58975405
-0.19796997 -1.1403553 1.0723591 -0.60284764 0.07731534 -2.0006635 -0.031029355 1.13248
-0.1494522 -1.0029883 0.32070568 0.9701943 0.9738496 -0.31223494 0.21053107 -1.2105097
-1.3307966 -0.6412713 -0.049564533 1.6267253 0.8464908 -1.2204363 -0.3516101 -1.4396081
-1.0645412 -0.5850462 -0.95563924 0.05559657 -0.3887396 0.37844932 0.7612879 0.77822137
0.4378322 0.9799264 -0.0038293328 0.49658206 -0.112061225 1.0364988 -0.5078797 -0.57978135
-1.7733114 0.3133243 1.3439392 -1.2547337 0.68352 -0.39015186 -0.010290413 0.17813155
0.9878423 -1.1071941 -4.1470385 0.80274624 0.83688277 0.054201096 1.7096179 0.12046026
1.0418831 -1.2305443 -0.0032098943 0.7916585 -0.37427518 -1.0969211 0.023584638 -1.3127152
1.1021762 -1.7394997 -0.71285886 -1.7724564 2.0228715 -0.57004815 0.8259468 -0.14076453
0.7140441 -0.32033402 0.92513984 -0.03710051 -1.4356401 -0.9101285 -0.6106577 -0.22396298
-1.0584519 0.43908933 1.2417738 0.010699754 0.5024883 0.13709529 -0.0044376636 0.45226416
-0.13434507 -0.757863 0.5666553 -1.5219847 0.8316692 0.14811549 0.01907607 -1.5494417
-0.64666384 -0.07421645 -0.44386873 0.23936595 -1.200651 0.006032313 -1.3004334 0.049798854
-0.1853149 0.24132188 -0.061452497 -0.075554855 -1.5657042 -0.51974285 0.48747745 0.19203934
-1.2048994 0.038474463 0.8999424 0.09073903 -1.692074 -1.3749541 0.051959507 -1.3388733
-0.11648404 1.1709089 0.039256502 -0.4902725 -1.7438991 -1.3459268 0.86802167 0.5858952
0.60438687 -1.293705 -1.4315916 1.1239198 0.5494777 0.43228063 -1.3087078 1.106618
1.1977845 -0.9519268 -1.2758536 1.1253718 1.4245734 1.9919004 -0.34638843 -1.3698933
1.0138173 -1.7575591 0.0064428323 1.4049612 -1.0467348 -0.026853139 -1.5597653 0.5528371
0.36934388 1.460244 0.6280083 0.084529676 0.3955608 -1.9908502 -1.2605191 0.8730093
-1.9382893 0.14792834 -0.13098952 0.8166842 1.2967921 -1.3119222 1.2127014 0.12372551
-0.3604024 -0.22013754 -0.33717793 0.09216304 -0.041042663 0.5544551 -1.0074567 1.0403126
0.37839365 -1.0343524 -1.1550511 -0.0035202014 -0.38730273 0.08675286 -0.676342 -1.5668806
1.0692219 -1.2740366 0.031755682 -0.15105444 -0.13226594 -0.59769243 -0.02116018 0.9968152
-0.8555369 -1.4534588 1.2619928 -0.31507233 -2.6180668 -1.6755395 -0.5427038 0.26675263
00000000: b4d3 56c0 a311 03bf 0119 903e fb8b b53e
00000010: a507 53bf f354 d83d fb61 b4bd adbb 24be
00000020: 7728 f23f 19fc b4bf 0144 223e 6656 dc3d
00000030: 652f 863d c544 98be 8239 6bbf 1bda d6bf
00000040: 917d 9fbe 0f8f 2bbf 05b9 683f 135e 90bf
00000050: 8992 bb3d 00ce 523e 7ec8 5b3f 1452 743f
00000060: 2111 743f 321e a4bd a20c 5ebf 0454 58be
00000070: ae29 23be 4821 a3bf 08e8 503f 7eba 43bf
00000080: 81ab 5abf 7131 c0be 544b 173e 3457 ef3e
00000090: edc8 8bbf 7df1 4a3c 4c8f a23f dc3b 84bf
000000a0: b388 3abf 7223 423f 31b3 533f 566a 8ebf
000000b0: 2ec1 393e 29d8 8bbf f14b cabf aaab d23e
000000c0: c251 053e 16db a4bf 1ad2 14bd 3eb7 6f3f
000000d0: f691 4b3f 800a 62bd bba3 0abf 1ffa 16bf
000000e0: a4b8 4abe 2af7 91bf 1043 893f 3954 1abf
000000f0: 8157 9e3d df0a 00c0 4631 febc 1bf5 903f
00000100: ff09 19be ec61 80bf 8933 a43e a75e 783f
00000110: 354e 793f 42dd 9fbe 7595 573e fbf1 9abf
00000120: 8b57 aabf 5b2a 24bf 2e04 4bbd 8938 d03f
00000130: 9fb3 583f 4237 9cbf 3d06 b4be 1445 b8bf
00000140: e342 88bf 96c5 15bf c6a4 74bf 3bb9 633d
00000150: e008 c7be 1cc4 c13e c4e3 423f 8439 473f
00000160: 8b2b e03e 75dc 7a3f 8bf5 7abb 0140 fe3e
00000170: 5b80 e5bd feab 843f 6704 02bf 8d6c 14bf
00000180: defb e2bf 0b6c a03e 3306 ac3f 1d9b a0bf
00000190: 2bfb 2e3f fcc1 c7be 1f99 28bc 1e68 363e
000001a0: 3ce3 7c3f 89b8 8dbf 8ab4 84c0 c780 4d3f
000001b0: f33d 563f f801 5e3d c2d4 da3f deb3 f63d
000001c0: 6d5c 853f 7a82 9dbf 175d 52bb 22aa 4a3f
000001d0: ffa0 bfbe e967 8cbf 9234 c13c 0d07 a8bf
000001e0: 1c14 8d3f eda7 debf eb7d 36bf dadf e2bf
000001f0: ba76 0140 adee 11bf 4071 533f 9424 10be
00000200: 98cb 363f d202 a4be f7d5 6c3f b4f6 17bd
00000210: 0ec3 b7bf 2efe 68bf 1054 1cbf 8d56 65be
00000220: 5a7b 87bf 51d0 e03e 72f2 9e3f 054e 2f3c
00000230: 13a3 003f b562 0c3e d269 91bb 2b8f e73e
00000240: c191 09be 4f03 42bf 5210 113f 65d0 c2bf
00000250: 46e8 543f 96ab 173e 6b45 9c3c 1b54 c6bf
00000260: c38b 25bf cbfe 97bd c342 e3be 591c 753e
00000270: efae 99bf b6aa c53b 9a74 a6bf e2f9 4b3d
00000280: 30c3 3dbe 151d 773e 9db5 7bbd 81bc 9abd
00000290: ff68 c8bf de0d 05bf a596 f93e f6a5 443e
000002a0: 253a 9abf 6697 1d3d a062 663f 62d5 b93d
000002b0: e195 d8bf 7ffe afbf 7ed3 543d 3360 abbf
000002c0: 2f8f eebd 58e0 953f 6dcb 203d ff04 fbbe
000002d0: 1638 dfbf 5447 acbf ab36 5e3f 3afd 153f
000002e0: 19b9 1a3f 2098 a5bf 653e b7bf 9bdc 8f3f
000002f0: 92aa 0c3f e353 dd3e bd83 a7bf a9a5 8d3f
00000300: 0151 993f 7ab1 73bf 2c4f a3bf 2f0c 903f
00000310: 6c58 b63f 98f6 fe3f d359 b1be aa58 afbf
00000320: c4c4 813f b2f7 e0bf 651e d33b c5d5 b33f
00000330: 68fb 85bf 1dfb dbbc 64a6 c7bf bb86 0d3f
00000340: a41a bd3e 47e9 ba3f 27c5 203f e51d ad3d
00000350: f286 ca3e 2ed4 febf b158 a1bf 8a7d 5f3f
00000360: dd19 f8bf 877a 173e 1e22 06be 3712 513f
00000370: 49fd a53f 11ed a7bf cd39 9b3f cd63 fd3d
00000380: aa86 b8be bc6b 61be 96a2 acbe fabf bc3d
00000390: 5a1c 28bd c5f0 0d3f 57f4 80bf f728 853f
000003a0: d0bc c13e a965 84bf b7d8 93bf 2eb3 66bb
000003b0: 8b4c c6be 7cab b13d c024 2dbf 8b8f c8bf
000003c0: 43dc 883f a213 a3bf 3f12 023d 04ae 1abe
000003d0: b970 07be 5f02 19bf 1d58 adbc 482f 7f3f
000003e0: 7704 5bbf f00a babf fb88 a13f 2951 a1be
000003f0: 688e 27c0 1478 d6bf a3ee 0abf cd93 883e

rnn.h2h.bias f4 [300]
0.9771017 0.28167716 0.03258149 1.0016698 0.24315429 0.18488383 0.0034407529 0.025483742
0.6348278 1.2132121 0.07211909 -0.037901927 0.031826198 0.14935239 0.4326665 0.4798893
0.04477521 -0.4547206 0.20002897 0.63023835 -0.07033114 0.0819102 0.21786386 0.32789528
0.32023367 0.005845522 0.0349439 1.1791394 1.0752432 0.008552081 0.60185134 0.22498474
0.32607335 0.99446845 0.09166988 1.0561235 0.27018493 0.95763123 0.23684286 0.08265906
0.08125148 0.19562642 0.11000564 0.72702813 0.09266453 0.16418989 0.15465511 0.6777446
0.96896106 0.09383441 -0.11567645 0.082755655 0.681148 0.0137213785 0.25291112 0.014372485
-0.06982815 1.0320388 0.5149386 0.22827865 -0.024560414 0.74912935 -0.039259106 0.9277642
0.05081007 0.12489659 -0.025279948 0.45339137 1.1067026 -0.58632225 1.0679731 0.08580355
0.51096725 0.14198378 0.0110132685 0.3199929 0.11295103 0.122297965 0.13087408 0.32805684
0.10509869 0.115201935 0.10271528 0.0007149242 0.34019583 0.11571062 0.95673686 1.1725223
0.07685707 1.0387608 0.1147128 0.98594177 -0.0465154 0.30502963 0.021078961 0.16291285
1.1593107 0.328281 1.1119101 0.2339363 0.33314082 -0.0062219156 -0.058779042 0.11207867
0.32103974 0.6747937 1.1737156 0.08489353 0.16795272 -0.07874025 0.28633583 0.5417222
0.05030784 0.5940894 0.018318051 1.0808884 -0.011279884 0.105228946 0.039198138 1.1299521
0.109969124 0.15133534 0.10089641 0.4001787 -0.0039348044 1.0542554 0.13934442 -0.08699305
0.029692834 -0.27977896 0.24424131 0.010301751 0.20413516 -0.067773476 0.34885278 0.9406133
0.5220751 0.04287006 1.2323382 0.2397304 0.83404803 0.8151964 0.59283006 0.054839313
-0.0471726 0.8444498 0.14584856 0.120407276 0.13450634 1.1098706 0.12242367 -0.013770521
1.039836 0.077824436 0.36124083 0.09748872 0.07587044 0.07890094 0.716237 -0.04460616
-0.09342995 0.002615852 0.17647019 -0.04300442 0.19834204 0.2726686 -0.24361578 0.09911983
0.41571847 0.016608626 0.10460131 0.028524695 -0.021842686 0.088050365 -0.03493193 0.15255006
0.47374713 1.441279 0.03461495 0.06772217 0.5408268 1.0482473 0.14939879 0.68296355
0.19386658 0.061617 0.18684667 0.973806 0.071838 0.61656773 1.1151158 1.191021
-0.09856091 -0.11945592 0.5397139 1.0679054 0.19791172 -0.14683595 0.090942174 -0.09783801
1.0697693 0.44574857 0.022648431 1.1827918 0.22487023 -0.064978965 0.3804863 1.1142122
0.14861748 0.10526025 0.19039229 0.7072888 0.1053025 1.112029 0.16378579 0.10831806
0.49226335 1.1818649 0.046025574 0.25281242 1.0960939 0.058676474 0.12522577 -0.027800994
0.2893295 0.044851955 0.18158518 -0.053972527 0.6724153 0.24061818 0.092827104 0.13702801
0.07564193 0.14503592 0.14598858 -0.03661635 0.060376413 -0.0143694 0.5231693 0.15778963
0.18190962 0.09424827 0.8622172 -0.009413067 0.13464898 1.1186725 1.0493923 0.21846011
1.0616018 0.2577913 0.19140896 -0.11857321 0.45591795 1.1445203 0.078227155 0.172579
00000000: 5623 7a3f fd37 903e 2b74 053d b736 803f
00000010: 70fd 783e 3052 3d3e 417e 613b 48c3 d03c
00000020: 1384 223f 894a 9b3f 2cb3 933d 0d3f 1bbd
00000030: 305c 023d d5ef 183e 7786 dd3e 0db4 f53e
00000040: 3666 373d 23d1 e8be 65d4 4c3e 4d57 213f
00000050: c609 90bd 89c0 a73d b417 5f3e e4e1 a73e
00000060: abf5 a33e cb8b bf3b 5621 0f3d 0aee 963f
00000070: 92a1 893f 071e 0c3c ee12 1a3f 6662 663e
00000080: 16f3 a63e 7c95 7e3f 6bbd bb3d 0e2f 873f
00000090: ae55 8a3e 5227 753f ef86 723e 2749 a93d
000000a0: 2d67 a63d 4b52 483e a34a e13d 841e 3a3f
000000b0: e7c6 bd3d 6521 283e e95d 1e3e ac80 2d3f
000000c0: d50d 783f 412c c03d c6e7 ecbd cc7b a93d
000000d0: b75f 2e3f a2cf 603c 917d 813e 927a 6b3c
000000e0: 1002 8fbd d919 843f 04d3 033f e1c1 693e
000000f0: ec32 c9bc f1c6 3f3f 28ce 20bd f481 6d3f
00000100: 381e 503d c9c9 ff3d e517 cfbc ea22 e83e
00000110: 6ea8 8d3f 3719 16bf 58b3 883f c6b9 af3d
00000120: c0ce 023f 3264 113e ff70 343c 1cd6 a33e
00000130: df52 e73d 5b77 fa3d db03 063e 11f7 a73e
00000140: fb3d d73d feee eb3d 645c d23d c069 3b3a
00000150: 262e ae3e b1f9 ec3d b5ec 743f 3615 963f
00000160: 3d67 9d3d 1df6 843f 8bee ea3d ae66 7c3f
00000170: ef86 3ebd d82c 9c3e c9ad ac3c a0d2 263e
00000180: 4b64 943f 7214 a83e 1253 8e3f ff8c 6f3e
00000190: 6f91 aa3e 36e1 cbbb 4bc2 70bd 8089 e53d
000001a0: 525f a43e 48bf 2c3f 503c 963f a9dc ad3d
000001b0: ccfb 2b3e 9142 a1bd 9c9a 923e 4eae 0a3f
000001c0: 980f 4e3d 3e16 183f bd0f 963c 8d5a 8a3f
000001d0: 43cf 38bc 4682 d73d 3a8e 203d 45a2 903f
000001e0: 7e37 e13d a7f7 1a3e c7a2 ce3d 39e4 cc3e
000001f0: 88ef 80bb d7f1 863f 4eb0 0e3e 6a29 b2bd
00000200: 633e f33c 303f 8fbe 651a 7a3e adc8 283c
00000210: cf08 513e d2cc 8abd d59c b23e 09cc 703f
00000220: b7a6 053f 8498 2f3d 42bd 9d3f e37b 753e
00000230: 2c84 553f b6b0 503f b6c3 173f 309f 603d
00000240: 0e38 41bd dd2d 583f 5359 153e 1798 f63d
00000250: 08bc 093e 3d10 8e3f 43b9 fa3d c09d 61bc
00000260: 5919 853f 6b62 9f3d 8ff4 b83e 2ba8 c73d
00000270: f661 9b3d d196 a13d 4f5b 373f f3b4 36bd
00000280: 3458 bfbd b76e 2b3b 9ab4 343e 6725 30bd
00000290: 2d1a 4b3e 389b 8b3e 6a76 79be 56ff ca3d
000002a0: 0dd9 d43e d00e 883c 3639 d63d 9fac e93c
000002b0: 6fef b2bc c053 b43d c914 0fbd 1536 1c3e
000002c0: fc8e f23e d57b b83f 68c8 0d3d ecb1 8a3d
000002d0: a073 0a3f f82c 863f fffb 183e b3d6 2e3f
000002e0: f684 463e 1b62 7c3d bc54 3f3e 5a4b 793f
000002f0: cd1f 933d 62d7 1d3f 1dbc 8e3f 6073 983f
00000300: 4dda c9bd 4ea5 f4bd b12a 0a3f 20b1 883f
00000310: 5fa9 4a3e 2a5c 16be e43f ba3d 4b5f c8bd
00000320: 33ee 883f 2839 e43e 3489 b93c b965 973f
00000330: 6244 663e b113 85bd 1acf c23e 819e 8e3f
00000340: 2e2f 183e b092 d73d 32f6 423e e110 353f
00000350: d6a8 d73d f756 8e3f 76b7 273e dcd5 dd3d
00000360: f109 fc3e 5947 973f 5085 3c3d a170 813e
00000370: ce4c 8c3f be56 703d 2f3b 003e e9be e3bc
00000380: ff22 943e afb6 373d 77f1 393e 4c12 5dbd
00000390: 6923 2c3f 9d64 763e 231c be3d 1251 0c3e
000003a0: 28ea 9a3d 4c84 143e 087e 153e 07fb 15bd
000003b0: 424d 773d a26d 6bbc 6cee 053f 9b93 213e
000003c0: 8446 3a3e 3d05 c13d 44ba 5c3f 4439 1abc
000003d0: 6ce1 093e a930 8f3f 7d52 863f 02b4 5f3e
000003e0: 91e2 873f 39fd 833e b600 443e 83d6 f2bd
000003f0: 146e e93e a47f 923f 8f35 a03d 8db8 303e

fc.weight f4 [2, 300]
0.04848909 0.020694565 -0.0013267703 -0.091180146 0.020825423 -0.03423067 0.0011981106 -0.00247223
0.0011286023 0.0016273739 -0.010554783 0.002101855 0.0024204946 -0.014974313 -0.0010918583 0.017796084
0.011226772 -0.04212509 0.005200159 -0.03946775 -0.004482045 0.0013097108 0.015780052 0.021185605
0.00664607 0.0017368351 0.011420906 0.07360708 -0.0002940336 -0.0069950954 -0.023032157 0.00060219376
0.005443222 -0.0005824956 0.016508922 -0.0016868525 -0.010380507 -0.0010558419 0.009119659 -0.013277364
0.019576939 -0.0066967956 0.003629357 -0.019931855 0.020821955 -0.0012989523 -0.007605177 0.052432332
-0.000988738 0.017285107 -0.0007606527 0.0046183444 0.0062508876 -0.006027427 -0.011346373 -0.007828441
-0.002758162 0.000115597366 0.012191655 -0.0064961584 -0.0014486196 -0.016223088 0.0056702606 0.003216183
-0.0032212057 -0.0011090287 -0.020339657 -0.004281607 8.593734e-05 -0.023948368 -0.0010202128 0.0013682018
0.00026888028 0.0032413937 4.497418e-05 -0.0009912277 -2.3515342e-05 -0.007815861 -0.011678471 0.021004923
-0.0020553726 -0.0060465815 0.027697869 0.0037803089 0.012322344 -0.0047993707 -7.496914e-06 0.0015567613
-0.006527533 0.0035444454 0.008714852 0.00044444748 0.0017070465 0.004763554 0.015393681 0.009870968
-0.00023485781 0.00804052 0.0018262842 0.0026145165 0.024184708 -0.0020832368 -0.0019546794 0.029529031
-0.007890628 -0.03926698 0.076444544 0.00043282085 0.0075215255 0.00044796715 -0.0010035126 -0.014849087
0.0026294945 0.005442746 0.00039016458 0.0009486813 -0.00586069 0.0016621451 -0.0056726206 -0.0013235305
-0.028540477 0.0023273062 0.0057017007 -0.029058443 0.0060033714 0.00017573252 0.0125203775 0.0026737202
0.02812488 -0.01488155 0.005155802 0.0027827227 -0.0025187961 0.00041760041 -0.02536156 -0.0004180313
0.009417241 0.017628517 0.0023118558 0.0012169078 0.00072028936 0.029731782 -0.0035519537 -0.005550864
-0.0016502382 0.00035749952 -0.0066035544 -0.0005953757 0.0067080418 -0.00093367783 0.028854253 0.009759899
-0.0024522142 0.003716404 -0.011913825 0.019524222 0.024127979 0.0037031216 -0.043026317 -0.010118638
0.0050973054 -0.00070061494 -0.0032031531 -0.0019549544 0.008525715 0.008886181 -0.024279075 0.022851568
-0.025481457 -0.0030477296 0.0010974071 0.008007945 0.0031669403 0.0005962482 0.0011139442 0.0016688415
0.032758486 -0.07967853 -0.0037748024 0.013099223 0.02305164 0.0010001379 0.009327604 0.0197923
0.0121785235 -0.018549303 -0.0005384634 0.001225277 0.0181557 0.027177552 -0.00040790968 -0.0010741991
-0.0068446193 0.00041369378 0.02324051 -0.00074876664 0.00069736986 0.040028654 0.046645984 0.0005704498
0.00060674764 -0.008000478 0.00022434484 0.00017045758 -0.00032415893 -0.0316637 0.005316175 -0.003017684
-0.0008660485 -0.00927199 -0.0060719056 -0.019150304 -0.0132422205 0.0014365448 -0.046817027 0.0010270776
0.030103328 0.0015275475 0.014158589 0.008026829 -0.00010781734 0.0022718627 -0.0019601006 -0.003107513
-0.01373225 0.0037434655 0.0032158177 0.0013511903 -0.00012916888 -0.03049325 -0.014553489 0.002355152
0.0007235017 -0.0018186186 -0.039841764 0.0004056159 0.0071073873 -0.003756279 -0.043129258 -0.0029377632
-0.019968348 -0.003771621 0.0020889651 0.005745609 -0.0056165187 -0.0013484653 0.0027177345 0.018569827
-0.00021045946 0.0004763917 0.012824972 0.013002803 0.016194552 0.0015245321 -0.003666321 -0.00012720223
00000000: 7f9c 463d a687 a93c 06e7 adba a8bc babd
00000010: 149a aa3c 7635 0cbd ec09 9d3a 2305 22bb
00000020: 9ced 933a 9b4d d53a f8ed 2cbc 46bf 093b
00000030: 29a1 1e3b d256 75bc af1c 8fba 18c9 913c
00000040: 7ff0 373c 5c8b 2cbd 1866 aa3b efa8 21bd
00000050: 1ede 92bb 9aaa ab3a 2b45 813c 6f8d ad3c
00000060: 47c7 d93b 84a6 e33a c01e 3b3c 4fbf 963d
00000070: 8628 9ab9 1d37 e5bb efad bcbc 8adc 1d3a
00000080: 0e5d b23b 9eb2 18ba b83d 873c 6119 ddba
00000090: 0113 2abc 2d64 8aba 9f6a 153c 4d89 59bc
000000a0: d15f a03c cb70 dbbb 82da 6d3b 2148 a3bc
000000b0: ce92 aa3c 9b41 aaba d934 f9bb 49c3 563d
000000c0: 8b98 81ba 7f99 8d3c 8a66 47ba 7b55 973b
000000d0: 3fd4 cc3b b981 c5bb 23e6 39bc dd42 00bc
000000e0: 48c2 34bb dd6c f238 82bf 473c badd d4bb
000000f0: 9cdf bdba 48e6 84bc 98cd b93b 99c6 523b
00000100: dd1a 53bb d45c 91ba 5a9f a6bc b94c 8cbb
00000110: 4239 b438 5e2f c4bc a9b8 85ba 3c55 b33a
00000120: 80f8 8c39 906d 543b a8a2 3c38 15ec 81ba
00000130: d042 c5b7 190e 00bc 0f57 3fbc 8412 ac3c
00000140: 6eb3 06bb 6722 c6bb a4e6 e23c 0fbf 773b
00000150: a8e3 493c 0a44 9dbb 008e fbb6 3e0c cc3a
00000160: eae4 d5bb ed49 683b bdc8 0e3c bb04 e939
00000170: fabe df3a 9617 9c3b c735 7c3c d7b9 213c
00000180: 2a44 76b9 63bc 033c ee5f ef3a 4f58 2b3b
00000190: 021f c63c ea86 08bb 141a 00bb dee6 f13c
000001a0: b147 01bc 6ad6 20bd f58e 9c3d 3bec e239
000001b0: 2177 f63b 22dd ea39 4c88 83ba 9649 73bc
000001c0: 9953 2c3b 1059 b23b 018f cc39 edb0 783a
000001d0: 080b c0bb 56dc d93a 64e1 b9bb 507a adba
000001e0: b8cd e9bc b885 183b 55d5 ba3b f90b eebc
000001f0: eeb7 c43b d744 3839 4522 4d3c 9539 2f3b
00000200: 2666 e63c bfd1 73bc 00f2 a83b 575e 363b
00000210: 6312 25bb 61f1 da39 0cc3 cfbc 362b dbb9
00000220: c64a 1a3c ae69 903c 8182 173b a680 9f3a
00000230: cdd1 3c3a 1190 f33c e5c7 68bb 06e4 b5bb
00000240: ce4c d8ba c66e bb39 a162 d8bb fd12 1cba
00000250: 22cf db3b 0fc2 74ba c15f ec3c fce7 1f3c
00000260: 54b5 20bb ea8e 733b 3432 43bc 43f1 9f3c
00000270: 0aa8 c53c 12b0 723b 5d3c 30bd a5c8 25bc
00000280: 4c07 a73b 79a9 37ba feeb 51bb b11e 00bb
00000290: 71af 0b3c 5897 113c e9e4 c6bc 3633 bb3c
000002a0: 7dbe d0bc 6bbc 47bb dfd6 8f3a c133 033c
000002b0: 718c 4f3b 8a4d 1c3a c401 923a 07bd da3a
000002c0: c32d 063d 7f2e a3bd ad62 77bb 209e 563c
000002d0: cbd6 bc3c 0f17 833a cfd2 183c 7623 a23c
000002e0: 6e88 473c b5f4 97bc ab27 0dba 7999 a03a
000002f0: 43bb 943c 75a3 de3c b6dc d5b9 24cc 8cba
00000300: d448 e0bb 0ae5 d839 e262 be3c e148 44ba
00000310: b3cf 363a 16f5 233d dc0f 3f3d 3d8a 153a
00000320: 250e 1f3a 7014 03bc 1c3e 6b39 dcbc 3239
00000330: e0f3 a9b9 ccb1 01bd 4f33 ae3b 56c4 45bb
00000340: 8807 63ba 8be9 17bc d6f6 c6bb 19e1 9cbc
00000350: e6f5 58bc 724a bc3a 36c3 3fbd 019f 863a
00000360: 419b f63c fd37 c83a 6df9 673c f682 033c
00000370: fe1b e2b8 88e3 143b 0875 00bb 6ba7 4bbb
00000380: 3bfd 60bc ee54 753b 78c0 523b 6c1a b13a
00000390: 8271 07b9 fbcc f9bc c271 6ebc e558 1a3b
000003a0: 61a9 3d3a b75e eeba 1e31 23bd d8a8 d439
000003b0: 16e5 e83b e72b 76bb 4ea8 30bd 7d87 40bb
000003c0: a994 a3bc 4d2d 77bb 05e7 083b a945 bc3b
000003d0: c60a b8bb fdbe b0ba 051c 323b c01f 983c
000003e0: c8ae 5cb9 36c4 f939 d51f 523c b509 553c
000003f0: 70aa 843c cfd2 c73a a946 70bb 9761 05b9

fc.bias f4 [2]
-0.022028675 0.01170152
00000000: 7b75 b4bc bbb7 3f3c
