trained_model_with_input_error_200epchos.pth (torch, 369175 bytes, 6 tensors)

rnn_cell.weight_ih f4 [300, 2]
00000000: c84b 9f3c 1f1e 37bd a764 143e 1e17 00be
00000010: 9e97 c2bd 29e2 3cbe d6a6 98bd 2745 24be
00000020: 649f 97bc 9104 a73d 96a0 9b3c 196a 153d
00000030: 283b 7a3d 4c97 fbbb ea2b 91bc b623 91be
00000040: d958 453b 5e80 0e3d e72a 99bc 34f1 4cbb
00000050: 8b4a acbd f0d8 8c3d 4c58 183d 381e 0fbb
00000060: dbae babd 9847 81bd 0366 88bc f9f1 ebbc
00000070: 2a41 89bc 97b2 7fbd d490 4fbc ba6b bd3b
00000080: bcdd 41bb c472 223c baa7 4ebb a71f aabb
00000090: 0f8b 4abc 40dd 7f3c 50e4 f6bd 58b1 3dbd
000000a0: 066f f53b 9c71 e23d 7a55 5b3c 71fe ea3b
000000b0: 75dd bb3d 7dbd cc3d 3ffd 8dbb cea9 13bd
000000c0: 04b3 fcbc 8e5c debb b6d0 c4bd 935c c0bd
000000d0: 2783 4ebe 3fe3 8f3e 1737 993d f4a1 343c
000000e0: 5552 463e 36a8 fd3d 6b35 0c3e 6e01 ca3d
000000f0: 646c dabd 4196 9fbd cbec f23c 00a1 11bc
00000100: 3904 4fbd 7c4d e93d 4942 d13b 42d6 70bc
00000110: 7057 4fbb 3f35 61bc 50f7 613d 0f3f babb
00000120: 2651 13bc 0a6c e4bb dc07 41be e8d5 e1bc
00000130: 099f 9c3d 12bd 8abc 15ff 63bc 1e9e 26bd
00000140: 8c8f ff3d 890d b5bd d50a 393c 50ef 073d
00000150: fe97 e83b d69a 1ebc 309c 3cbd a82e 55bd
00000160: 8d92 aabd d2f1 013e ba46 a1ba 191a 0e3d
00000170: aea7 943c 588d 2f3b 5432 47be 4f27 27be
00000180: ef91 8b3c 65a4 f13d 0217 f03c e952 883d
00000190: 406e bc3d fde1 8dbb 7e34 d1bc 7156 343d
000001a0: 2515 90bd d04a 693c d6bf 8c3d 4394 c3bc
000001b0: ec56 7abd 99f6 2b3c 5154 c33c 98dd b1bd
000001c0: 5954 43be 3335 66be 3c6f 883b 692f 9abc
000001d0: a8c5 173e 3b91 15bd c8f3 f33b 6883 14bd
000001e0: 1c77 21be 3f74 52bd ceec 23be 3134 01bc
000001f0: 1631 5c3d dd4b 003c 9b0c 4d3d bcd5 2cbd
00000200: 3a97 773c 6169 a9bd 795a d6bd 38c1 f8bd
00000210: e7b8 f9bb e2df ea3b 3191 7c3d 36d0 0cbd
00000220: 35ff 9bbc 29b1 38be 5e1b f23b 8eb4 65bd
00000230: b6c5 413c 8456 133c 5c9e 55bc 8991 2dba
00000240: 5375 a63c 44ed 46bd 1461 23bd bdb3 71ba
00000250: 8509 3dbe 80e9 0e3e 7158 d8bd 4161 94bd
00000260: a2b5 46bc d7bb 253c 3e4e 3d3d 4b63 48bd
00000270: d62e a13b d98c 3ebe 1d74 893d ead4 16be
00000280: 98c1 883d 0bad 2fbd 9acb 013d c8ea 2a3d
00000290: 0129 c43e a6ab 84bd d1bb 8b3d d136 81be
000002a0: e0fe 6c3b c78f f1bc 2020 38b9 f248 393c
000002b0: 6094 74bc 4a0d bf3c 2841 0a3d 842f 043d
000002c0: 5092 4bbe d154 713c 61e4 2dbd 8b29 1bbd
000002d0: 6447 8e3b a45b 64bc cf3e 64bd 7ed3 9a3d
000002e0: 7024 06bc 13cc efbc c4c3 51bd 9b95 123c
000002f0: 7422 cabc 51ea 94bc a996 263d 9255 72bb
00000300: a636 7bbd b5ad 9f3d 9780 d13d 8832 83bd
00000310: 6a35 183c b793 483c 5166 e0bc df38 0dbe
00000320: aca8 63bd 252e 6b3d 11a0 f03c f5fa 013d
00000330: 88ce 6dbd d600 f93d 471c 623b a303 21bc
00000340: a628 67bc 97f6 f13d 21df 883d c4a9 a4bc
00000350: 933c 37bd 4fce 5b3e 6410 53bd b1b1 fb3d
00000360: 1f6c 6a3d a00b f7bc bfcb 5fbd f8e6 74bc
00000370: 3909 ca3b 282c f53b 2748 63bb 0679 54bc
00000380: d377 e9bc 86e9 0abb 9e91 343e d7eb e53d
00000390: 9c6e 2d3e cd12 8cbd 57ad 4dbc de34 023c
000003a0: 38fd 21be 8e12 8e3d 3594 153c 79e8 06be
000003b0: 46ed 20bc 6326 2f3d 8754 b8bd d0ac 64bd
000003c0: be1c fdbd badb d4bd b962 f2bd 1ab6 12bd
000003d0: eed3 8cbd 37bb 7e3d 8817 8b3d b094 e53d
000003e0: c271 773c a214 00be 449a ba3c c208 323d
000003f0: 8ee9 a7be d0bf 563e 42a0 3b3d 5f92 d4bd
0.019445315 -0.04470646 0.14491521 -0.12508819 -0.09501575 -0.18445648 -0.074536964 -0.16042005
-0.01850862 0.08155168 0.018997472 0.036478136 0.061091572 -0.007677948 -0.017721135 -0.28347558
0.0030112772 0.03479039 -0.018697215 -0.0031271698 -0.084126554 0.06877315 0.03719358 -0.002183808
-0.09115382 -0.063124835 -0.016650205 -0.028801905 -0.016754705 -0.062426176 -0.012668807 0.0057806643
-0.0029581627 0.009915058 -0.0031533078 -0.0051917615 -0.012362256 0.015616715 -0.12055266 -0.046311706
0.0074900417 0.110568255 0.013387078 0.007171445 0.09173099 0.099970795 -0.004333168 -0.03605061
-0.03084708 -0.0067859357 -0.09610121 -0.09392657 -0.20167218 0.28103063 0.07481211 0.011024941
0.19367345 0.12385599 0.13692252 0.09863554 -0.10665205 -0.077923305 0.029653927 -0.008888483
-0.050541136 0.11391732 0.0063860756 -0.014699521 -0.003163781 -0.013745605 0.055167496 -0.0056837867
-0.008991515 -0.006970887 -0.18850654 -0.027567819 0.07647521 -0.016935859 -0.013915797 -0.040678136
0.12478551 -0.08840472 0.011294086 0.03318721 0.007098197 -0.00968047 -0.04604739 -0.052046448
-0.083287336 0.12689903 -0.0012304403 0.034692857 0.018146362 0.0026787128 -0.19452792 -0.16323589
0.01703736 0.11798934 0.029307846 0.06656439 0.09200716 -0.0043299184 -0.025537726 0.04402775
-0.07035283 0.014239028 0.06872527 -0.023874408 -0.06111805 0.010495805 0.023843916 -0.08684844
-0.19075145 -0.22481231 0.004163651 -0.018821435 0.14821494 -0.036515456 0.0074448325 -0.03625813
-0.15768093 -0.051380392 -0.16008303 -0.007885979 0.05375775 0.007830587 0.05006085 -0.04219602
0.015111739 -0.082720526 -0.10466475 -0.121462286 -0.007620919 0.007167802 0.061661903 -0.034378253
-0.01904259 -0.18036331 0.0073885163 -0.056080393 0.011826923 0.008992795 -0.013038244 -0.00066211127
0.020319616 -0.048566118 -0.039887503 -0.00092202035 -0.18460663 0.1395626 -0.10563744 -0.07245112
-0.012128266 0.010115585 0.046217196 -0.04892282 0.0049189134 -0.18608417 0.067116 -0.14729658
0.0667755 -0.042889636 0.03168831 0.04172781 0.38312533 -0.06478052 0.068229325 -0.25237134
0.003616266 -0.029487504 -0.00017559575 0.011308895 -0.0149279535 0.023321766 0.033753544 0.032271877
-0.19880033 0.014729694 -0.042454127 -0.037881415 0.0043420065 -0.013937864 -0.05572396 0.0755987
-0.008187398 -0.029272115 -0.051212087 0.008946802 -0.024674632 -0.018178137 0.040671024 -0.0036977273
-0.061331414 0.07796804 0.10229605 -0.064061224 0.009290079 0.012242249 -0.027392538 -0.13791226
-0.05558078 0.057417054 0.0293732 0.031733472 -0.05805829 0.121583626 0.0034501718 -0.009827527
-0.014108812 0.118146114 0.066831835 -0.020100482 -0.044735502 0.21465419 -0.051529303 0.12289751
0.05723202 -0.03015691 -0.054637667 -0.014947645 0.00616565 0.0074820705 -0.0034680457 -0.012968307
-0.02849952 -0.002119632 0.17633674 0.112266235 0.16936725 -0.068395235 -0.0125535345 0.007947175
-0.15819252 0.06937133 0.009129574 -0.13174619 -0.009822195 0.042761218 -0.09000497 -0.05582887
-0.12358998 -0.10393472 -0.11835236 -0.035818197 -0.0687636 0.06219026 0.067915976 0.112100005
0.015102806 -0.12507871 0.022778638 0.043465383 -0.32795376 0.20971608 0.04580713 -0.103794806

rnn_cell.weight_hh f4 [300, 300]
00000000: dcb4 fabc 78a3 42bd 6776 62bd f1df 903c
00000010: 7c75 9fbd 1fd6 1d3d 08f8 1c3d 2c23 0fbd
00000020: f4b9 163d 83cf cfbb fb41 13bd 1571 35bd
00000030: 2baa 2fbd 8c64 44bc d995 d33b 95a9 bebc
00000040: b907 67bc 246d 063d f37e ffba 97af 4a3d
00000050: 1ebd a6bd e364 2ebd 342a d5bb fe46 b5bd
00000060: 6481 d1bc 022c d13c 6dd1 8d3c 66b7 c4bd
00000070: b391 67bd d711 a13c f84a 4eb9 391c eebc
00000080: 666e 16bd e483 a03b bdec 13bb 8d3f 0fbd
00000090: c571 b63c 1e7f 403d 647f 393a cb37 a9bc
000000a0: d150 72bd 5f7b bc3c 7235 bd3c 8ecf b43c
000000b0: b96b 9ebd 93b4 af3c c837 dfbc 78be 99bc
000000c0: 652e cebc 9c2c 8ebd f546 45bc 2c32 aabc
000000d0: 2997 e53d 4307 f03c 6539 70bd 1d69 643c
000000e0: 7d39 17bc a95a 93bd b056 4c3d 43e7 963c
000000f0: 4388 8ebd 7640 8bbc 7f0a 633c 177e a4bd
00000100: 2a62 2abd 5ad3 34bc b636 033d 9d77 2e3d
00000110: c550 7cbd e548 1d3d 5625 a13c 40db 21bc
00000120: 7792 463d 8240 4bbd e06f 933c adfb 09bd
00000130: 2520 86bd 0add 6cbc 228e d83c 5a61 02bd
00000140: 4e9d 81bc afb3 a4bc 65a7 223d c5c5 e5bb
00000150: e7d1 d73a 4fa3 463d 1220 083d 5687 bcbc
00000160: 531e 92ba d589 72bc f764 88bd 5c78 f63c
00000170: eb67 2ebd 3ab6 293a 4810 aabb f91c bcbc
00000180: dd8b 93bd 2618 69bd a41c 23bc 91f1 113d
00000190: e43b c63c 1d84 983c 39ea afbd 57bc 53bd
000001a0: 902c d2bd 9cf2 0abd 2cce dbbd 04b2 ddbd
000001b0: 7069 0d3d 26fd 03bb 2922 e3bc 6dd1 15bc
000001c0: cfdb 893c 0a9d 4e3c 21a8 3f3c 814b 1c3b
000001d0: 26b2 ffbc f1bd 04bc edd5 d9bc 3ae9 383d
000001e0: 5ee9 3c3d 44f8 b5bc 49b2 09bb ca1c 30bd
000001f0: 1b1a 053c 8d44 cc3c b532 443d e7d0 ee3c
00000200: 9229 0ebc d0d1 043d b87e 70bd ff30 cbbc
00000210: f94b 743c 362e 043d 0557 c8bc 8c94 34bd
00000220: 0ca8 a4bc 12c2 48bc 4808 63bd a6a7 1f3d
00000230: 18f4 ed3d b038 67bd ec89 1fbc b6df b3bc
00000240: deb1 2e3c 7818 343d 1404 7c3b 20ae 72bd
00000250: 254b c83c b842 3abd aa50 6cbc 9ddb 2ebc
00000260: 1d38 4abc 041e 53bd a139 22bd 4d5c 933c
00000270: e7bc 0c3c 86eb 453c bc47 193a f01c 06bd
00000280: 20da 91bc b44d 563d e502 da3b d988 d5bd
00000290: 07fd 8d3b e179 de3a 4fa9 003d 8446 6fbc
000002a0: 55ad 60bd 75a0 bdbb bace 29bc 46e0 aebb
000002b0: 214b b73c 761f f0bb b779 94bd 65ed fa3c
000002c0: 3538 843d b794 34bd 2027 b3bc 6f89 bebd
000002d0: b0f8 3abd 6798 b2bd 01a1 853c c72b 6ebd
000002e0: 06f1 a7bd 4b9f 4abc feeb d33c 4808 a4bc
000002f0: 180c 68bd a837 973c 9ef2 d4bc ac31 63bd
00000300: 76ba c73c d529 8c3c 279a 26bd 4fcd a73c
00000310: 425f d1bd bc48 6dbd 0e9e 71bb 862b 3fbd
00000320: a3e8 07bd 7446 b9bc 5dfb 58bd 1c6b 0bbd
00000330: b174 12bd 1f65 303d 1816 643d 0033 88bd
00000340: 09e5 80bc 3298 2d3d e3ef 69bc 0a31 f7bc
00000350: 221e 153d c8e5 7cbd eae0 5cbd 8caf e1bc
00000360: 3cb5 2dbd 2932 0a3d 2d54 a03b dadb 9bbc
00000370: 505a c53c 2b76 19bd 9579 92bc 6577 3a3d
00000380: 994b f2bb 283e dd3c 3e30 433d 3058 35bd
00000390: 40f3 80bd 773f 99bd 7131 b53c 6e52 62bc
000003a0: 1eb2 d8bc ac37 3abd 6a2e fabc 6801 9dbc
000003b0: acd4 45bd f407 fcbd 7696 61bd ddba 3cbd
000003c0: 294a 48bd eed4 42bd c7b4 b73c c875 89bd
000003d0: f24f 94bd 7305 093c 991f 1f3c 7e41 2f3d
000003e0: 2fab ff3c fe15 e03c 6c04 70bd 8430 ef3c
000003f0: 3567 033d dfe0 123d 385c 93bd 11a7 33bd
-0.030603819 -0.047519177 -0.0552887 0.017684909 -0.0778608 0.03853428 0.03832248 -0.034945652
0.036798432 -0.006341876 -0.035951596 -0.044297297 -0.042886894 -0.011986863 0.006457072 -0.023274222
-0.014100962 0.03281893 -0.001949279 0.04948386 -0.0814154 -0.04257668 -0.006505275 -0.08851431
-0.025574394 0.02553368 0.017311776 -0.09605293 -0.056535434 0.019661827 -0.00019673619 -0.029066192
-0.036726378 0.004898535 -0.0022571527 -0.034972716 0.022271046 0.04699623 0.00070761726 -0.020656487
-0.059159104 0.023008047 0.023096774 0.022071626 -0.0773539 0.02144841 -0.027248278 -0.01876758
-0.025168607 -0.06942102 -0.012040843 -0.020775877 0.11210472 0.029300338 -0.058648486 0.013941077
-0.009230015 -0.071950264 0.04988736 0.018420821 -0.069595836 -0.01699851 0.013857483 -0.08031862
-0.041597523 -0.011036718 0.0320346 0.04259454 -0.061600465 0.038399596 0.019671123 -0.009878933
0.048479524 -0.049622066 0.017997682 -0.033687282 -0.065491 -0.014456997 0.026434962 -0.031831123
-0.015822079 -0.020105211 0.03971042 -0.0070121014 0.0016465754 0.048495587 0.03323371 -0.023013752
-0.0011147953 -0.0148033695 -0.066598825 0.030086689 -0.042579573 0.0006473992 -0.005189929 -0.022963034
-0.07204411 -0.056907795 -0.009955559 0.035630766 0.02419848 0.018617684 -0.08589596 -0.051693287
-0.10262406 -0.033922777 -0.107326835 -0.108249694 0.03452438 -0.0020139902 -0.02772625 -0.009144169
0.016828446 0.012610683 0.0116978 0.0023848715 -0.031212877 -0.008101926 -0.026591266 0.045144297
0.046120994 -0.022213109 -0.0021010807 -0.042996205 0.0081239 0.024935031 0.04789992 0.029152347
-0.008676903 0.032426655 -0.0587146 -0.024803637 0.014910691 0.032270633 -0.024455557 -0.044086978
-0.020099662 -0.012253301 -0.05542782 0.03897824 0.11618823 -0.056450546 -0.009737473 -0.02195726
0.010662524 0.043968648 0.003845458 -0.05924809 0.024449894 -0.045473784 -0.014423529 -0.010672477
-0.01234248 -0.051542297 -0.03960574 0.017988348 0.00858996 0.012080079 0.0005847176 -0.03274244
-0.017804205 0.052320197 0.006653177 -0.10426492 0.0043331417 0.0016973579 0.031411465 -0.014604215
-0.054852802 -0.0057869502 -0.010364229 -0.005336794 0.022374691 -0.007327969 -0.07249778 0.030630777
0.06456033 -0.044087138 -0.021869242 -0.09303557 -0.045647323 -0.08720475 0.016312124 -0.058147218
-0.082002684 -0.01236708 0.025869366 -0.02002348 -0.05665216 0.018459156 -0.025994595 -0.055467293
0.024380904 0.01710979 -0.040674355 0.020483641 -0.10223247 -0.057930693 -0.003686789 -0.046672367
-0.033180844 -0.022616602 -0.052974094 -0.034037694 -0.035755817 0.043065187 0.055685133 -0.066503525
-0.015734212 0.042381473 -0.014278385 -0.03017475 0.03640569 -0.061742574 -0.053925432 -0.027549528
-0.042409167 0.033739243 0.004892847 -0.019025732 0.024090916 -0.03746621 -0.01788024 0.04552402
-0.007394266 0.027007177 0.04765343 -0.044273555 -0.06296396 -0.07482808 0.022118302 -0.013813598
-0.02645212 -0.04546325 -0.03053971 -0.01916571 -0.048298523 -0.123062044 -0.05507513 -0.046076644
-0.04889885 -0.047566347 0.022425069 -0.06711918 -0.07241811 0.008363116 0.009712123 0.042787068
0.031209556 0.027354237 -0.058597967 0.029197939 0.032080848 0.035858985 -0.07195324 -0.0438605

rnn_cell.bias_ih f4 [300]
00000000: 6b47 fbbb 4b3a aa3d 6345 a93d 0e7c e83c
00000010: cc43 f33c cd26 a039 8a76 0bbd f4b2 25be
00000020: d837 21bd f2ca 34bd 9b46 003d a569 c5bc
00000030: 0bf9 813d 956b b3bc eff9 6abd 8b58 8bbc
00000040: 22fe 23bd 9550 b8bb e56d 51bd 8d07 babd
00000050: 0224 393d a999 72bd f5a0 25bc 3963 dc3b
00000060: 8919 7cbd 475c d63d 13ff 1e3c a15a d73d
00000070: b56f b53d e35f 323d 4cde 273d fd11 d6bc
00000080: 215f f9ba 6845 8ebd 012c ccbc bda0 67bd
00000090: 0dc8 82bc 11a7 9c3d 5ed9 033e 5c74 08be
000000a0: f862 90bc c5ec 85bd fbf3 f4bc 1bfd 5dbd
000000b0: c6d6 863d e385 78bd 4ddd 80bc c546 f7bd
000000c0: 5c8d 49bc b935 a33d fe06 923d 0ea1 803c
000000d0: 3148 91bc 0d82 823c 702a dcbc dd02 8bbd
000000e0: c473 403c 599f 52bd b35a bfbd 2516 5bbd
000000f0: 50ea 9b3d 7836 ccbd b0cd 72bd 225c 4cbc
00000100: bfb2 89bc 8e37 333d 09ca 203b 91ff 8dbd
00000110: 2875 8139 4c94 d4bc 8405 c83b 32c1 88bd
00000120: 08f1 06bd 329e 1cbd 15de 19bb 3e56 453d
00000130: b810 b33d b5e3 39bd 8b16 06be c3bb b73d
00000140: a759 24bd e401 adbd 48cb ffbc 99f1 203e
00000150: c568 92bd abfe da3c 2748 42bc da11 913d
00000160: c4bf c73c 2c62 4d3d 32a9 23bd 7fba 47bc
00000170: aaf0 423b be37 4fbd d1f4 c63c 678c 74bd
00000180: 8e75 20bd 1cd9 41bd 9d32 19bd cbcd 5f3d
00000190: fff7 6dbd be80 123c 2fc5 3e3b ad32 cbbc
000001a0: e092 0fbc 1ebc 2a3d b405 fa3b ce9d cebc
000001b0: ee65 49bb 2d10 9ebc 749f edbc fc01 2cbc
000001c0: 31a3 96bc b747 b63d 52d5 ba3d 8c59 75bd
000001d0: d9f4 d33c 7c12 adbd dea4 81bd 5b12 c5bd
000001e0: 68fc f03c f998 683d 80a0 0ebd 34d3 903d
000001f0: 3eb7 3bbd 12c9 d93d bb80 1d3e 0cbc 9f3d
00000200: 0c75 8ebd bdcd 9f3d 1d1e e73b 7859 aabb
00000210: 8fe1 35bd 55c6 123c eb7a 69bd 7d98 b7bc
00000220: 9743 a3bd f519 81bd e6ac b4bc 0593 ab3b
00000230: 5ea2 9bbd 6973 d53c 84c5 813d 4d45 86bc
00000240: ca27 ef3c 3e57 c83c 023d d13c 56bb 803d
00000250: 68c2 bbbc cf41 3c3d c443 90bc f368 4cbd
00000260: b903 9c3b 5aa3 40bd dbd4 b83d bb01 b4b9
00000270: 0f17 2e3d be59 f5bc 7630 373c 37ee 193e
00000280: 06ba 0abd 3ab6 efbc 07c5 2ebc 701f 8d3c
00000290: 283f 20bd 3f8d 10bd 8443 363d 8163 973b
000002a0: 95db 603d d5a7 073d 20e4 b7bb b984 24bb
000002b0: c552 c23d cd04 eebc 0321 cabc 361c db3c
000002c0: 0757 c0bc 2b99 44bc 160e 563d ca7a ae3d
000002d0: 6a0e b03d 450c 50bc 366e 583d 21a5 0f3d
000002e0: 6501 b03d c1ac d03b 814d efbd 96b4 cabd
000002f0: 74e5 8dbd ac57 ac3d 3eb4 81bb d51a 2fbd
00000300: 9956 2dbd dd2b 243d aff2 f73d 36c0 00bd
00000310: de39 c83d 952e 29bd bcae 5a3d 795f b4bc
00000320: 1ad0 323d 6d76 9f3c 2ed9 1c3c 6e82 52bd
00000330: be27 083b 9fea 1dbd e39c 493c 25e4 b93d
00000340: 820e be3d 182c 08bd 698a 5b3c 2523 7cbb
00000350: 335a 143d 0c58 4cbc 3526 1ebd b71a a2bc
00000360: 81ab 4ebd 2574 82bd 2990 c53a d4fd a2bc
00000370: 0983 70bd f202 713d 7401 f43c d8ff f5bc
00000380: 2466 dabd 17f8 c93c a990 58bd 9e14 d4bb
00000390: fdbc 0abc dd09 07be 8fac 793d 66a0 aebc
000003a0: ee8d 95bc b5e8 373d 4712 ea3a 75e7 b43d
000003b0: 496f ebbb 8b09 af3d b7e0 b93c 4d25 bebc
000003c0: a39f 803d 0739 42bd 94ea 90bd a8fc 9ebd
000003d0: e7d2 7c3d a0c7 8fbd ee2f 52bd ec77 a8bd
000003e0: 2867 bfbd e28b 213c 4c3c 21bd 3024 993c
000003f0: 8b4a 53bd 7382 d73c 5757 673c ba86 abbd
-0.007668426 0.083119 0.082651876 0.028379466 0.029695414 0.00030546487 -0.034048595 -0.16181546
-0.039359897 -0.044138856 0.031317335 -0.024098227 0.06346329 -0.021901885 -0.05736726 -0.017009994
-0.04003728 -0.0056248405 -0.051130194 -0.090834714 0.045200355 -0.059228573 -0.010109176 0.0067256954
-0.06154779 0.10466819 0.009704369 0.10515333 0.08859197 0.043548476 0.040983483 -0.026131624
-0.0019025543 -0.06946832 -0.024923326 -0.056549776 -0.015964532 0.07649053 0.12875888 -0.13325638
-0.017625317 -0.06539301 -0.029901495 -0.05419646 0.065839335 -0.06067456 -0.015730524 -0.12074045
-0.012301769 0.07969231 0.0713024 0.015701797 -0.017734619 0.015931154 -0.026875705 -0.067876555
0.011746351 -0.051421497 -0.093434714 -0.053487916 0.07613051 -0.099713266 -0.05927819 -0.012473138
-0.016808866 0.043754153 0.0024534485 -0.06933511 0.00024692086 -0.02594962 0.006104173 -0.06677474
-0.03294471 -0.038236804 -0.0023478318 0.04817795 0.08743423 -0.045383174 -0.13094537 0.089713596
-0.04012456 -0.08447626 -0.031224862 0.15717162 -0.071488895 0.026732763 -0.011858023 0.07083483
0.024383433 0.050142452 -0.03995628 -0.01219046 0.0029745498 -0.05059027 0.02428666 -0.05970421
-0.03917461 -0.047326192 -0.037401784 0.05463962 -0.058097836 0.008941827 0.002910923 -0.024804438
-0.008763045 0.04168331 0.0076300744 -0.025221732 -0.003073092 -0.019294823 -0.029006697 -0.01049852
-0.018388363 0.08900397 0.09122719 -0.05989985 0.025873588 -0.08450791 -0.06330274 -0.09622642
0.029417232 0.05678651 -0.034821033 0.07071534 -0.04582905 0.10634054 0.15381138 0.07799539
-0.06955919 0.07802913 0.0070531503 -0.005198654 -0.044404563 0.008958419 -0.05700199 -0.02241158
-0.07971876 -0.06303779 -0.0220551 0.005236032 -0.075993285 0.026056008 0.06336501 -0.016390467
0.029193778 0.024455663 0.025541786 0.062857315 -0.022919849 0.045961197 -0.017610438 -0.049904775
0.004761186 -0.047030784 0.09024974 -0.00034333565 0.04250246 -0.029950019 0.011180988 0.15032278
-0.033868812 -0.029261697 -0.010667092 0.017226905 -0.03912273 -0.035290953 0.04449798 0.004620016
0.05489691 0.03311904 -0.0056119114 -0.0025103523 0.09488443 -0.029055024 -0.024673944 0.02674685
-0.023478998 -0.011999409 0.052259527 0.08519514 0.08596499 -0.012698238 0.05283948 0.03506959
0.08594016 0.00636825 -0.116847046 -0.09897725 -0.0692853 0.084151596 -0.003958254 -0.0427502
-0.042318914 0.040080894 0.12106835 -0.031433307 0.09776662 -0.04130419 0.053389296 -0.022018181
0.043655492 0.01946565 0.009573264 -0.05139392 0.0020775641 -0.03855383 0.012305471 0.09076718
0.09280111 -0.033245176 0.013399699 -0.0038473096 0.036218833 -0.012472164 -0.038610656 -0.01978813
-0.050456528 -0.06369809 0.001507287 -0.019896425 -0.058718715 0.0588407 0.02978585 -0.030029222
-0.10664013 0.024654431 -0.052872334 -0.0064721843 -0.00846791 -0.13187356 0.06095558 -0.021316718
-0.018256154 0.04489966 0.001785823 0.088332094 -0.007184897 0.08546742 0.02269016 -0.023211146
0.06280448 -0.047417667 -0.07075992 -0.07763034 0.06172457 -0.07020497 -0.05131524 -0.08225998
-0.09345847 0.009860011 -0.039364144 0.018694013 -0.05158476 0.02630732 0.014119945 -0.083753064

rnn_cell.bias_hh f4 [300]
00000000: ee10 643c 56bd 7e3c 90a3 c33d d8b2 eaba
00000010: 9453 1a3d 9ab5 6fbd c846 2fbd 8b63 7bbd
00000020: b86d 45bd dc06 bd3c be63 57bc 56cd 4fbd
00000030: 9b68 503d 748e 2abd 4c7a 84bc 6086 e3b9
00000040: 90ad c9ba f8d5 acbb eba4 b2bc 1916 afbd
00000050: 8db2 4fbd 7d7d a53b 8f38 463d 31c0 3ebd
00000060: 6e4b 75bd 8c58 6e3d a53c 2dbd 4ef1 e73d
00000070: 2687 8c3d eb28 913d c937 7c3d 6691 42bd
00000080: ea42 223d faa0 d23b 6366 903b ba16 6cbd
00000090: fa6c a93b 3c84 b83a 8e50 0e3e a613 0abd
000000a0: 947a 193d 814f 27bd 0b4f c4bb 8775 23bd
000000b0: 5c52 7c3c f3a5 80bd e09c 3dbc e975 77bd
000000c0: 4933 43bd e322 053d f07b 833c 9335 89bd
000000d0: df27 71bd 5a70 c93c df5c 4ebd b20e 30bd
000000e0: 0adb 983d b9c5 d93c 0b3b f8bc 9784 2e3c
000000f0: ff87 683d 4f6d 39bd 627e 8aba 9ebc cbbd
00000100: 19f7 743d 5c47 903a 38e6 66bc 7bc0 eebc
00000110: b6f6 2a3d 2b21 f1bc 69c2 6bbd 463e e2bc
00000120: f310 91bd 56bd 2b3a 6180 363d 59b7 a73d
00000130: 5e4a cf3d cbdb d7bc af8d 7fbd 9e8c 7d3d
00000140: 4bb7 c6bd ce44 47bc 2282 24bd dfaa 8c3d
00000150: 886f 18bd 391e 33bd 5d8f abbc 0f30 9d3d
00000160: cd2f ef3a ab57 e83d 12b8 d23c 06e0 923d
00000170: 1cdb bbbc ad50 a5bc 8b63 8cbd 3187 28bc
00000180: aaab ef3c 2297 c7bc b9fa b03c e85f ab3d
00000190: 002e e6bc 3b30 6dbd 8d13 a03d 84e1 8ebc
000001a0: 4065 7ebc 8211 203c 8470 6b3d 0ed9 7ebd
000001b0: a57e 40bd d203 1abc 51e0 15bd 0a1d b3bb
000001c0: 872d 9bbd 8fed 853d 5794 703d 4e02 9b3c
000001d0: b039 663d 96f1 d2bd a6b5 6c3c 45ac a0bc
000001e0: a497 b63d f0af d73c 00a2 8bbd 0631 c33d
000001f0: 8b7b bd3c eb20 ce3d ff62 0b3e 4e77 1cbc
00000200: 3cf6 86bc b367 6a3d e5aa d5bc c64c 56bd
00000210: 25e5 6fbd 1bcc b3bd 5534 e6bc 3c7d 3cbd
00000220: b8d4 a3bc d26d 923b 4027 43bd 6fe8 1dbd
00000230: b78a a6bd d7f8 a13c f497 033d 98b7 8bbd
00000240: 049e 8c3d ead2 8f3d 6f73 3a3d f9ca 753d
00000250: bc89 9bbc 44a8 5bbb 170e edbb 310f 1fbd
00000260: 0f4f 39bd 23c1 b3bc 274d 8d3d 1176 81bd
00000270: af69 343d bdcd 3ebd 7c1c 0cbd 43dd 053e
00000280: b7a3 d3bc 95b8 3cbc 7cf1 e43c 9f35 aa3c
00000290: adae d9bc 1b54 96bc adc4 7a3d b5c8 6e3d
000002a0: a387 853d 8142 f6bc 3df1 b5bc d878 02bd
000002b0: 2265 1f3e 5461 bb3c 0dde 603d 24b5 57bd
000002c0: b0e6 73bd 8e45 dabb a6c1 8d3d f973 a93d
000002d0: 6dc7 863d d72a 24bc 8dcd ac3d 4ddc 833d
000002e0: 7433 673d 93c9 26bd b3c9 febd b1a7 07bd
000002f0: bb26 83bd 74c6 03ba e792 9bbd 4b1c 933c
00000300: ff17 60bc 90a9 c33b fadc 843d f1af 77bd
00000310: bc11 233d ab79 f9bc 8260 f63b 9ab7 af3b
00000320: 922b 8b3d a211 fdbc 22de 953d f376 5abc
00000330: 4b49 73bd 33ac 61bd d08f 62bd 934e 703d
00000340: 4571 1f3d a9b3 0ebd ea21 02bd ad64 1abd
00000350: 0135 463c 89b7 9dbd c81f 403a 0a61 aa3b
00000360: 519b 75bc 4431 16bd 2339 acbd 8df9 6a3c
00000370: 594e 023d d50a 723c a589 813d 1b32 10bd
00000380: 324a 26be 43a9 2abd e4b2 8ebd 7b1d 92bd
00000390: 06c9 13bd b252 bdbd 537a 84ba b0c0 11bd
000003a0: 3bf9 8a3c 3f7f d7bc 1ee9 01bd bb64 6d3d
000003b0: 6164 273c 2cf3 3b3c b5f7 18bd 845c abbd
000003c0: 7c2e 81bc 27c8 52bd 4a2e 51bc 069a 12bd
000003d0: 80d5 7b3c 07b2 91bd ab4b 26bd 6151 b7bd
000003e0: 53eb d93b 882d 66bd f95b c23c 71da 0dbd
000003f0: 0781 2dbd 6937 46bd db2c 093d 5c6e 853c
0.013920052 0.015548071 0.095526814 -0.0017906083 0.037677363 -0.058522798 -0.04279211 -0.06137423
-0.04820034 0.02307456 -0.013146339 -0.050732933 0.05088101 -0.04163976 -0.016171597 -0.0004339693
-0.0015386809 -0.0052745305 -0.021807155 -0.08549137 -0.05070739 0.0050503598 0.048393782 -0.046570007
-0.05988639 0.058189914 -0.042294163 0.11325322 0.06861715 0.070878826 0.06157664 -0.047501944
0.039614595 0.0064278813 0.0044067367 -0.05763886 0.0051704617 0.0014077495 0.13897917 -0.033710144
0.037470415 -0.040847305 -0.005990868 -0.039907005 0.015400495 -0.06281652 -0.011573046 -0.060415182
-0.04765633 0.032503974 0.016050309 -0.066996716 -0.058875915 0.024589706 -0.050381538 -0.042982765
0.074636534 0.02658354 -0.030301591 0.010651729 0.05677032 -0.04527026 -0.001056623 -0.09948085
0.059805963 0.0011007595 -0.014092974 -0.029144516 0.041739188 -0.029434761 -0.05755845 -0.027617585
-0.07083311 0.00065513456 0.044556025 0.08189268 0.10121606 -0.026349923 -0.06239098 0.06190168
-0.09702929 -0.0121624 -0.040163167 0.068685286 -0.03721574 -0.043729994 -0.020942384 0.07675182
0.0018248499 0.11344846 0.025722537 0.07171635 -0.022931628 -0.02018007 -0.06854924 -0.010286138
0.02925666 -0.024364058 0.021603929 0.08367902 -0.028098106 -0.057907324 0.07816229 -0.017441519
-0.01552707 0.009769799 0.05748035 -0.06221872 -0.046995778 -0.009400325 -0.036590878 -0.005466108
-0.07577043 0.06539451 0.058735218 0.018921997 0.05620736 -0.10299985 0.014447605 -0.019613395
0.08915642 0.02632901 -0.068180084 0.09530835 0.023130199 0.10064872 0.13611983 -0.009549929
-0.016474836 0.0572278 -0.026082465 -0.05231931 -0.05856814 -0.087791644 -0.028101126 -0.04601787
-0.019998893 0.004468658 -0.047644854 -0.038551744 -0.081319265 0.019771976 0.032127336 -0.06822127
0.068660766 0.070226505 0.045520242 0.060008023 -0.018986575 -0.0033517042 -0.0072343457 -0.038832847
-0.04524141 -0.02194268 0.06899481 -0.063213475 0.0440461 -0.046582926 -0.034206852 0.13072686
-0.025834901 -0.011518617 0.02794718 0.020777522 -0.02657255 -0.018350651 0.06122272 0.058296878
0.06520011 -0.030061008 -0.022209758 -0.031853527 0.15565923 0.022873558 0.054899264 -0.052662984
-0.059546173 -0.0066611236 0.06921701 0.08274073 0.06581006 -0.010019979 0.08437643 0.064385034
0.056445554 -0.04071958 -0.12440815 -0.033118907 -0.064038716 -0.0005026825 -0.07596379 0.017957827
-0.013677596 0.005971141 0.064874604 -0.060470525 0.039811835 -0.030453524 0.007518829 0.005362463
0.0679542 -0.030892197 0.07317759 -0.013334024 -0.05939607 -0.055095863 -0.05531293 0.058668684
0.03892638 -0.034839306 -0.031770624 -0.03769367 0.012097598 -0.07701022 0.00073289545 0.0051995562
-0.014990644 -0.036668077 -0.084093355 0.014341724 0.031813 0.01477309 0.06325082 -0.035204034
-0.16239241 -0.041665327 -0.069677144 -0.07134529 -0.036080383 -0.092442885 -0.0010107256 -0.03558415
0.016964545 -0.026305793 -0.03171646 0.057957392 0.010216803 0.011471551 -0.037345607 -0.08367255
-0.015769236 -0.05146041 -0.012767384 -0.03579142 0.015370727 -0.07114034 -0.040599506 -0.08951069
0.0066503673 -0.056195766 0.023725497 -0.03463215 -0.04235938 -0.048392687 0.033490043 0.016287975

output_layer.weight f4 [2, 300]
00000000: ca79 793d 3184 cc3d d56b 95bd 00ca cc3c
00000010: df10 c7bc 009f 053d ecb2 d2bc 93c8 c0be
00000020: 0d6c ee3c ada2 683c adb2 9c3c c7aa 233d
00000030: 2093 f93b f5e6 033d 3e6d 24bc 1f2b 1c3d
00000040: be46 f2bb 7873 c73c 0995 e13c 62bc 013e
00000050: 4e98 a7bc e758 11bd 6425 873d 37c0 3f3b
00000060: a258 13bc c5a8 11be a897 163e 5f2f c63d
00000070: fa96 e73d 3350 cdbb 7668 ddbd d32a 823c
00000080: f5c0 a3bd 1a71 2e3d e699 cabc e056 443c
00000090: e82a d5bc 8bb5 febd 279c 80bd 6829 0dbd
000000a0: 2fcd b43d f798 023c fedb 14bd 1bcc 473c
000000b0: c8c7 72bd 5b22 3abc 4c14 7b3c 033c da3e
000000c0: 42f9 cbbc 199f 573d 4971 c43d fe36 cd3c
000000d0: bbaa aabc d88a 873d b737 bb3d 7a6f 25bd
000000e0: bab0 e93d a7b9 72bd 7486 73bb d3ed 27bd
000000f0: 2ff0 efbd 5648 393e 2b85 0c3c ac05 4dbd
00000100: b02d 6b3d 158b 88bd 3467 773d d094 46bd
00000110: af09 073c 7c9f 55bd 4c0d 843c 0034 6a3c
00000120: e1d1 1bbc a8bc 5f3d 7edf f7bd 7f1b 8cbd
00000130: cddc 9a3d 1ebd fcbc 61c7 8dbd ee30 fa3c
00000140: b606 473c b382 a9bc 3540 60be 1d4a 853e
00000150: d5f1 6d3d ae75 61bb 7b59 1a3c d196 b0bc
00000160: 8f5b e1bd 0c94 94bd d0cb 723d 5a02 5abd
00000170: c25d 843d aea4 6bbc ac8a 97bc ea7a 093d
00000180: ff9b 8f3c e262 34bd f4d8 163d 522a 22bd
00000190: b72c a43d ec2a 1b3c 053c 33bd 18af 2139
000001a0: 20ca 28bd 4db5 543d 8d60 3cbd bcf6 a53d
000001b0: 2f6d 213d 8938 aabc f966 42bd 3d7e e1bb
000001c0: a05e a03c eb0b 023e 5ec1 f73d ad23 f1bd
000001d0: e4fa 0fbe 6a98 b5bd 7065 193d 3987 223e
000001e0: 89fc 9dbd 28a4 ecbd f211 753d 9ba2 b33d
000001f0: e895 1ebe dc2d d8bd d456 9fbe feb9 d73c
00000200: 3c13 ba3d 747c 0d3e 5077 a93d 1497 bb3c
00000210: aebe 35bd feb5 053c 77a8 253d 452e 463d
00000220: d0a6 3cbd 3c68 78bd 71c3 1ebd 106e f4bb
00000230: 384b da3c 8185 b23d 3295 e2bd 2de8 58bc
00000240: 264b c3bd 7fe1 f8bd b557 b63d a4cd d9bd
00000250: 1ce1 863c f51f 993c b326 64bd 870d 3cbd
00000260: 19c0 053d 709f f73c c258 c43d 413c ef3b
00000270: 7f3d 7a3d 6cf7 163c af4c a63c 5c68 30bf
00000280: f7c7 883c 8fd7 48bc d335 733e 401f 73bd
00000290: b463 28bd 4069 5e3d 8903 89bd 5ca6 c5bb
000002a0: 011e 0e3d 4150 6f3e d632 e6bc 4ac7 5ebd
000002b0: 31ff b33e c383 42be 0753 74be 95d7 a2bd
000002c0: 231f c9bc 628a 9bbc 756b d8bd 5179 8ebd
000002d0: c7f4 fabd 1b25 71bb c364 823d a756 f83d
000002e0: ff93 0e3f 6658 2dbc 22ea 8fbe ddc5 463d
000002f0: 109e 8c3e da3a 8c3d 8572 16bd 9606 613d
00000300: fa2a fd3c 15e8 40bd 4257 24be 446a 54bc
00000310: 205c f93d cff8 c9bc a815 44b9 107e 75bd
00000320: 5570 fabd 77aa 453d bd1a 5d3d bff4 9ebc
00000330: 99e1 593c c10e 3d3c 2463 50bc 9d41 9e3d
00000340: 6e94 dcbd 9dda 39bd 7b01 cf3c 9286 e1bc
00000350: 73be dcbd fc3a e9bc 2ae9 23bd 64ad f139
00000360: 05e4 bcbc edb0 d53d c4cb c03c 5650 ec3c
00000370: c807 173c b588 c43d 73cf 98bd 1cec 99bc
00000380: 8227 1abf 464c f0bc af9f 623d edcc 21bd
00000390: 067a cd3d e3a8 6ebd a858 ed3d 2db8 f2bc
000003a0: 37ba 8dbd 6115 363d 66a0 613b 7cd9 153e
000003b0: 72a3 8a3d a0dd be3c 8e30 c1bb c971 49bd
000003c0: 0ec1 7dbd 9232 333d 10f9 2f3e a041 ca3a
000003d0: f2b6 1e3d 73ca 56bd 9cc4 f93c d5bf 343e
000003e0: da07 8f3c 8a2f 79bc 9a11 4c3d 4efc 223d
000003f0: 8bdc 383d fb41 5ebd 6478 8cbd 3224 55ba
0.060907163 0.09986151 -0.07295958 0.024998665 -0.024300037 0.032622337 -0.025720082 -0.37653026
0.029104257 0.014198941 0.019128168 0.039957788 0.0076164156 0.03220268 -0.010035811 0.03812706
-0.007393687 0.024347052 0.027536886 0.12669519 -0.020458367 -0.035485175 0.065989286 0.0029258856
-0.0089933 -0.14224537 0.1470629 0.09677004 0.11308093 -0.006265664 -0.1081094 0.01588956
-0.07995788 0.04258833 -0.024731588 0.011983603 -0.026021436 -0.1243697 -0.06279784 -0.034463316
0.08828198 0.00797104 -0.036342613 0.012194659 -0.059272557 -0.01136073 0.015324663 0.4262391
-0.024899129 0.05264196 0.0959192 0.025050636 -0.020833364 0.06618279 0.09141486 -0.040389515
0.11410661 -0.059259083 -0.0037158998 -0.04099829 -0.11715733 0.18094 0.008576672 -0.050054237
0.057416618 -0.06667153 0.060401157 -0.048481762 0.008242055 -0.05215405 0.016119622 0.014294624
-0.009510488 0.054623276 -0.121031746 -0.06841182 0.07561646 -0.030851897 -0.06922794 0.03054091
0.012147596 -0.020692205 -0.21899493 0.26033106 0.058091957 -0.0034402418 0.009420748 -0.02155629
-0.110037915 -0.072548 0.059276402 -0.0532249 0.064631954 -0.014382524 -0.018498741 0.033564486
0.01753044 -0.044039614 0.036827996 -0.03959114 0.08016341 0.009470683 -0.04375841 0.00015419384
-0.041208386 0.051930714 -0.045990516 0.081037015 0.039410766 -0.020778911 -0.047461484 -0.006881504
0.01957637 0.12699859 0.12097429 -0.11774383 -0.14060551 -0.08866961 0.037450254 0.15871896
-0.07714183 -0.11554748 0.059831567 0.08771249 -0.15486872 -0.10555622 -0.31120932 0.026333805
0.090857 0.13817006 0.0827471 0.022899188 -0.0443713 0.008161066 0.040443864 0.04838397
-0.046057522 -0.06064628 -0.038760606 -0.0074594095 0.026647195 0.0871687 -0.11063613 -0.013238949
-0.09535818 -0.12152385 0.089034475 -0.10634926 0.016464762 0.018691996 -0.05570097 -0.04591134
0.0326539 0.030227393 0.09587242 0.007300884 0.061093803 0.009214263 0.020300237 -0.6890924
0.016696913 -0.012258424 0.23751001 -0.059355974 -0.04111071 0.054299593 -0.066901274 -0.0060317945
0.034696583 0.23370458 -0.028100412 -0.054389276 0.35155633 -0.18995576 -0.23859797 -0.07951275
-0.02455098 -0.018986885 -0.10567371 -0.06956733 -0.12253719 -0.0036795798 0.06366875 0.121259026
0.55694574 -0.010580158 -0.28108317 0.04852854 0.27464342 0.068471625 -0.036730308 0.05493792
0.030904282 -0.04709633 -0.16048911 -0.012964789 0.121757746 -0.024654774 -0.00018700084 -0.059934676
-0.12228457 0.04825827 0.053980578 -0.019403813 0.013298416 0.011539162 -0.0127189495 0.077273585
-0.10770498 -0.0453745 0.02526926 -0.027529988 -0.10778513 -0.028470509 -0.040017284 0.00046096288
-0.023057947 0.104341365 0.023534663 0.0288469 0.009218164 0.09596387 -0.07461443 -0.018789344
-0.60216534 -0.029333245 0.055328067 -0.039502073 0.1003304 -0.05826653 0.115891755 -0.029628837
-0.06920283 0.044453982 0.003442788 0.14633745 0.06769456 0.023299038 -0.0058956807 -0.04918078
-0.06195169 0.0437494 0.17184854 0.0015430935 0.03874869 -0.052439164 0.030489258 0.17651303
0.017459799 -0.015209088 0.049821474 0.039791398 0.0451322 -0.054262143 -0.068589 -0.00081306987

output_layer.bias f4 [2]
00000000: 7340 963c 682e 283c
0.018341279 0.01026497
