trained_model_with_input_error_200epchos.pth (torch, 369175 bytes, 6 tensors)

rnn_cell.weight_ih f4 [300, 2]
000000 20 4d 68 bb e1 57 bf bc 06 c6 d7 3c 28 20 32 3d
       -0.003544636 -0.023357334 0.026339542 0.043487698
000010 e6 f7 14 3d 38 1c 8a b9 8e fe 87 bb b6 5a 59 bd
       0.036369227 -0.00026342436 -0.0041502183 -0.053065024
000020 f9 09 56 3d 37 c5 35 3d 14 f7 38 3c 3c 8d a1 ba
       0.052255604 0.04437753 0.011289377 -0.0012325416
000030 85 31 bb bc e4 62 39 3d 5c 4d 45 3d a1 73 37 bd
       -0.022850761 0.045260325 0.04816948 -0.044788007
000040 1e f4 ec 3c 04 e3 e0 bd a1 d0 4c 3d d4 7c c8 3d
       0.028924998 -0.109808 0.05000365 0.09789434
000050 7a 67 80 3d 8b 66 b0 bd 40 cd d2 bc 2c f5 e9 ba
       0.062697366 -0.086133085 -0.025732636 -0.0017849556
000060 19 fe 37 3c f2 af 9b bc 71 a7 4c bd 89 cd dd 3c
       0.011230015 -0.019004796 -0.049964372 0.027075546
000070 30 85 17 bd 4c 89 c5 3b 3b 8a 1a 3d c2 7c f8 bc
       -0.036992252 0.00602833 0.037729483 -0.030332927
000080 b7 69 bf 3b 17 1a df 3b 7e c3 26 3c 26 75 0d 3d
       0.0058414596 0.00680853 0.010178445 0.03453555
000090 5a 99 c7 3d 89 fd 12 be 75 c8 ac bb 85 b6 97 bd
       0.09746046 -0.14354528 -0.00527292 -0.0740786
0000a0 a5 0a 9d bd ef 19 21 3d 38 16 bd 3b 73 99 bb bc
       -0.07668046 0.039331373 0.005770471 -0.022900319
0000b0 33 3a 41 3d 91 a0 8a bd 0b f8 80 3d 81 d5 0d be
       0.047174644 -0.06768907 0.062973104 -0.13850977
0000c0 ff 77 82 3a 5d 82 01 3d d8 ef 36 3d 88 3b bb 3d
       0.0009953975 0.031618465 0.044662327 0.09142214
0000d0 0d 21 18 bc ee 2f 38 bd c8 b4 ce 3c 89 a1 6e 3d
       -0.009285224 -0.044967584 0.025232688 0.05825952
0000e0 7f 80 84 3c fc c8 d9 bd a5 03 a5 3d f7 a7 df bd
       0.016174553 -0.10634038 0.08057336 -0.109207086
0000f0 99 01 c0 3d 59 a5 9a bc f4 c4 1d bd 81 e5 0f bd
       0.09375305 -0.018877672 -0.038517907 -0.03513098
000100 ad dc cf 3d 8d ba c3 bc c7 54 28 3c 3e 4d e4 3b
       0.101495124 -0.023892665 0.010274119 0.006967216
000110 d8 76 0b bd f6 0a da 3c 94 79 a6 bd d2 27 16 bd
       -0.034048885 0.026616555 -0.08128658 -0.03665907
000120 a9 cc a8 3d 1b c4 7a bd 9b f7 7a bd 69 35 4f 3c
       0.08242161 -0.061222177 -0.06127129 0.012647011
000130 02 4d 41 bc 62 69 2b bd bf 34 fe bd 97 45 8d bd
       -0.011798145 -0.041848548 -0.12412404 -0.06898039
000140 ea 1b 0a 3c 83 0c 86 3c da 17 cb bc 66 91 cb bc
       0.008429507 0.016363388 -0.024791647 -0.024849605
000150 09 33 81 3d 92 5a ba bd 79 1e 5e bd 74 b8 3f 3d
       0.06308562 -0.09099306 -0.05422828 0.046806768
000160 dc ea 0a 3c 80 e6 45 bb 88 d1 82 bd c3 87 14 bd
       0.008478846 -0.0030197203 -0.06387621 -0.036262285
000170 b9 e0 8b 3c 20 97 13 3c a4 4b cb bb 04 a6 0e 3c
       0.01707493 0.009008199 -0.0062040854 0.008706573
000180 3e 0c 0b bd 56 17 6f 3d de 01 1c 3d b7 f9 2c bd
       -0.033947222 0.058371864 0.03808772 -0.042230334
000190 3f 36 22 bc 4b fa 6a 3b fd 0d 92 3e e6 89 ae 3e
       -0.009900629 0.0035854753 0.28526297 0.34089583
0001a0 65 fa 81 bd 6d 98 41 bc ac 65 49 bd 9a 5c e1 3c
       -0.06346587 -0.011816126 -0.049169227 0.027509976
0001b0 fe 20 84 3d a5 19 e5 3d c5 39 42 3c 58 77 36 3a
       0.06451605 0.11186532 0.011854594 0.00069605326
0001c0 85 a6 02 3d c1 d2 10 bc 0f e4 b7 bc 1a 89 21 3d
       0.031897087 -0.00883931 -0.022447614 0.03943739
0001d0 3c d9 dd bb 34 a6 f3 bc 00 0c 37 bd 36 ef 1a 3d
       -0.006770281 -0.029742338 -0.04468918 0.037825786
0001e0 d4 10 28 bd 0d 09 03 3d f4 e2 94 3d 42 d4 82 3b
       -0.041031674 0.031991053 0.072698504 0.0039925883
0001f0 3b 0c c3 3d 62 2f 9e 3e 4e 95 23 bd 22 f0 e3 3c
       0.09523817 0.30895525 -0.03993731 0.027824465
000200 be dd 8b ba e6 01 8e bc 28 7e ae 3c bb 62 16 bd
       -0.0010670943 -0.01733489 0.02130039 -0.03671525
000210 de 51 3e bd a0 ee 84 3c 58 6d 10 bd be 00 0c 3d
       -0.046464793 0.016227067 -0.03526053 0.034180395
000220 62 40 db 3c 4a a9 7a bb 8a e7 03 bc a1 e3 dd bc
       0.026764099 -0.0038247877 -0.008050809 -0.027086081
000230 fe 61 32 3d 8f b5 b8 bd 3b 77 55 bd 79 34 13 bd
       0.043550484 -0.090190046 -0.05211566 -0.035938714
000240 76 20 2c bd fa 3c 02 bd 6c 84 2f 3d 23 69 06 bc
       -0.042023145 -0.031796433 0.042850897 -0.0082037775
000250 49 e8 5b 3c 74 de d6 39 c2 cc 7f bc 81 c0 ad bc
       0.01342208 0.00040983 -0.015612783 -0.021209957
000260 cc fc 1a 3d c0 ce 01 3b 9f aa 27 be f7 26 d3 bd
       0.037838742 0.001980707 -0.1637368 -0.10310166
000270 70 ed 4f 3d 4c 7e 50 3d 1a 50 32 bd 60 d7 3f 3d
       0.050763547 0.050901696 -0.043533422 0.046836257
000280 9d ae 0f bd 2d 68 8f bc 90 c5 ad bd 2c bd 95 3d
       -0.035078634 -0.01750573 -0.08484948 0.07311472
000290 54 4a ab bb d7 c2 95 3c 1a 45 d4 bb eb ec 12 bc
       -0.0052273665 0.018281383 -0.006477964 -0.008967618
0002a0 b5 2b 16 bc 89 ed c8 bc 78 e9 b9 bd 3b 1c 8e 3d
       -0.009165694 -0.024527328 -0.09077734 0.06938978
0002b0 23 a9 52 3d f0 40 ee 3c d2 e1 c5 3d 80 43 02 3e
       0.051430833 0.029083699 0.096622124 0.12721062
0002c0 f9 3e 3e 3b e0 a2 31 bd 56 94 d4 bc ae f0 6e bb
       0.0029029234 -0.04336822 -0.025949638 -0.0036459374
0002d0 0f 96 ce bd f8 2c ef bd 18 ce bb 3d 83 48 b8 bd
       -0.10087215 -0.11678499 0.09170169 -0.089982055
0002e0 d2 18 02 bd 44 63 2e bd 53 b9 91 bb ca a9 2e 3d
       -0.03176195 -0.042575136 -0.004447141 0.042642392
0002f0 52 e5 59 bd 53 cc af bc 00 b3 8e 3d b9 4c c4 bd
       -0.053197213 -0.021459734 0.06967735 -0.09584946
000300 05 bf cd bc 90 a4 74 bc be 5c 00 3d a9 ac f0 3b
       -0.0251155 -0.014931813 0.031338446 0.0073448014
000310 d2 f7 92 3d 60 53 ae bd 44 76 3f 3d c8 8e af bd
       0.07176174 -0.08511996 0.046743646 -0.08572155
000320 7e 16 ba ba 80 0a 55 3c e2 a6 66 bd 0d 86 86 bb
       -0.0014197377 0.013002992 -0.056311496 -0.0041053356
000330 d3 68 89 bd 69 32 0e 3d 30 77 4f 3d 8c 55 8d bd
       -0.06709447 0.034716044 0.050650775 -0.069010824
000340 d4 3e 2d bc 9b ea 92 3c 03 9d f7 bc 39 e2 00 3c
       -0.010574061 0.017934134 -0.030226236 0.007866436
000350 78 5f be b9 9a 12 e4 ba c3 02 59 3d 5a 37 83 bd
       -0.00036310754 -0.0017400563 0.05298115 -0.06407042
000360 a5 04 54 3d b8 ff b7 3c ac a4 00 bc 5a 3b 7f 3b
       0.051762242 0.022460803 -0.007851761 0.0038945288
000370 ae 57 53 bd ca 2a 22 bd a1 f0 4b 3e 77 0f 2f 3e
       -0.05159729 -0.039591588 0.19916011 0.17095743
000380 12 93 89 bd 9b a4 53 3c a4 4f 5c bd 93 2f 89 3d
       -0.067175046 0.012917663 -0.05378689 0.06698527
000390 01 70 85 bc 08 1d a5 3b c4 10 6a 3d 15 cc e5 3d
       -0.01628876 0.005038861 0.057144895 0.11220566
0003a0 0b 80 d0 bc a6 23 86 bc 83 d4 a8 3d b0 3d a9 bb
       -0.02545168 -0.01637442 0.082436584 -0.0051648244
0003b0 3a f7 9b 3c 64 af 8b bb 74 c4 04 3d 5e 76 df 3c
       0.019038785 -0.0042628516 0.032413915 0.027278122
0003c0 a0 cf d3 3c 48 1c 6f bb 54 42 ce 3d 38 4c 4f 3d
       0.02585584 -0.0036485363 0.10071245 0.050609797
0003d0 95 8b 32 3d 42 66 88 3a db 11 10 3e 21 8e 87 3d
       0.043590147 0.0010406452 0.14069311 0.06618906
0003e0 26 d9 b2 3c eb e7 ef bc f4 8e 6e 3c 0a 07 90 bd
       0.02183206 -0.029285392 0.01456045 -0.070325926
0003f0 e5 0e 67 3d 9c 65 91 3e 0a 75 68 bd 50 6d 4d 3b
       0.05641069 0.28397834 -0.056752242 0.0031345673

rnn_cell.weight_hh f4 [300, 300]
000000 f9 14 00 3c 4e 34 6b bd be 77 36 bd f9 f8 8e bc
       0.0078175 -0.05742293 -0.04454779 -0.017452704
000010 c9 13 4e 3d 7c 87 d4 3c a1 cb 63 bd 2e bb a3 bd
       0.050311837 0.02594351 -0.055614118 -0.07994686
000020 da 1b aa bc da 3f ad bc dc 7c e6 bc c7 b5 96 bc
       -0.020765234 -0.02114861 -0.02813571 -0.018397225
000030 9e b0 8b bb 1d df 8b 3c 55 8b 8c 3b 00 c3 77 bc
       -0.004262998 0.017074162 0.0042890706 -0.015122175
000040 ed df 77 bd 3b 42 37 bd 50 56 74 3c 96 8b 99 3a
       -0.060516287 -0.044740897 0.014913157 0.0011714573
000050 26 59 cb 3b 51 9d 2e 3d ec ff 9c bd 8e 4f a3 3b
       0.0062056957 0.042630497 -0.07666001 0.004983849
000060 b0 ca 54 3a f0 45 af bc be 76 00 3d ee cc 7b bd
       0.0008117361 -0.021395653 0.03136324 -0.061474733
000070 a3 65 b8 bd 0e ba 2b bb c5 2a 8a bc ff 82 21 3d
       -0.09003761 -0.0026203427 -0.016866097 0.03943157
000080 2c bd 0a bd e2 08 6e 3c 6a 71 d3 bc 24 68 40 bc
       -0.033871815 0.014528485 -0.025810916 -0.011743579
000090 c4 f6 47 bc c4 5d 4e bd b5 ce f3 bc 06 fd 20 3d
       -0.01220483 -0.05038239 -0.029761652 0.039303802
0000a0 03 5c 62 3c 39 00 54 bc 4f 66 47 bd 6d 58 b3 3c
       0.013815883 -0.012939506 -0.048681553 0.02189275
0000b0 5c 53 43 bd 1d 6c 1f 3d ad df 39 bd a4 67 ec 3c
       -0.04768692 0.038921464 -0.04537933 0.028858013
0000c0 27 c8 59 3c d8 77 a6 bc e6 04 7c 3d 1d 11 af bc
       0.013292349 -0.020320818 0.06152811 -0.021370465
0000d0 32 bd 03 3d 64 af 46 bd 7d eb 54 bd e0 0a 1d bd
       0.032162853 -0.04850711 -0.05198239 -0.03834045
0000e0 e0 38 a8 3c 66 08 41 bd 99 c8 a1 bc 16 25 0a bc
       0.020534933 -0.04712715 -0.019748973 -0.008431694
0000f0 ef de 57 bd c5 8a ca bc e2 92 47 3b 58 a0 28 bc
       -0.05270284 -0.024724374 0.003045254 -0.010292135
000100 03 b0 2e bd 08 fd 60 3c 72 a9 10 bc d2 eb ee 3a
       -0.042648327 0.013732202 -0.008829461 0.0018228239
000110 da bc 8a 3d 23 27 eb bc 08 a1 db ba f3 b5 10 bd
       0.06774302 -0.028705185 -0.0016756365 -0.03532977
000120 53 ec 2f bd 02 4f b1 bc 17 a9 b8 bc 23 b2 3e bd
       -0.042949986 -0.02164412 -0.022541566 -0.046556603
000130 7d 31 9e bd 1e 3e 3c bd f5 8d d2 bd 05 9e 7d bd
       -0.07724283 -0.045957677 -0.102809824 -0.061918277
000140 c8 78 07 bc de 89 58 bd 53 ba d5 bc b7 37 dc 3c
       -0.008268543 -0.052865855 -0.026089823 0.026882036
000150 a7 9d 53 bc ff 93 57 bd bc f6 b9 3b ba d3 9d 3b
       -0.012916005 -0.052631374 0.005675165 0.0048164995
000160 ad 95 2d bd 0c ad 0a bb ba 73 2c bb 06 3c 13 bd
       -0.04237907 -0.0021160273 -0.0026314096 -0.035945915
000170 8f 14 5b bb e3 b6 c5 3c 17 d0 80 bd db 5c 06 bd
       -0.0033429002 0.024135059 -0.0628969 -0.032803398
000180 27 0e 00 3c 97 37 7f bc 1a 61 29 bd 49 60 b2 bb
       0.007815874 -0.0155772185 -0.04135237 -0.005443607
000190 e6 09 8f bb 0f a3 98 bb f1 d1 0d bc 41 c3 0c bd
       -0.0043651937 -0.00465811 -0.008656011 -0.034365896
0001a0 16 da 70 3d 6a af 03 3c 2a ab 5c bd 5a a2 ad bc
       0.058801733 0.008037427 -0.053874172 -0.02119558
0001b0 d8 37 6e bd de f9 46 3c 96 25 32 bd 4b 7a 6b bb
       -0.058158726 0.012144534 -0.043492876 -0.0035931047
0001c0 2c ab 28 bb 6a b3 9c bd b6 ef 2b 3d b8 ba da bd
       -0.0025736792 -0.07651408 0.041976653 -0.10680145
0001d0 7b 3a 6a bd 4c 18 6a bd da 25 70 bb 9b 81 ac bc
       -0.057184678 -0.057152078 -0.0036643655 -0.021057894
0001e0 ba 28 78 bd 3b 62 99 bd c6 da c6 bc 48 b0 4d 3b
       -0.060585715 -0.07489439 -0.024274241 0.003138559
0001f0 07 4b b5 3c f8 f6 43 bd 3d 6e 9c bd 2e ad bd 3c
       0.022130502 -0.04784295 -0.07638214 0.023153868
000200 cf 66 0a bc c4 cb 87 bc e6 7f e1 ba 15 66 66 bd
       -0.008447363 -0.016576655 -0.0017204254 -0.056249697
000210 d7 55 0c bb bd f0 a6 bd 81 60 87 bc 10 99 69 3d
       -0.002141347 -0.08151386 -0.016525509 0.057030737
000220 2f 93 62 bd 47 6a 3c 3d 2e d0 04 bd 5a 9c 03 bd
       -0.055316146 0.04599979 -0.032425098 -0.03213153
000230 40 d2 9f bc 02 4e 6f bb 59 ee 18 3b 91 01 2f 3d
       -0.019509435 -0.0036515002 0.0023335426 0.042726103
000240 87 cb 87 bc a7 a7 34 3c 03 d8 7a bd a9 cd 1d bc
       -0.016576542 0.0110263 -0.06124116 -0.009631553
000250 5e ea b7 bc 7e 8a fd bb bb 7f 4d 3b 41 ff 78 bd
       -0.022450622 -0.007737457 0.003135665 -0.060790304
000260 2e 93 36 bd 28 fb 6e bc 7b 1a 0b 3c 73 4b 88 bc
       -0.044573955 -0.0145862475 0.0084902 -0.01663754
000270 d0 83 b6 3a b8 fc a1 3b c5 f3 92 bd f9 fe 8d bd
       0.0013924781 0.0049434565 -0.071754016 -0.06933398
000280 fd 52 bb 3c cb 7e 56 3d 01 09 1b 3d 4c 59 3a bc
       0.02286672 0.052367013 0.037850384 -0.011373829
000290 35 76 8a 3c 86 18 51 bc ad 37 94 bc 69 e6 55 bd
       0.016902069 -0.0127621945 -0.018092955 -0.05222169
0002a0 8e d9 f6 3a 29 cc 1a 3d 7e 95 0d 3d b3 97 43 3d
       0.0018833147 0.03779236 0.034566395 0.047752094
0002b0 3d bd 05 3d 64 42 8c 3c a4 64 70 bc ec 50 05 bd
       0.032651175 0.017121501 -0.014672432 -0.032547876
0002c0 d4 6f 2a 3a 40 ff a4 bd 73 2b 73 bd 24 17 50 3d
       0.0006501649 -0.080564976 -0.05936761 0.05080332
0002d0 e0 71 3c bd f7 1d 60 bd 3e d7 d2 3c a1 02 29 bd
       -0.046007037 -0.054716077 0.025737401 -0.041262273
0002e0 03 4a 95 bd 2e c0 28 bd f4 92 e4 3c ae 2b f6 bb
       -0.07289507 -0.0411989 0.027902104 -0.0075125312
0002f0 e5 a7 dd bb 2a 07 b8 bd f7 00 40 bd 9c cf 46 3d
       -0.0067643994 -0.089857414 -0.04687592 0.048537835
000300 de 8c 02 bd 16 75 c7 bd 01 19 2e 3d 63 14 4c bd
       -0.031872623 -0.09739129 0.042504314 -0.04982413
000310 97 d6 66 bd cb 7a 89 3c e3 0b d8 3c db 92 d2 3c
       -0.056356993 0.016782185 0.026372856 0.025704792
000320 58 4b 1b 3c 6c af b9 bc 73 9a a9 3b 65 b3 ab bd
       0.009478413 -0.022666655 0.0051758825 -0.08383826
000330 02 a4 be 3c d4 14 80 3c 52 8a 87 bd eb ea 9b 3c
       0.023271564 0.015634932 -0.066181794 0.019032916
000340 51 48 14 bc 09 f4 e8 bc ad 2e f4 bc 43 18 82 3c
       -0.009050445 -0.028436678 -0.029807413 0.01588071
000350 a5 76 bb 3b de 79 69 bc 64 f1 7a 3a 47 8e 08 bd
       0.0057209306 -0.014250247 0.0009572713 -0.03333881
000360 bd 5b 2c bd 26 ec 43 3d ff 9b 7f bd 52 d7 09 bc
       -0.042079676 0.04783263 -0.06240463 -0.008413153
000370 14 07 2a 3d d5 19 13 bc 9f a4 ad 3c 1e fc d9 3c
       0.041510656 -0.008978327 0.021196662 0.026609477
000380 4c 2a 51 bd c8 57 0e bd 5c db 39 bd d1 61 07 3d
       -0.051065728 -0.034751683 -0.045375213 0.03305227
000390 d8 0e 05 bd fd 1e f0 3c 5d 51 f5 bc 61 eb d0 3b
       -0.03248486 0.029311651 -0.029946024 0.0063757156
0003a0 64 4e 10 3d de 52 53 bd 18 0a 3d bd 76 66 f6 3c
       0.03523101 -0.0515927 -0.046152204 0.030078154
0003b0 94 e7 7d 3d 88 42 33 bd 06 d1 f2 bc bd 05 5e bd
       0.06198843 -0.04376462 -0.029640686 -0.05420469
0003c0 7e 78 54 bc 62 8a 80 3c 75 cd 81 bd 05 12 06 bd
       -0.012968181 0.015690986 -0.06338016 -0.03273203
0003d0 f1 22 a7 3c a3 92 11 3c 10 64 03 3d c6 c6 82 bd
       0.020402404 0.008885059 0.03207785 -0.06385569
0003e0 44 aa fa ba 07 97 92 3c 2d cc 15 3d e2 4f 80 3c
       -0.001912423 0.017894281 0.03657167 0.015663091
0003f0 2c 5a 50 3b cc 8f c1 bb 3d 39 e0 bd 31 25 2e bd
       0.0031792028 -0.0059070345 -0.10948417 -0.042515937

rnn_cell.bias_ih f4 [300]
000000 f8 41 0f bd 09 3a 14 bd 58 c6 04 bd 38 f4 31 bd
       -0.034975022 -0.03618816 -0.032415718 -0.043445796
000010 76 58 c0 bd 09 a2 18 bd f4 d7 38 bd a8 d9 f5 bb
       -0.093918726 -0.037263904 -0.045127824 -0.0075027533
000020 96 c2 ee 3d d8 4d 4b be 91 2a 51 bd 8c 03 bc bd
       0.11658208 -0.19853914 -0.051065985 -0.09180364
000030 0c ea 93 bd 8c 26 81 bd f8 bc a0 bc c7 f4 3a 3d
       -0.07222375 -0.0630618 -0.019621357 0.045643594
000040 b7 f7 47 bd 2b 98 d6 bd d4 11 07 bd 52 51 e6 3c
       -0.048820224 -0.104782425 -0.032975987 0.028114948
000050 07 74 f7 bd cb f4 86 bd 68 ad bb bc 5d 00 fb bd
       -0.12082677 -0.06589659 -0.022909835 -0.12255929
000060 1f 98 84 bd 7b f0 87 bd 5e 74 f1 bd 6c 5a 16 3d
       -0.06474327 -0.06637665 -0.117897734 0.036707327
000070 e3 68 eb 3d 70 88 c5 3b 6f b2 b3 3d 1d 0c 77 bc
       0.11494615 0.0060282275 0.08774268 -0.015078572
000080 dd fd 8d bd 34 87 47 bd ff d2 8a bd 03 26 bb bd
       -0.06933186 -0.048712924 -0.067785256 -0.091381095
000090 24 e1 f1 bb 89 00 96 bd 58 85 8a bd de b2 10 be
       -0.007381575 -0.07324321 -0.067637146 -0.14130732
0000a0 00 53 3a 3c 64 43 9c bd 15 76 24 bd 2a 54 9b bd
       0.011372328 -0.07630041 -0.040151674 -0.075844124
0000b0 c0 dc 06 3d e6 04 1c bd 35 75 25 bd 0b b9 a2 bb
       0.032925367 -0.03809061 -0.04039498 -0.0049659065
0000c0 66 86 ad bc fe 6d cd bb b8 e3 4b bd 36 da a9 3d
       -0.02118225 -0.0062692156 -0.049777716 0.082935736
0000d0 d8 d8 58 bc 1c e2 06 bc 68 3d 8c 3e b0 d2 58 3c
       -0.013235293 -0.00823262 0.273906 0.013233826
0000e0 58 ad 08 3b d3 2b 74 bd d4 eb ec bc 10 71 5a bd
       0.0020855274 -0.059612107 -0.028921045 -0.05333048
0000f0 50 1f 19 bd 5e 73 cd 3d 77 a6 eb bc 8c 8c 7b bd
       -0.037383378 0.1003177 -0.0287659 -0.061413333
000100 9e 8c 4e bd 0a 2d bf 3c 06 23 46 bd dd af 2b bd
       -0.05042707 0.023336906 -0.048373245 -0.041915763
000110 73 ac 58 bd 6d 26 2c bd cd a8 bb 3a 26 39 8f bb
       -0.052898835 -0.042028833 0.0014317274 -0.0043708263
000120 f0 38 bf bc d6 35 a5 bd 21 89 7e bd 65 45 71 3d
       -0.02334258 -0.08066909 -0.062142495 0.05890407
000130 34 b8 10 bd e4 b9 da 3d 8d 1f 83 bc 17 19 36 bc
       -0.03533192 0.10679987 -0.016006256 -0.01111438
000140 b9 43 17 bd 50 21 e4 bc 9c b1 c5 bd 76 a3 64 bd
       -0.03692982 -0.027847916 -0.09653017 -0.05581995
000150 a5 b7 42 3c 11 9d 03 bd 32 59 5e 3c 9e ef 72 3d
       0.011884605 -0.032132212 0.0135710705 0.059310548
000160 6a 91 07 bd b4 b4 9a 3d 3d e0 0d be ad 8c 4e 3d
       -0.033097662 0.07553998 -0.13855071 0.050427128
000170 13 07 61 bc e0 de 4f bd 83 e1 bd bd 61 8b 4a bc
       -0.013734597 -0.05074966 -0.092715286 -0.012362332
000180 6f 35 14 bd 46 5e 8e 3d 5c 5f 42 3c f8 4b ae bd
       -0.03618377 0.06951575 0.011863556 -0.08510584
000190 56 25 29 bd 2c f7 80 3d 1e ce 07 bd 00 7d f6 3d
       -0.041295372 0.06297144 -0.033155553 0.120355606
0001a0 74 62 7b bd d6 1d 41 3c 85 d5 49 bd ad 57 cc bd
       -0.06137319 0.011786899 -0.049275894 -0.0997766
0001b0 8c ba 41 bd 8c 10 b0 bd 0e e3 e3 bd 72 b7 6c bd
       -0.047297046 -0.08596906 -0.111272916 -0.057792135
0001c0 7a 94 15 bd 04 c2 a7 bd 85 45 c3 bd 2a 91 ef 3c
       -0.03651855 -0.081913024 -0.09534744 0.029244024
0001d0 74 3d 4f bd 93 bf 3d 3c 96 34 49 bd 6c f9 f2 bd
       -0.050595716 0.011581319 -0.049122415 -0.1186398
0001e0 4a 60 55 3b 40 f1 68 3d 36 46 9d bd 9d 35 19 3c
       0.0032558613 0.0568707 -0.07679407 0.009351161
0001f0 25 ee 2c bc a0 24 51 bd 7d 3b 2a bd 01 4e 9d bc
       -0.010554825 -0.05106032 -0.04156064 -0.019202234
000200 c8 fa 02 bd b5 4d b1 bd 90 8b f9 3b e8 84 b5 bd
       -0.031977445 -0.086573996 0.007615514 -0.088632405
000210 7b c5 d8 bd b2 1e 24 3d 2c a5 00 bc ff fc 85 bd
       -0.105845414 0.040068336 -0.00785188 -0.06542396
000220 c7 a2 d6 bc 68 87 ad 3b aa 08 a2 bd 64 87 b6 3b
       -0.026200665 0.0052956827 -0.07911809 0.005570339
000230 6b 88 74 bd d3 f1 d4 bc 32 1e 46 3d b0 07 4c bb
       -0.05970041 -0.025994217 0.04836864 -0.0031132512
000240 a4 fc 4a bd 30 d8 6d bd db ff a4 3d c6 9e 03 bd
       -0.049557343 -0.0580675 0.08056613 -0.03213384
000250 26 de 22 3d 05 7b 1e bd d3 3f bd bc 1b 0e fe 3c
       0.03976264 -0.03869154 -0.023101723 0.031012585
000260 08 40 8c 3b 0f a6 b9 bc c2 71 de 3d 17 90 58 3c
       0.004280094 -0.02266219 0.10861541 0.013217947
000270 88 53 bb 3d 26 13 9d 3b b3 db 86 bd e8 ff 65 3d
       0.09146792 0.0047935424 -0.06584873 0.056152254
000280 b3 3f d1 bd f0 3b 9b ba 1d 92 8a bd b8 72 84 bd
       -0.10217228 -0.0011843424 -0.0676615 -0.06467193
000290 26 d6 d9 bc 86 c0 ab bd df 04 59 3d 82 ea bf bd
       -0.026591372 -0.0838633 0.05298316 -0.09370901
0002a0 94 a6 2d bd 6d 46 25 be f0 7e 27 bd ae a1 58 bd
       -0.04239519 -0.16140147 -0.04089254 -0.052888565
0002b0 60 f5 86 bd 1d f8 ee bd 5b aa 69 3d c8 10 72 bd
       -0.0658977 -0.116684176 0.05704723 -0.059098035
0002c0 9e a1 09 bd 2a 0e 62 3d d7 ef f7 bc 01 11 0e be
       -0.033601396 0.05518929 -0.030265732 -0.13873674
0002d0 e8 f2 44 bd d7 c0 81 bd c8 02 23 3d 97 b8 08 bd
       -0.048083216 -0.063356094 0.039797574 -0.033379164
0002e0 38 5f a9 b9 e5 eb 0a 3e 30 56 72 bd 24 a2 40 bd
       -0.00032305135 0.13566549 -0.059164226 -0.04702963
0002f0 e0 aa d9 bd 23 ff b5 bd 78 cc d9 bd bb 1b eb bc
       -0.10628295 -0.08886554 -0.106347024 -0.028699746
000300 b8 7e 3d ba b2 9d 8e 3d fc 64 ae bc 1e 41 88 bd
       -0.00072286604 0.06963672 -0.021288387 -0.06653045
000310 52 a1 8a bc a2 54 0f bd 9c 90 98 bc 84 34 f4 bd
       -0.016922627 -0.03499282 -0.018623643 -0.11924079
000320 51 23 07 bd 2a d8 70 bd 25 91 ef bd 88 29 76 bc
       -0.032992665 -0.0587999 -0.11697606 -0.01502455
000330 02 64 cb bd fa 62 e4 bd dc c2 98 3c e2 94 86 bd
       -0.09931184 -0.11151691 0.018647604 -0.06571366
000340 69 35 8b bd df e5 04 bd 9d 6d ac bd 0c ee 3c bc
       -0.067972966 -0.032445785 -0.084193446 -0.011531364
000350 d6 63 88 bd 39 b6 71 bd e6 91 22 bd 67 d4 a8 bc
       -0.06659667 -0.05901167 -0.03968992 -0.020609094
000360 ba 07 b0 3d 50 75 ea bc 50 2d 67 bd 98 89 f7 bc
       0.08595224 -0.028620392 -0.056439698 -0.030216977
000370 85 bf 75 3c cc 4c 13 bd d5 fc a1 bd 38 89 59 bd
       0.014999275 -0.03596191 -0.07909552 -0.053109378
000380 b6 f8 1b bd b8 a6 09 bd c6 2f 9c bd 24 31 4c bc
       -0.038078986 -0.03360626 -0.076262996 -0.012462888
000390 be 8d f2 3b b7 84 8c bd ad 9a 06 bd 56 0f c6 3b
       0.007402151 -0.06861251 -0.032862354 0.0060443087
0003a0 cc 02 8b bd 90 f1 05 3b d8 c3 b5 bd 20 7e 63 3d
       -0.06787643 0.0020438172 -0.08875245 0.055540204
0003b0 13 79 34 bd 2c 7d a0 bd 76 3b ce 3d ec 81 5a bd
       -0.044060778 -0.07836375 0.10069935 -0.05334656
0003c0 bb 81 f1 bc 6a 6c 92 bc 1d a0 35 3d a5 69 ac bd
       -0.029480806 -0.017873961 0.04434215 -0.084185876
0003d0 72 28 a5 bd 07 a9 14 3b dc 5e cf bd c9 cc 12 3d
       -0.08064355 0.0022683756 -0.10125515 0.03583983
0003e0 df ca 53 3d c3 df b6 bc 22 5f 19 bd 1b 36 84 bd
       0.051707145 -0.022323495 -0.03744424 -0.06455632
0003f0 ea 4b 88 3c a6 4d 22 bd 73 ec a2 3d f7 f5 15 bd
       0.016637761 -0.039624833 0.07955255 -0.036611523

rnn_cell.bias_hh f4 [300]
000000 e1 6b eb bd 44 a3 8a bd fb a0 c4 bd 37 bb 97 bd
       -0.11495186 -0.06769422 -0.09601017 -0.07408755
000010 77 67 e7 bc f0 11 84 bd 4a ff 96 bd c4 e7 cb 3c
       -0.028247578 -0.06448734 -0.07372911 0.024890788
000020 3d 17 ea 3d c3 ce 50 be 6c f8 85 ba 89 0e 0f bd
       0.114302136 -0.20391373 -0.001022113 -0.03492597
000030 a6 81 30 3b 2c 24 da bd 2f 23 00 be 81 32 65 bd
       0.0026932745 -0.106514305 -0.12513421 -0.055956367
000040 0e 1c 92 bd b9 98 af bd fc ee b8 bc ed 09 76 3c
       -0.07134257 -0.085740514 -0.022574894 0.015017015
000050 b3 a8 09 be 44 c3 ef bc 65 7f e6 3c 74 a5 f0 bd
       -0.1344326 -0.029267915 0.028136918 -0.11750308
000060 c6 d1 9c bc 0d d7 69 bd 35 69 b9 bd 1a e1 93 3b
       -0.019142997 -0.057089854 -0.0905327 0.004512918
000070 e0 36 c6 3c b0 33 02 bd c7 98 15 3e e1 bf 52 bd
       0.024196088 -0.031787574 0.14609061 -0.05145252
000080 99 5b fe bd cc 92 01 bd e4 e5 b6 bd 8b e4 91 bd
       -0.124198146 -0.031634137 -0.08930567 -0.07123669
000090 54 d3 85 3c d6 c6 2c bd 11 d9 5e bc 40 6b 0d be
       0.01633612 -0.042181812 -0.013601557 -0.13810444
0000a0 64 ef 38 bd c4 9b d9 bc 0a 91 5e 3c 4e de ca bb
       -0.045150176 -0.026563533 0.013584385 -0.0061910516
0000b0 49 27 91 bd bb 2a 1a bd 2c 7a ab bc 05 1b 67 bd
       -0.07087571 -0.037638407 -0.02093228 -0.056422252
0000c0 e4 dc 5e bc 3f df 7a bd 01 c4 dd bc da 55 05 3e
       -0.013602469 -0.06124806 -0.027071001 0.13021031
0000d0 e0 e6 9f bb fa 44 17 bc 20 0d a1 3e 53 4f 38 3d
       -0.0048798174 -0.009232754 0.31455326 0.044997524
0000e0 5f 1f 84 bd 61 10 4c bd 64 6c d3 bd 25 a8 6e bd
       -0.06451296 -0.049820308 -0.10323408 -0.058265824
0000f0 65 86 9c bd 53 f2 70 3c c3 5f 47 bd b0 0f ad bc
       -0.07642821 0.014706212 -0.04867531 -0.021125644
000100 cf 49 9e bc 54 5e d8 3c ca 04 81 bd 56 47 0c 3d
       -0.019322304 0.026412167 -0.062997416 0.03424772
000110 3d c6 0a bd b6 45 2f bd 60 74 90 3d 77 27 0a bd
       -0.03388046 -0.04279109 0.07053447 -0.033729043
000120 25 03 a8 bc c0 6f b1 39 ca 1d a3 bd 4f 0f 43 3d
       -0.020509312 0.0003384333 -0.07964666 0.04762202
000130 1a c5 6c 3b 38 42 fc 3d 83 26 24 bd b5 a4 3e bd
       0.0036128224 0.12317318 -0.04007579 -0.046543796
000140 fc 4f c3 bd 5d f6 a7 bc 3a b3 e6 bc 11 bf bc bd
       -0.0953674 -0.020503217 -0.028161634 -0.092161305
000150 4b 46 aa 3c f6 71 3b bd dc 51 84 bc f5 19 32 bd
       0.020785471 -0.04576298 -0.016152315 -0.043481786
000160 9c 62 46 bd 17 ec 87 bc c5 4f 1e be 0c 56 9d 3d
       -0.048433885 -0.016592069 -0.15460117 0.07682428
000170 37 3d 5f bd 8f 9d 64 bd 39 fe 6b bd c2 9c 22 bc
       -0.05450174 -0.055814322 -0.057615492 -0.009925069
000180 a8 2f a8 bc c5 d8 a4 bc 83 00 7f 3d 53 37 3e bd
       -0.020530537 -0.020122895 0.062256347 -0.04643948
000190 17 ce 28 bd e4 53 58 3c 84 40 7e bd bf 57 82 3c
       -0.041212168 0.013203595 -0.062073246 0.015910981
0001a0 12 48 ea bb 1d 9a 88 bd a5 03 89 bd f1 fb 3a bd
       -0.0071497047 -0.0667002 -0.06690148 -0.045650426
0001b0 52 89 7d bd 85 94 f5 bd 34 4c 83 bd 3c dc 00 bd
       -0.061898537 -0.119912185 -0.06411019 -0.031460032
0001c0 b7 4e c7 3b a4 a4 84 bd 3c 5f 21 bc a9 cf 53 3d
       0.0060823816 -0.06476715 -0.009849366 0.051711712
0001d0 ce d4 88 bd 3c 4a 2a 3d b9 f8 6d bd f1 84 fb bc
       -0.06681214 0.0415747 -0.05809853 -0.03070304
0001e0 c2 4e 5d 3b 77 36 5b 3d 8d 32 ba bd 2b aa 3b 3c
       0.0033768867 0.05351874 -0.09091673 0.011454145
0001f0 f4 f9 f7 bc 29 c1 51 bd 0e 48 92 bc ba 0e 84 3d
       -0.030270554 -0.051209603 -0.017856624 0.06448121
000200 e5 3e 73 bc bb b0 8c bc d3 23 33 bd d5 a4 96 bd
       -0.014846538 -0.017174115 -0.043735337 -0.07355658
000210 79 ca 38 bc a3 ef 7e 3c 0d 0b 80 bd c9 07 ad bc
       -0.011278742 0.0155600635 -0.06252108 -0.021121876
000220 a5 96 c4 bd e1 55 61 bd 1f ca ac bd d9 3e 86 bd
       -0.09599046 -0.05501354 -0.08436989 -0.06554956
000230 00 d7 be bc 78 38 52 bd 57 82 16 bc 41 a1 b0 bb
       -0.02329588 -0.051323384 -0.009186349 -0.0053903167
000240 9a ba 4f bc b3 e4 c7 bc 13 d9 f9 3d 1d 9d 46 bd
       -0.012678767 -0.024401044 0.12199607 -0.04848968
000250 0c 60 83 3c 0e be 26 bd 79 2e 14 bd 61 8d 64 bc
       0.01603701 -0.040708594 -0.036177132 -0.013949723
000260 20 c5 1a 3b 3a a5 8e bd 0c 6c be 3d 0c dc c3 bd
       0.002361603 -0.06965108 0.09297952 -0.09563455
000270 d7 b5 81 3d 00 3b 22 3d 3e 88 7d bd 1d bc 71 3d
       0.06333511 0.039607048 -0.06189751 0.05901729
000280 47 50 43 be b6 03 8b bd b6 12 c8 bd c5 3e 49 bd
       -0.19073592 -0.06787817 -0.09769194 -0.049132127
000290 ef 80 b0 3d d5 83 5f 3c af f1 e6 3d b1 4f fc bd
       0.08618342 0.013642271 0.11276566 -0.123198874
0002a0 b1 66 78 bd b2 2c 36 be cb 5e a1 3c db fc 69 bd
       -0.06064481 -0.17790487 0.019698521 -0.057125907
0002b0 5d b6 04 be 77 1c 4c bd 38 82 49 3d ca 56 54 bd
       -0.12960191 -0.049831834 0.049196452 -0.05184058
0002c0 00 2f a7 bd 35 60 70 3d 16 db 56 bd 3a 5d 70 bd
       -0.081632614 0.0586855 -0.05245503 -0.058682658
0002d0 dd 9e 29 bd 50 a8 8e bd ca 17 81 bd 50 d7 04 bd
       -0.04141127 -0.06965697 -0.063033655 -0.0324319
0002e0 80 c2 10 3c a1 9a 1e 3d 25 0b 1e bd 18 19 80 bd
       0.008835435 0.038721684 -0.038584847 -0.06254786
0002f0 33 f6 ee bc 17 44 82 bc 80 e1 76 bd c9 bd db bd
       -0.029170131 -0.015901608 -0.060273647 -0.10729558
000300 ae 7e 75 3c 3f 01 e4 bc 79 53 41 3c 72 d6 88 3b
       0.014983816 -0.027832625 0.011799687 0.0041759545
000310 5f 4e fa bc c2 99 58 bd 2c 67 98 bd 4a ba e4 bd
       -0.030554948 -0.05288101 -0.074415535 -0.11168344
000320 f2 a1 6f 3d 88 c6 62 bd 55 89 17 bd 63 57 1e 3d
       0.058504052 -0.055365115 -0.036996204 0.038657557
000330 a2 28 d1 bd d9 74 a9 bd 8f 77 c6 bc 5c 53 d7 bc
       -0.10212828 -0.0827424 -0.024226932 -0.026284866
000340 38 78 05 bd fc 97 91 bc d5 f0 2f 3c 60 8e 27 3c
       -0.032585353 -0.017772667 0.010738571 0.010226816
000350 8c d7 19 bd 18 c0 89 bd 19 cf cc bd 2a da 9c bd
       -0.037559077 -0.06726092 -0.10000438 -0.07658799
000360 4f a3 ec 3d 7f 38 bb bd 41 d9 da bd d4 a4 95 bd
       0.11554586 -0.09141635 -0.10685969 -0.07306829
000370 fc f3 b9 3c e5 ac 21 bd e7 9b 0d bd bb 65 6c bb
       0.022699349 -0.039471526 -0.03457251 -0.0036071378
000380 4e e0 11 bd d8 be f4 bd 43 ad 8a bc 04 66 88 bb
       -0.035614304 -0.11950463 -0.01692832 -0.004162552
000390 35 fa da 3c f8 80 77 bd c8 12 0d bd f4 88 77 bd
       0.026730636 -0.06042573 -0.03444174 -0.060433343
0003a0 ae 8c 1a bc c6 3e 4f 3d 97 b1 d5 bd d1 7a 5d 3d
       -0.009432955 0.050596975 -0.10434263 0.054072205
0003b0 00 bd 0c 3a 94 73 a7 bd b1 88 7a 3d 28 b9 f0 bb
       0.00053687394 -0.08176342 0.061165515 -0.007346291
0003c0 50 53 4a 3b 11 05 03 bd 58 cb 34 bc a4 15 56 3a
       0.0030872412 -0.031987254 -0.011034809 0.0008166677
0003d0 50 ed cf bd 3d 49 ad bc 2b 6a 05 bd 60 81 f8 3b
       -0.10152686 -0.021153087 -0.032571953 0.007583782
0003e0 de fe 68 3d da 05 b2 bd e0 0a 1f bd 8a 83 37 3c
       0.056883685 -0.08692522 -0.03882873 0.011200795
0003f0 f0 4c 9f bd b7 51 95 bd 5d 02 e2 3d 96 4d f8 3c
       -0.077783465 -0.072909765 0.11035607 0.030310433

output_layer.weight f4 [2, 300]
000000 6a ce 9f bd 2d 1f e0 3c d7 82 17 be 8a e4 0f bb
       -0.07803042 0.027358616 -0.14796005 -0.0021956288
000010 61 ce 1d 3e 45 c3 26 3c e2 96 3a bd 94 f5 24 bc
       0.15410759 0.010178392 -0.04555405 -0.010068316
000020 5d 87 9b 3c dc 1e 28 bc 9f f6 ec bf a8 d9 89 bc
       0.018985445 -0.010261264 -1.8512763 -0.01682742
000030 03 0f d1 bb c2 ec 4e 3d 38 82 9f bd a3 3e 13 3b
       -0.0063799634 0.05051876 -0.07788509 0.0022467754
000040 c4 5e 81 3c d7 fe 76 bd fc 9a 9a 3c 90 9a 19 3d
       0.015792258 -0.060301628 0.01887273 0.037500918
000050 a0 1d b9 bd 1a 94 7a bd 1b a5 66 bd ce b6 97 3d
       -0.09038854 -0.061176397 -0.0563098 0.07407914
000060 93 bf 0d 3d 63 8e 0a bd 5e 5c 37 bc ce 6f f3 bb
       0.034606528 -0.033827197 -0.011191456 -0.0074290996
000070 47 d9 7f bd 53 4b 2c bd ab aa 09 bc 72 2b c8 bc
       -0.06246307 -0.042064022 -0.008402507 -0.024434779
000080 c2 c6 90 3e 83 09 06 3d 41 5a 46 bb 52 2e 76 bd
       0.2827664 0.032723915 -0.0030266198 -0.06010277
000090 13 b4 84 bd 8b 25 e3 bd 66 91 9c bc 40 3d a3 bd
       -0.06479659 -0.11091145 -0.0191123 -0.07970667
0000a0 85 b5 5f 3e 64 cb 14 3c 0e 44 27 bf 0b 41 08 bd
       0.21846588 0.009081695 -0.6533822 -0.033265155
0000b0 29 23 7e bc fd 28 c3 bc f4 01 fb bc 39 db 62 bc
       -0.0155113125 -0.023823256 -0.03064058 -0.013846212
0000c0 b6 54 64 bc fb 4b b0 bc fc 55 ef bb 27 02 07 be
       -0.013936212 -0.021520605 -0.0073039513 -0.13184415
0000d0 16 cb 83 c0 ec 11 31 3d c2 16 ca bf 75 17 1a bd
       -4.118541 0.043229982 -1.5788195 -0.037620027
0000e0 a5 62 18 bd 0d 19 9c bd a9 5d 5d bd 2e 84 f9 bc
       -0.03720345 -0.076219656 -0.0540444 -0.030458536
0000f0 a4 3c cf 3c 4d 54 20 3d 7c d3 e9 3d 97 2e 08 bd
       0.02529747 0.039142895 0.114172906 -0.033247557
000100 ae 33 8f 3c 2f 51 a6 bd 47 f2 3b bd 79 07 ee 3e
       0.017480697 -0.08120953 -0.04588535 0.46490076
000110 2a b8 14 3d ad b1 89 3c 89 30 49 40 44 4e 6c bd
       0.036308445 0.016808355 3.1435874 -0.057691827
000120 fe d5 56 bc be ac e5 3d e6 16 dd bc df 77 29 bd
       -0.013112543 0.112145886 -0.026988458 -0.041374084
000130 7e c6 1c bd e3 7b 97 bd 71 c9 c9 bc bf 8b b6 bd
       -0.038275234 -0.073966764 -0.024632188 -0.08913373
000140 98 b1 ac bd ae 9c 1b 3d b0 73 5d bd 80 79 d3 39
       -0.08432311 0.03799122 -0.054065406 0.0004033558
000150 22 c0 9b bd 87 e6 08 bd ff a9 15 3d 20 38 82 3d
       -0.07605006 -0.033422973 0.036539074 0.06358361
000160 41 c3 b1 3d 90 1b 2c 3d 80 6e 80 bc 89 2b b9 3c
       0.0867982 0.042018473 -0.01567769 0.022603767
000170 05 47 ee 3c e9 62 81 bc 1e 08 dd 3c 27 14 7a bf
       0.0290866 -0.015794234 0.02698141 -0.97687
000180 e0 ff 87 bb 6a c9 9e bd 64 14 27 3c a0 8f 3b 3d
       -0.0041503757 -0.077532604 0.010197733 0.04579127
000190 52 5e 4f bd 60 f4 ce bd eb d3 32 bd 65 49 3a 3d
       -0.05062706 -0.101052046 -0.043659132 0.04548015
0001a0 77 3a 54 bc 97 a6 e1 3c c8 a9 5a 3c a6 b4 f8 3d
       -0.012953392 0.027545257 0.013346143 0.12143831
0001b0 26 98 24 3b fc 49 d4 bc 11 3e 42 bd 54 dd 1f 3d
       0.0025115102 -0.025914185 -0.047422472 0.039029434
0001c0 85 1f c1 3c fc c0 3f 3c f1 6a 7a bc d3 32 cb 3d
       0.0235746 0.011703726 -0.015284286 0.09921803
0001d0 3f ef be bd 80 67 05 40 36 ab c5 3c 0b 71 c8 bc
       -0.09322976 2.0844421 0.024129491 -0.024467966
0001e0 d3 f5 b7 bd 89 24 8e bc 62 c7 7b bd b9 92 3a 3d
       -0.08982434 -0.017351406 -0.061469443 0.045550082
0001f0 83 36 07 bd 7c c2 35 3d 69 24 c5 3d 3a 56 32 3d
       -0.03301097 0.044374928 0.09626085 0.043539263
000200 7e b4 ea bb 98 19 85 bc 2f 30 9d 3e d5 c9 7f bd
       -0.0071626296 -0.016247556 0.30700824 -0.06244834
000210 c2 f3 99 bd 32 bb bc 3c 45 ee 9b bd b8 31 0a 3d
       -0.07517196 0.02303848 -0.07613806 0.03373882
000220 7c c7 40 bc 68 21 7c 3a f6 ff a7 bc 82 78 7a bd
       -0.011766311 0.0009618015 -0.020507794 -0.06115008
000230 a3 74 8d bc 1f 88 ae 3c 76 a7 25 bd 68 4b 15 bd
       -0.01726753 0.021305142 -0.040442906 -0.036448866
000240 f8 f6 ae bc bf bb ca bc 4d 98 d6 3c c5 d1 d9 bc
       -0.021357998 -0.024747727 0.02619567 -0.026589284
000250 b2 d2 c0 bd 63 5e 10 bd 34 ea 16 bd 03 8e b7 3c
       -0.09415187 -0.035246264 -0.036844447 0.022406584
000260 04 19 01 ba bb 6e 9f 3c fa 96 01 3d 65 fc 2e 3d
       -0.0004924687 0.01946198 0.031638123 0.04272117
000270 3e a8 ed 3b ed 46 68 bd 87 18 a7 bc 10 27 9d 3c
       0.007252722 -0.056708265 -0.020397438 0.019183666
000280 49 5d 54 3d ba 0e 56 bd 7d b9 1c bd 3b a2 a7 bc
       0.051846776 -0.052260138 -0.038262833 -0.0204631
000290 dc fa c7 3b 8e 2a 72 bc 63 c3 2a 3d 1c 12 fa 3d
       0.006102903 -0.014780654 0.04169024 0.12210485
0002a0 f0 f4 7d 3c 22 be a1 3d 8b ef 94 3d ea 4b 23 3c
       0.015500292 0.07897593 0.07272252 0.00996683
0002b0 99 fa 10 3d c0 92 41 bc 2c 98 e0 bc 61 53 b0 3d
       0.03539524 -0.011814773 -0.027416311 0.08609653
0002c0 7b 3f 65 3c be 79 85 bb 84 57 7e bd 5e 31 73 bd
       0.013992186 -0.0040733507 -0.06209518 -0.059373252
0002d0 fc ff 64 bc 4f d4 20 3c e6 a8 9e be ae 96 8a bc
       -0.013977047 0.009816243 -0.30988234 -0.016917553
0002e0 00 f4 95 3d 66 ba be 3d 22 bc c8 3c 1f 5d 27 3b
       0.0732193 0.093128964 0.024503771 0.0025537682
0002f0 60 fe 03 3a 2c f8 1b bc ef 85 45 bc ba fb 4c bd
       0.0005035158 -0.009519618 -0.012055858 -0.050044753
000300 ce 61 1c 3d be 9f 05 be 78 e4 83 bb ff 5d 44 3c
       0.03817921 -0.13049218 -0.0040250383 0.011985301
000310 bf f2 8f 3d dd 51 08 be d8 ca 05 3d fa f3 b7 bb
       0.07028722 -0.13312478 0.03266415 -0.005613801
000320 25 61 ea 3f 7e c6 43 bd 0d 4d 19 3c e6 05 0a 3e
       1.8310896 -0.04779672 0.009356749 0.13478813
000330 04 2a 09 bd e6 85 db bc ea 17 25 bd 80 bc a1 bc
       -0.033487335 -0.026797246 -0.04030601 -0.019743204
000340 f7 4d e5 bc b0 16 93 bc e9 b2 4d bd d7 fa 86 bf
       -0.027991278 -0.017955154 -0.05021945 -1.05453
000350 ee 26 04 be a5 3d 83 3d 90 54 bd bd 80 06 15 3d
       -0.12905475 0.06408242 -0.09244645 0.036383152
000360 07 4b b0 3d 64 3d 16 bd 61 a2 07 3d 86 e1 2a 3d
       0.0860806 -0.03667964 0.03311384 0.041718982
000370 0c db b4 bd 2f 5b 46 3d 39 7a 19 ba 54 96 40 bd
       -0.088308424 0.048426803 -0.00058546994 -0.047018364
000380 97 d0 55 3d 20 1c 20 ba 60 65 9b bb b8 f2 07 bd
       0.05220088 -0.00061077066 -0.0047423095 -0.03319046
000390 e0 b2 d0 bb a5 b4 19 3c 10 b7 cb bc a0 fa 09 bd
       -0.00636898 0.009381448 -0.024867564 -0.03368628
0003a0 96 ad 04 bd 9b c4 3f 41 78 e6 00 bd 57 63 8d 3d
       -0.032392107 11.985499 -0.031469792 0.06903713
0003b0 65 6f ae bd 46 86 22 3b de 98 98 3c 13 52 31 3d
       -0.085173406 0.0024799271 0.01862758 0.043291163
0003c0 eb ab 6e 3c ce 23 9d bd 38 cb 24 bc c8 ed 37 ba
       0.014567356 -0.07672845 -0.010058217 -0.0007016328
0003d0 5d 19 47 be 84 ca f5 3c 01 38 34 bd 15 d5 28 3b
       -0.19443269 0.030003794 -0.043998722 0.0025761772
0003e0 90 19 34 3d 68 9a 11 bc da 59 0d 3d 08 11 0a bb
       0.04396969 -0.008886911 0.034509517 -0.002106728
0003f0 d9 d4 0a bd 96 7e 2a bd bd 9d 10 3d 28 36 94 3d
       -0.033894394 -0.041624628 0.03530668 0.07236892

output_layer.bias f4 [2]
000000 e9 c9 35 be 8e 9a 57 3d
       -0.17752804 0.05263763
