trained_model_with_input_error_rnn_error_200epchos.pth (torch, 369175 bytes, 6 tensors)

rnn_cell.weight_ih f4 [300, 2]
-0.02769329 0.0027998192 0.14003454 0.5272776 0.027291121 0.007734645 0.0148284985 0.049905624
-0.04871767 0.08128161 0.023066761 0.018170193 -0.04563745 0.04997413 0.03037944 0.014334047
-0.023070488 -0.03886839 -0.054091807 0.062080473 -0.013545406 0.013070474 -0.0050377417 0.022578292
0.42260703 0.42873225 0.016094042 -0.0045207553 0.09334184 -0.004395261 0.008027991 -0.020622201
0.030075934 0.003541649 0.021908669 0.034274437 -0.023228586 0.026361978 0.039274428 -0.015918938
-0.017186921 0.030886507 -0.14975195 -0.113700286 0.01707253 -0.0062872237 0.064168096 -0.032883145
-0.006393146 -0.042063545 -0.09380664 -0.03634613 -0.13670745 0.21696764 -0.13374099 0.060563587
0.015012881 -0.07650644 0.05366608 -0.025642298 -0.19599356 -0.14555462 -0.01865914 -0.017344652
-0.028262962 -0.012386419 0.0940959 -0.022023618 0.0134823285 -0.03914197 -0.014675919 0.015357495
-0.02229596 -0.018575298 0.016849538 -0.06922387 -0.017748602 -0.033326328 0.027705967 -0.022254545
0.03525726 -0.019339139 0.0986277 0.053293128 -0.041895896 0.016171228 0.0009123802 -0.03542062
0.003532 0.026742334 -0.03179737 0.019160978 0.009140451 0.021119058 0.04934124 0.010537273
0.0034343854 0.013520123 0.29320276 0.30337122 0.038812485 -0.0030857387 0.006061701 0.008525389
-0.024795426 0.0008593056 0.022074535 0.018434588 0.032451194 -0.027535982 0.049927533 -0.024619726
-0.002406695 -0.010311439 0.059564326 0.004303256 0.05228581 0.032390468 0.027116915 -0.054004535
-0.054775223 -0.036125887 0.063037716 0.043362502 -0.072697125 0.04144225 0.0141011 -0.013622788
-0.042849183 0.0002381308 -0.027607081 0.044641986 -0.017123036 0.04084273 -0.0960563 -0.10514271
-0.030058159 -0.012575389 0.90348434 -0.3681982 -0.03198838 0.026514146 -0.00985137 -0.07271951
-0.050711513 0.053805828 -0.27440596 -0.15727904 -0.004996147 0.0061350623 -0.04309934 0.07214179
0.13874692 -0.04618152 -0.0068516256 -0.017947368 -0.034440048 -0.044070844 0.023494892 0.03194928
-0.0077350563 0.036970846 -0.027211595 0.035573933 0.02859753 0.01594287 -0.028181694 -0.0074260104
-0.029663106 -0.030001849 -0.056149058 -0.064477265 0.05013597 -0.011145394 -0.03088712 -0.044142827
-0.008479471 0.02102676 0.0636512 0.032649808 -0.0017558003 -0.03331111 -0.043805633 0.028478581
0.019749803 -0.013220327 -0.026243232 -0.0134510305 0.028898835 0.034531783 0.02485079 -0.054964464
0.0063173445 -0.005813633 -0.003924023 -0.044829246 -0.030523824 0.0037031218 0.16637215 -0.004369903
-0.016437925 -0.035443913 -0.49426568 -0.16818385 0.058180362 0.04274789 0.040600237 -0.016695753
0.17083487 0.019300256 0.058282934 -0.06695521 0.032660767 -0.06991892 0.001685756 -0.00500376
-0.028986467 -0.00822388 0.054665793 -0.025796972 -0.05981372 -0.044849295 -0.021700803 -0.012019567
0.13466488 -0.3632322 -0.009685994 -0.05537198 0.037635036 -0.04483778 0.02340065 0.0043421453
-0.02077808 -0.07647312 0.07079648 0.061766006 0.008564031 -0.007308163 0.14476605 -0.03996428
0.014939588 -0.014694276 -0.0048534153 -0.06005226 -0.36524966 -0.36002946 0.004007424 -0.053101115
-0.031174323 0.0087962225 0.03775366 -0.085641295 0.019184984 0.010961095 -0.01807445 -0.0008957549
00000000: 0add e2bc 2c7d 373b 3765 0f3e aafb 063f
00000010: a191 df3c e872 fd3b 3bf3 723c d769 4c3d
00000020: 2e8c 47bd f976 a63d 81f6 bc3c a8d9 943c
00000030: 56ee 3abd acb1 4c3d 4ede f83c 5ad9 6a3c
00000040: 52fe bcbc 7634 1fbd 5f8f 5dbd 1848 7e3d
00000050: 8ded 5dbc 8b25 563c a413 a5bb 1cf6 b83c
00000060: f35f d83e cb82 db3e a7d7 833c d822 94bb
00000070: 022a bf3d 1f06 90bb d687 033c e4ef a8bc
00000080: ce61 f63c 031b 683b cf79 b33c 5a63 0c3d
00000090: e049 bebc 13f5 d73c 39de 203d 6f68 82bc
000000a0: 96cb 8cbc b305 fd3c 9358 19be b2db e8bd
000000b0: b1db 8b3c 0e05 cebb 906a 833d 7ab0 06bd
000000c0: 987d d1bb d34a 2cbd b21d c0bd aedf 14bd
000000d0: 0afd 0bbe c42c 5e3e 66f3 08be 8611 783d
000000e0: 96f8 753c 69af 9cbd f7d0 5b3d cc0f d2bc
000000f0: 89b2 48be 450c 15be 0edb 98bc 5f16 8ebc
00000100: ba87 e7bc 68f0 4abc 5ab5 c03d e06a b4bc
00000110: fce4 5c3c 5553 20bd 4473 70bc 019e 7b3c
00000120: 04a6 b6bc 392b 98bc 0b08 8a3c 3fc5 8dbd
00000130: 8465 91bc 3081 08bd a0f7 e23c 2a4f b6bc
00000140: eb69 103d 1d6d 9ebc 52fd c93d e549 5a3d
00000150: 089b 2bbd 8679 843c cc2c 6f3a 3615 11bd
00000160: 2079 673b bd12 db3c f63d 02bd 7cf7 9c3c
00000170: d5c1 153c e001 ad3c 0a1a 4a3d 87a4 2c3c
00000180: 6d13 613b 8283 5d3c ac1e 963e 7953 9b3e
00000190: d7f9 1e3d 1b3a 4abb 3ca1 c63b 13ae 0b3c
000001a0: c71f cbbc 0643 613a a8d5 b43c 2204 973c
000001b0: 8beb 043d 2493 e1bc d080 4c3d 4faf c9bc
000001c0: a4b9 1dbb 4ff1 28bc b9f9 733d 5402 8d3b
000001d0: a529 563d deab 043d 4b24 de3c dc33 5dbd
000001e0: fc5b 60bd bdf8 13bd eb19 813d e19c 313d
000001f0: 3be2 94bd 59bf 293d 4d08 673c 1d32 5fbc
00000200: a082 2fbd c0b2 7939 3f28 e2bc 84da 363d
00000210: 9c45 8cbc b54a 273d 2ab9 c4bd 1055 d7bd
00000220: 873c f6bc 0109 4ebc c04a 673f 7984 bcbe
00000230: 3f06 03bd 3234 d93c a467 21bc f7ed 94bd
00000240: e0b6 4fbd 8063 5c3d f07e 8cbe c20d 21be
00000250: b8b6 a3bb a208 c93b ef88 30bd 13bf 933d
00000260: ac13 0e3e d528 3dbd 9a83 e0bb 5c06 93bc
00000270: 0211 0dbd a183 34bd 5c78 c03c 40dd 023d
00000280: 5b76 fdbb be6e 173d daea debc f9b5 113d
00000290: 5e45 ea3c 9f9a 823c 4cdd e6bc e455 f3bb
000002a0: 0b00 f3bc 70c6 f5bc 8efc 65bd a80c 84bd
000002b0: 605b 4d3d 2c9b 36bc fc06 fdbc 1ccf 34bd
000002c0: 7bed 0abc 5040 ac3c 8f5b 823d cebb 053d
000002d0: e222 e6ba 3b71 08bd 896d 33bd ea4b e93c
000002e0: 57ca a13c 129a 58bc 0cfc d6bc b661 5cbc
000002f0: 40bd ec3c 3371 0d3d e293 cb3c 6b22 61bd
00000300: ba01 cf3b 4a80 bebb 1795 80bb df9e 37bd
00000310: 190d fabc 13b0 723b 765d 2a3e 6731 8fbb
00000320: d4a8 86bc a32d 11bd 6410 fdbe 6338 2cbe
00000330: 884e 6e3d 6918 2f3d 6f4c 263d 88c5 88bc
00000340: 56ef 2e3e 921b 9e3c 16ba 6e3d d01f 89bd
00000350: 4cc7 053d a731 8fbd 96f4 dc3a 95f6 a3bb
00000360: 0775 edbc 74bd 06bc 3de9 5f3d 2c54 d3bc
00000370: 3bff 74bd e5b3 37bd e2c5 b1bc b8ed 44bc
00000380: 97e5 093e 92f9 b9be 01b2 1ebc bbcd 62bd
00000390: 3227 1a3d d2a7 37bd b8b2 bf3c 8e48 8e3b
000003a0: cb36 aabc f09d 9cbd bffd 903d 5afe 7c3d
000003b0: 2650 0c3c 5179 efbb 8d3d 143e 96b1 23bd
000003c0: 2cc5 743c 43c0 70bc 6609 9fbb 5cf9 75bd
000003d0: 0102 bbbe c855 b8be b650 833b 8e80 59bd
000003e0: 4b61 ffbc 081e 103c 95a3 1a3d b464 afbd
000003f0: d429 9d3c 2a96 333c de10 94bc 18d1 6aba

rnn_cell.weight_hh f4 [300, 300]
0.015577404 -0.015170041 0.039128356 0.034780864 -0.023304084 -0.05350605 0.017340533 0.01581098
-0.038300563 0.0403864 -0.017653055 -0.024534147 -0.029784314 -0.007810541 0.029760333 0.021636419
-0.0056723687 0.019751523 0.0055226884 -0.023216583 -0.0066930233 -0.029809698 0.03502917 0.00011301157
-0.048139606 -0.057374913 -0.029959884 0.039934598 -0.037387602 0.033320885 0.051344365 0.035951126
0.028062584 -0.061832108 0.0065259254 -0.061299875 -0.018890847 0.03033987 0.023759376 -0.059648678
-0.035203062 0.041356176 0.038240567 -0.0493153 0.03344292 0.014224617 -0.031180516 0.009273252
-0.003947179 -0.029537711 0.026257997 0.060479376 -0.053430192 -0.007610436 0.019125165 0.0019005317
-0.03925945 -0.012579888 -0.07639991 -0.013211442 0.005756761 0.014749227 -0.02119312 -0.057505973
-0.03402563 -0.06636641 -0.021740591 0.021954242 -0.030821051 0.039810915 -0.02315943 0.013483879
3.2394193e-05 0.04217354 0.0018260684 -0.042097323 0.014783647 0.04156109 0.022820344 -0.034719635
-0.04305176 0.0684728 0.01980731 -0.012820583 -0.037145805 0.026453853 0.004485113 -0.07115096
0.051966228 0.019873496 0.038283262 0.0375932 -0.04422887 -0.05855893 0.026891012 -0.07887726
0.0034939675 -0.018820925 0.041060567 -0.02727091 -0.027763696 -0.03034146 0.03534442 -0.04074341
0.0038033458 0.025583206 -0.026724435 0.016109277 0.0010781665 0.035850823 -0.020442698 -0.06896863
-0.030860253 -0.036487367 -0.0628577 -0.068156935 0.0004583695 -0.049486518 -0.007993793 -0.062051307
-0.0023446819 -0.0010699076 -0.04160774 0.03727977 -0.007204217 -0.022135047 -0.023101002 -0.03142018
0.0055234153 -0.04848001 0.044926655 0.00902516 -0.07290779 0.028850866 0.046018425 -0.04387411
0.050512183 -0.01652723 -0.015263287 -0.016870094 0.058282677 -0.04224862 0.033455968 -0.016490838
-0.036865897 -0.051718384 0.011759361 0.028212603 -0.06240813 0.004843327 0.023458136 -0.011572224
-0.07491295 0.026368234 0.015727049 0.01824502 -0.050703645 -0.025811464 0.034243885 -0.018884663
0.021639396 0.059834093 -0.0014046044 -0.02900298 -0.047598902 0.0073133763 0.017986722 0.020716716
-0.00759864 -0.041579016 -0.01832091 -0.00094235106 0.015306534 -0.041266914 -0.07375634 -0.06511852
-0.05629699 0.041367166 -0.051890474 0.019404743 0.009775438 -0.011791352 -0.009408986 -0.03746669
-0.055334117 -0.04653456 -0.036186315 -0.038140096 -0.06601261 -0.070911966 -0.031078417 0.00078486465
0.027265526 0.05098305 0.051270254 -0.02275715 0.026143994 0.041476317 -0.031497512 -0.057026576
-0.05247003 -0.00888351 0.06265053 -0.057095166 0.017294709 9.49488e-05 -0.016228545 0.033219405
0.012542687 -0.020270817 0.015968196 -0.021779485 0.038163118 0.042694457 -0.038078185 -0.05507787
0.032543797 0.0074367197 -0.02577539 -0.00069513323 0.04965023 -0.01871442 0.00677027 -0.008565752
-0.051553413 0.015311023 -0.0567766 -0.054758634 -0.009193064 0.014402639 -0.04935769 0.0022807794
-0.01830695 -0.066083886 -0.042179342 -0.033531718 -0.019775616 -0.05140842 0.016523782 -0.038286664
-0.047664545 0.015194125 0.012794606 0.014375155 -0.055628292 0.028801452 0.01861911 0.012157775
0.060959812 0.030685306 -0.067390084 0.032082193 -0.07304622 -0.025972687 -0.038000237 -0.030727917
00000000: 5e38 7f3c c38b 78bc 0e45 203d 6176 0e3d
00000010: 35e8 bebc 2929 5bbd bc0d 8e3c 0786 813c
00000020: 0de1 1cbd 366c 253d 249d 90bc d6fb c8bc
00000030: 3cfe f3bc 91ef ffbb f1cb f33c dc3e b13c
00000040: 47df b9bb f2cd a13c abf7 b43b b430 bebc
00000050: 2651 dbbb 7833 f4bc bf7a 0f3d a000 ed38
00000060: 092e 45bd f501 6bbd 6e6e f5bc 7692 233d
00000070: be23 19bd 7b7b 083d 784e 523d 7d41 133d
00000080: 81e3 e53c aa43 7dbd 6ed7 d53b 9415 7bbd
00000090: fac0 9abc 528b f83c 06a3 c23c 2c52 74bd
000000a0: 1631 10bd 1865 293d 24a2 1c3d d7fe 49bd
000000b0: 71fb 083d 5e0e 693c 486e ffbc d7ee 173c
000000c0: 5657 81bb 12f9 f1bc 031b d73c 39b9 773d
000000d0: 9ed9 5abd f760 f9bb 61ac 9c3c 431b f93a
000000e0: 84ce 20bd e01b 4ebc 8e77 9cbd ce74 58bc
000000f0: 36a3 bc3b bea6 713c 329d adbc 628b 6bbd
00000100: 765e 0bbd 1deb 87bd 5319 b2bc 62d9 b33c
00000110: 6e7c fcbc c510 233d d8b8 bdbc 7deb 5c3c
00000120: 00df 0738 29be 2c3d b058 ef3a 3e6e 2cbd
00000130: 1c37 723c f63b 2a3d bbf1 ba3c 2d36 0ebd
00000140: 0b57 30bd 783b 8c3d f142 a23c 6c0d 52bc
00000150: 3326 18bd c0b5 d83c dbf7 923b 98b7 91bd
00000160: 8ada 543d becd a23c e9ce 1c3d 54fb 193d
00000170: 5529 35bd 7ddb 6fbd 8a4a dc3c 678a a1bd
00000180: 0cfb 643b 572e 9abc 202f 283d 3e67 dfbc
00000190: b170 e3bc a78e f8bc 4fc5 103d 90e2 26bd
000001a0: 8e41 793b df93 d13c 34ed dabc 9af7 833c
000001b0: 4451 8d3a 50d8 123d 7277 a7bc 6d3f 8dbd
000001c0: a4ce fcbc c773 15bd 8abb 80bd dd95 8bbd
000001d0: 5051 f039 60b2 4abd 66f8 02bc 8329 7ebd
000001e0: 3ca9 19bb 243c 8cba e16c 2abd acb2 183d
000001f0: 5a11 ecbb 8f54 b5bc 503e bdbc 72b2 00bd
00000200: c4fd b43b fa92 46bd 0305 383d 44de 133c
00000210: ae50 95bd a758 ec3c d17d 3c3d 57b5 33bd
00000220: dde5 4e3d 1d64 87bc de12 7abc 2733 8abc
00000230: d1b9 6e3d e40c 2dbd 2009 093d cb17 87bc
00000240: b200 17bd a8d6 53bd 56aa 403c 1e1e e73c
00000250: ab9f 7fbd c6b4 9e3b 472b c03c 6d99 3dbc
00000260: f66b 99bd 3202 d83c 03d6 803c 9576 953c
00000270: a0ae 4fbd 9072 d3bc 5143 0c3d 02b4 9abc
00000280: 1a45 b13c 9814 753d b41a b8ba a897 edbc
00000290: 11f7 42bd 0ca5 ef3b e458 933c 1ab6 a93c
000002a0: 03fe f8bb c24e 2abd bc15 96bc 1c08 77ba
000002b0: 42c8 7a3c 7f07 29bd 900d 97bd dc5c 85bd
000002c0: ac97 66bd 9e70 293d 1b8b 54bd b2f6 9e3c
000002d0: 2929 203c 8430 41bc 2628 1abc ac76 19bd
000002e0: 07a6 62bd 069b 3ebd 1a38 14bd ca38 1cbd
000002f0: 9f31 87bd 4b3a 91bd 2a98 febc 60bf 4d3a
00000300: f45b df3c 9ad3 503d c200 523d 346d babc
00000310: ee2b d63c 12e3 293d 8903 01bd b394 69bd
00000320: d0ea 56bd 248c 11bc ec4e 803d 9fdc 69bd
00000330: a2ad 8d3c 401f c738 baf1 84bc 1211 083d
00000340: d87f 4d3c fc0e a6bc bccf 823c e46a b2bc
00000350: ee50 1c3d 62e0 2e3d dff7 1bbd 5599 61bd
00000360: a54c 053d baaf f33b e926 d3bc 9a39 36ba
00000370: 0a5e 4b3d fc4e 99bc 24d9 dd3b 5e57 0cbc
00000380: ac29 53bd 16db 7a3c 958e 68bd 974a 60bd
00000390: 819e 16bc 0cf9 6b3c 4a2b 4abd 2179 153b
000003a0: 75f8 95bc fd56 87bd 3fc4 2cbd 8e58 09bd
000003b0: 7900 a2bc a391 52bd e25c 873c 7ad2 1cbd
000003c0: e63b 43bd c7f0 783c 78a0 513c c585 6b3c
000003d0: 7eda 63bd 06f1 eb3c 1b87 983c 6831 473c
000003e0: ffb0 793d c05f fb3c d003 8abd 9e68 033d
000003f0: 4299 95bd acc4 d4bc 23a6 1bbd 1db9 fbbc

rnn_cell.bias_ih f4 [300]
-0.0787718 -0.2227285 -0.0552319 -0.033922642 0.0039734235 -0.05680097 -0.07549416 -0.051749155
-0.06625447 0.095316924 -0.06914328 -0.032849785 0.07402438 -0.04923948 0.003720863 0.008973343
-0.024486585 -0.043872926 -0.000631602 -0.0323058 -0.025289526 -0.14667873 -0.035030566 -0.04557266
-0.013918633 0.0033302894 -0.14818095 -0.013908886 -0.05055516 -0.02346658 -0.14922155 0.050211437
-0.054906826 -0.021812446 -0.09704821 -0.08886864 -0.07142693 0.0132745765 -0.033887852 0.003547315
-0.00027571956 -0.11496128 0.112732835 -0.05494066 0.033820216 0.0845887 -0.0031668849 -0.062862314
0.010983264 -0.09835575 0.066667736 -0.030823091 -0.06202059 -0.087992884 0.063385725 -0.04849133
-0.013627929 -0.030214839 -0.050108682 -0.016322302 -0.07778506 -0.09133028 0.060648344 0.07137197
0.012613209 -0.10715905 -0.052156996 -0.0008386887 -0.07291019 -0.16302629 0.016144695 0.05654003
-0.0029645697 -0.094197355 -0.0017639841 -0.03160248 0.11504854 -0.08446378 -0.072587766 -0.01464177
-0.06831046 -0.043494064 -0.036884423 -0.019305525 -0.07075396 0.012287953 -0.07468767 -0.013877099
-0.081712164 0.005671475 -0.015659962 -0.105113 -0.07057049 0.06736196 -0.09252461 -0.020985581
0.08455626 -0.07353301 -0.095932506 -0.10464688 -0.039407212 0.0563583 -0.01822268 0.08553449
-0.0340525 -0.047525488 -0.04440318 -0.08883465 -0.060778346 -0.062264133 -0.09174924 -0.017212642
-0.05521588 -0.077024035 2.803281e-07 -0.081249654 0.040441517 -0.03134302 -0.002915175 -0.039638188
-0.03042904 -0.04620586 -0.14481413 -0.09436835 -0.07435044 -0.133836 -0.053904984 -0.05384267
0.018062118 -0.08907138 -0.019169347 -0.030874263 -0.08974324 0.006145022 -0.10115049 -0.004685827
-0.033715848 0.065776974 -0.012491471 -0.13173465 -0.028699353 -0.051280968 -0.08650305 -0.14075714
-0.035824694 0.005170639 -0.018070614 -0.048923228 0.08769553 -0.09461563 -0.070415124 -0.0005190382
-0.06426066 -0.13609579 -0.049560733 -0.06565426 -0.026566759 0.00791482 -0.07943419 -0.11936338
-0.07369841 -0.0054763975 0.05044481 -0.04682657 0.051939327 -0.04892034 -0.06921564 -0.0742048
-0.089186326 -0.02078184 0.021514393 -0.016629579 -0.014554107 -0.06706316 -0.081903785 -0.10620579
-0.078785986 0.13605776 -0.05370318 -0.04606096 -0.029010672 -0.08211386 -0.07295124 -0.00021204073
-0.06453949 -0.048041813 -0.019644512 -0.06072954 -0.07809937 -0.10868762 -0.0797818 -0.06360948
-0.04623558 -0.036098003 0.08843646 -0.05680123 -0.006253872 -0.012355591 0.00063611317 -0.08294363
-0.057613906 0.089558445 -0.04286892 -0.009519741 -0.037605707 -0.03407706 0.092496015 -0.024094414
-0.063943535 -0.00536736 -0.042875458 -0.13369767 0.10531441 -0.059424978 -0.08436951 -0.04232866
0.020183986 -0.010135576 -0.069020756 -0.072999455 -0.03094901 -0.0109686665 -0.0022100247 -0.009447087
-0.06653099 -0.014953486 -0.027719079 -0.054562006 -0.025474781 -0.04292652 -0.13566571 -0.015392817
-0.06345532 0.0057230676 0.022566058 -0.12752454 -0.053981755 -0.06620498 -0.0631867 -0.043120243
-0.008268492 -0.009810034 0.03203098 -0.008486593 0.020891853 0.020327494 -0.017486876 -0.05020892
-0.08551924 -0.075210996 -0.07599214 0.045754332 0.06279721 0.022550933 -0.017633304 -0.026102977
00000000: 1c53 a1bd f112 64be d83a 62bd 78f2 0abd
00000010: 7e33 823b 22a8 68bd af9c 9abd ecf6 53bd
00000020: 6cb0 87bd 8535 c33d fe9a 8dbd 7f8d 06bd
00000030: 189a 973d 56af 49bd b9d9 733b ee04 133c
00000040: 1798 c8bc 19b4 33bd 1892 25ba 1653 04bd
00000050: fb2b cfbc f332 16be 367c 0fbd 66aa 3abd
00000060: fa0a 64bc fc40 5a3b bfbc 17be 19e2 63bc
00000070: ed12 4fbd fc3c c0bc 89cd 18be 82aa 4d3d
00000080: fbe5 60bd 04b0 b2bc 36c1 c6bd c300 b6bd
00000090: 4848 92bd 9c7d 593c fdcd 0abd 127a 683b
000000a0: 748e 90b9 d270 ebbd 79e0 e63d 7509 61bd
000000b0: 1187 0a3d d73c ad3d 838b 4fbb f5bd 80bd
000000c0: 26f3 333c bd6e c9bd 1889 883d b580 fcbc
000000d0: 4d09 7ebd 9d35 b4bd 60d0 813d d89e 46bd
000000e0: ad47 5fbc 1c85 f7bc c33e 4dbd 59b6 85bc
000000f0: c64d 9fbd 5f0b bbbd 666a 783d 782b 923d
00000100: a2a7 4e3c 3476 dbbd 93a2 55bd 72db 5bba
00000110: f051 95bd 5df0 26be e141 843c 8596 673d
00000120: 3a49 42bb 8bea c0bd 7c35 e7ba 9a71 01bd
00000130: 929e eb3d 59fb acbd e5a8 94bd 09e4 6fbc
00000140: 5be6 8bbd d526 32bd 1f14 17bd 9f26 9ebc
00000150: 74e7 90bd 6953 493c d9f5 98bd c65c 63bc
00000160: b558 a7bd c8d7 b93b 5249 80bc 7c45 d7bd
00000170: 4387 90bd 11f5 893d 8b7d bdbd f4e9 abbc
00000180: d52b ad3d 7a98 96bd 4378 c4bd 1a51 d6bd
00000190: 7569 21bd f6d7 663d bb47 95bc b52c af3d
000001a0: a27a 0bbd 16aa 42bd 1ce0 35bd f1ee b5bd
000001b0: b7f2 78bd ad08 7fbd 07e7 bbbd 8701 8dbc
000001c0: 0c2a 62bd c7be 9dbd 0080 9634 3866 a6bd
000001d0: 01a6 253d 8a61 00bd 850c 3fbb a75b 22bd
000001e0: 5246 f9bc 5b42 3dbd 284a 14be 3244 c1bd
000001f0: 0b45 98bd 4e0c 09be 79cb 5cbd 228a 5cbd
00000200: 02f7 933c 0e6b b6bd 0909 9dbc 06ec fcbc
00000210: 4ecb b7bd 2e5c c93b fd27 cfbd 918b 99bb
00000220: a119 0abd 14b6 863d 07a9 4cbc 73e5 06be
00000230: e81a ebbc fe0b 52bd 8328 b1bd a422 10be
00000240: eabc 12bd 776e a93b d308 94bc b963 48bd
00000250: b799 b33d d7c5 c1bd ce35 90bd 1010 08ba
00000260: 189b 83bd b25c 0bbe 3200 4bbd be75 86bd
00000270: 88a2 d9bc 29ad 013c 65ae a2bd ca74 f4bd
00000280: 31ef 96bd 5a73 b3bb 389f 4e3d 38cd 3fbd
00000290: 55be 543d b260 48bd eec0 8dbd b0f8 97bd
000002a0: 52a7 b6bd ad3e aabc f43e b03c c13a 88bc
000002b0: 5974 6ebc 6958 89bd 2cbd a7bd 6c82 d9bd
000002c0: 8c5a a1bd ba52 0b3e def7 5bbd 6baa 3cbd
000002d0: caa7 edbc 502b a8bd 7667 95bd 4057 5eb9
000002e0: 482d 84bd 7ec7 44bd 87ed a0bc 8abf 78bd
000002f0: 90f2 9fbd 9d97 debd a464 a3bd b045 82bd
00000300: 8561 3dbd 80db 13bd 2d1e b53d 68a8 68bd
00000310: 48ed ccbb 1b6f 4abc d5c0 263a 5ade a9bd
00000320: 8ffc 6bbd 6b6a b73d 5297 2fbd b0f8 1bbc
00000330: 7108 1abd 6394 0bbd 8d6e bd3d a661 c5bc
00000340: d4f4 82bd aee0 afbb 2d9e 2fbd 0be8 08be
00000350: 15af d73d 9b67 73bd ecc9 acbd d160 2dbd
00000360: e358 a53c b00f 26bc c15a 8dbd bd80 95bd
00000370: c788 fdbc ecb5 33bc 10d6 10bb f4c7 1abc
00000380: 6641 88bd 77ff 74bc 1f13 e3bc 697c 5fbd
00000390: 7db0 d0bc b8d3 2fbd f4eb 0abe 2732 7cbc
000003a0: ddf4 81bd 9288 bb3b 74dc b83c cb95 02be
000003b0: f91b 5dbd 7a96 87bd 0768 81bd da9e 30bd
000003c0: 9278 07bc 44ba 20bc eb32 033d 5a0b 0bbc
000003d0: 6425 ab3c d885 a63c a340 8fbc dea7 4dbd
000003e0: b624 afbd 3908 9abd c4a1 9bbd e568 3b3d
000003f0: d39b 803d bcbc b83c b873 90bc e9d5 d5bc

rnn_cell.bias_hh f4 [300]
-0.029086012 -0.2228875 -0.03126556 -0.056385092 -0.038380247 0.020631338 -0.060728494 -0.04469883
0.0104012545 -2.795551e-05 -0.04945586 -0.0064163804 0.12351116 -0.027201647 0.034721047 -0.08656869
-0.033003684 0.0021457612 -0.06420209 -0.079565875 -0.07539346 -0.12348731 -0.054325677 -0.04328729
-0.08210551 0.014107361 -0.20597203 0.08946053 0.020014428 -0.06511403 -0.17289622 -0.008546794
-0.033686776 -0.038784 0.015231273 -0.090236284 -0.03159135 -0.08027113 0.015308547 -0.06330018
-0.0501109 -0.07292077 0.015395709 -0.050843555 -0.03812918 0.04129632 0.019694058 -0.0031759802
-0.047594693 -0.09987746 0.08257829 -0.052973967 -0.037866607 0.003699238 0.061847076 -0.06615941
-0.06643226 -0.04127987 -0.046187993 -0.056734107 -0.084495716 -0.06014633 0.068884924 0.055791356
-0.07554665 -0.045536388 -0.05831145 0.035678636 0.005786841 -0.21968569 -0.051230446 0.06474131
-0.07217402 -0.065430515 -0.05225811 0.055963293 0.029158583 -0.034949247 0.0019096076 -0.07098301
-0.012231727 -0.031948935 -0.087447055 0.021630632 -0.035065375 -0.031734053 -0.046152234 -0.0069396514
-0.0918074 0.020325882 -0.03336992 0.015147047 -0.007009943 -0.0016596767 -0.014841832 -0.06331353
0.09325418 -0.054656573 -0.034645718 -0.05781332 -0.07835347 0.10136387 -0.011243531 0.08743134
-0.080353305 -0.053212717 -0.07172553 -0.013292565 -0.021337746 -0.042111196 -0.13836484 -0.076344565
0.03463005 0.01033095 -0.08389607 0.019444862 0.0034381435 -0.09021113 -0.035715483 -0.004021824
-0.047922723 -0.05151218 -0.11011937 -0.015171767 -0.008620489 -0.035330266 -0.022722837 -0.041004
-0.005977736 -0.06975404 -0.06539266 -0.034651674 -0.044152204 0.0016285288 -0.04975435 -0.010906467
-0.03681541 0.07381814 0.004693124 -0.046167143 -0.03602359 -0.042425428 -0.04530074 -0.13708176
-0.06884211 -0.0069816643 -0.09874416 -0.017550174 0.07578904 -0.041158028 -0.04168565 -0.01831496
-0.08194996 -0.09135297 -0.010426995 8.2728686e-05 -0.05481753 -0.06254333 -0.030486315 -0.18560271
-0.039134063 -0.07560197 0.073468804 -0.060249988 0.09663904 -0.050348382 -0.0027798938 -0.09041856
-0.10202113 -0.07612447 -0.06864884 -0.09440186 -0.01202147 -0.04677572 -0.025521498 -0.008199923
-0.048548598 0.10191769 -0.05139474 -0.04336263 -0.07833624 -0.06531725 -0.08892235 -0.07233964
-0.057306968 0.0011477971 0.0007551187 0.007545456 -0.015684819 -0.024208749 -0.06681057 -0.040539227
-0.006411093 -0.043886345 0.12558106 -0.04812292 0.011113161 -0.06363803 0.06130486 -0.01874971
-0.1449907 0.100173466 0.013327305 -0.028785016 -0.07500993 -0.038301602 0.036641344 -0.045961767
0.00049553957 -0.07474013 -0.0061434815 -0.13858835 0.14103234 -0.11100804 -0.054210965 -0.044804126
-0.03556298 -0.0031255435 -0.1014365 -0.010271624 -0.051813275 -0.06148953 -0.049220975 -0.051265478
-0.07372812 -0.117197074 -0.11488469 -0.06732903 -0.06565566 -0.010217651 -0.09343365 -0.054077335
0.015795322 0.040625323 0.022048129 -0.031206492 -0.031938173 -0.06338914 -0.015959956 0.006303608
-0.07144725 -0.0027204624 -0.025632966 -0.06433519 0.052329984 0.024214942 -0.00068899244 -0.009249037
-0.12384945 -0.03275469 -0.026565691 -0.008867683 0.08409147 -0.06954927 0.0024350474 -0.05153166
00000000: ca45 eebc 9f3c 64be 5110 00bd 0ef4 66bd
00000010: 9b34 1dbd 0d03 a93c 71be 78bd 1f16 37bd
00000020: 066a 2a3c 0082 eab7 3a92 4abd 8040 d2bb
00000030: 6bf3 fc3d fdd5 debc a837 0e3d ed4a b1bd
00000040: df2e 07bd e69f 0c3b 637c 83bd 6ff3 a2bd
00000050: e367 9abd eae6 fcbd 9a84 5ebd 034e 31bd
00000060: ef26 a8bd 9022 673c 55ea 52be 1537 b73d
00000070: 4cf5 a33c 815a 85bd b50b 31be da07 0cbc
00000080: 25fb 09bd f9db 1ebd 978c 793c cdcd b8bd
00000090: ee65 01bd 3165 a4bd b3d0 7a3c 86a3 81bd
000000a0: 1641 4dbd 7c57 95bd 493e 7c3c 5541 50bd
000000b0: 582d 1cbd 5426 293d 6f55 a13c 1b24 50bb
000000c0: a7f2 42bd 8e8c ccbd ce1e a93d 3bfb 58bd
000000d0: 041a 1bbd ea6e 723b 5c53 7d3d 967e 87bd
000000e0: a30d 88bd 1515 29bd 9f2f 3dbd 0662 68bd
000000f0: 170c adbd 005c 76bd 8a13 8d3d 7a85 643d
00000100: 34b8 9abd 5d84 3abd fdd7 6ebd c323 123d
00000110: 8a9f bd3b 49f5 60be 04d7 51bd 1897 843d
00000120: f9cf 93bd 6f00 86bd 9a0c 56bd c439 653d
00000130: fbdd ee3c f126 0fbd cc4b fa3a 8a5f 91bd
00000140: 9567 48bc e3dc 02bd 7117 b3bd b932 b13c
00000150: b6a0 0fbd 91fb 01bd 200a 3dbd 0466 e3bb
00000160: 8505 bcbd 7782 a63c e6ae 08bd 522b 783c
00000170: aab3 e5bb 8289 d9ba 282b 73bc 86aa 81bd
00000180: 0cfc be3d 92df 5fbd abe8 0dbd a9cd 6cbd
00000190: c977 a0bd dc97 cf3d c936 38bc 340f b33d
000001a0: 4690 a4bd 94f5 59bd d6e4 92bd 0fc9 59bc
000001b0: 7fcc aebc ca7c 2cbd 83af 0dbe 8a5a 9cbd
000001c0: 3dd8 0d3d 2543 293c b4d1 abbd d54a 9f3c
000001d0: 7a52 613b 9dc0 b8bd 664a 12bd 81c9 83bb
000001e0: 9e4a 44bd 70fe 52bd 4486 e1bd 0193 78bc
000001f0: f43c 0dbc 78b6 10bd 3e25 babc cff3 27bd
00000200: e2e0 c3bb 35db 8ebd 96ec 85bd eaee 0dbd
00000210: f1d8 34bd 5c74 d53a 38cb 4bbd 0ab1 32bc
00000220: c1cb 16bd f72d 973d c7c8 993b c219 3dbd
00000230: 798d 13bd 49c6 2dbd 458d 39bd 295f 0cbe
00000240: 18fd 8cbd 72c6 e4bb 613a cabd 62c5 8fbc
00000250: 4937 9b3d 5295 28bd 92be 2abd 4109 96bc
00000260: 61d5 a7bd 4417 bbbd fdd5 2abc a07e ad38
00000270: 5988 60bd b816 80bd 70be f9bc a30e 3ebe
00000280: 0a4b 20bd 35d5 9abd d076 963d b1c8 76bd
00000290: b0ea c53d 1b3a 4ebd e12e 36bb 5e2d b9bd
000002a0: 74f0 d0bd 25e7 9bbd c397 8cbd c355 c1bd
000002b0: b3f5 44bc e697 3fbd 7612 d1bc f858 06bc
000002c0: e5da 46bd 39ba d03d 4a83 52bd 039d 31bd
000002d0: c06e a0bd 0dc5 85bd ec1c b6bd ce26 94bd
000002e0: b6ba 6abd ae71 963a 28f3 453a df3f f73b
000002f0: 737d 80bc 6d51 c6bc fbd3 88bd 760c 26bd
00000300: 2514 d2bb 2bc2 33bd 5298 003e 8a1c 45bd
00000310: fa13 363c a854 82bd ce1a 7b3d fe98 99bc
00000320: 7178 14be bf27 cd3d c55a 5a3c 8ece ebbc
00000330: ce9e 99bd 24e2 1cbd 3c15 163d 6842 3cbd
00000340: 19e7 013a 5a11 99bd 424f c9bb 1bea 0dbe
00000350: c86a 103e 2f58 e3bd 510c 5ebd 8884 37bd
00000360: 7daa 11bd ebd5 4cbb f1bd cfbd 504a 28bc
00000370: 283a 54bd 72dc 7bbd ef9b 49bd c0fb 51bd
00000380: c5fe 96bd 0505 f0bd aa48 ebbd cde3 89bd
00000390: 7a76 86bd ef67 27bc 245a bfbd 3280 5dbd
000003a0: 3165 813c bd66 263d 479e b43c c2a4 ffbc
000003b0: 9ad1 02bd 2ad2 81bd 74be 82bc 7f8e ce3b
000003c0: f052 92bd c949 32bb 3afc d1bc 2bc2 83bd
000003d0: f757 563d 6a5e c63c 809d 34ba 4689 17bc
000003e0: c8a4 fdbd c829 06bd 4ba0 d9bc c249 11bc
000003f0: 2638 ac3d d96f 8ebd 5195 1f3b dd12 53bd

output_layer.weight f4 [2, 300]
0.027501788 0.06659367 0.07571712 0.102503285 -0.09042216 0.009175872 -0.00056375493 0.0407683
0.014312053 -0.024216508 -0.074806884 -0.01699739 0.6376099 -0.0024602818 0.10619602 -0.08897307
0.008972717 0.034900825 -0.099719115 0.04002743 -0.0297058 -0.028502293 0.055279445 -0.019300252
0.027401859 -0.22878908 -0.11924584 -0.044034433 -0.01853795 0.056324366 -0.18325482 -0.020099351
-0.0033436287 0.070151195 0.06515813 0.06405432 -0.029592114 -0.042849593 -0.03967441 0.023885783
-0.03097648 0.044032715 0.01216391 0.06796981 0.0008909191 0.010347663 -0.03753744 0.025187507
-0.0691414 0.19393128 0.028617412 0.12098805 0.19558012 0.011155587 0.034905892 0.0039837873
0.022837061 -0.012775688 0.033091262 0.042562142 0.029061621 -0.057773955 -0.19954923 -0.030706992
-0.02392794 0.003345969 -0.02962385 -0.021406343 -0.014311896 1.0941459 -0.029904367 -0.045768492
-0.04190047 0.0033626202 -0.010659294 -0.046706267 0.13685456 -0.012695328 0.01442028 0.056428496
-0.023555562 -0.017757988 0.050973214 0.016135367 -0.013259917 -0.7602339 -0.020747572 -0.0042984774
0.04381349 0.040122934 0.028489444 0.0074623004 -0.072695844 -0.09216673 0.039041992 0.09456717
0.021033483 0.074572824 -0.016946191 0.07905475 0.0062249256 -0.09719184 -0.014412408 -0.019600112
0.015914164 0.009392289 -0.08632324 -0.010212122 0.006042013 -0.016081572 0.067551926 0.016567484
-0.050863035 -0.010928087 0.0482917 -0.046579644 -0.036002558 0.016004037 0.03474223 -0.015038585
-0.02163893 0.065276176 -0.20174041 0.023656229 -0.011943823 0.012434439 -0.024994927 0.005016702
0.041524325 0.0441431 0.031281456 0.015342603 0.045558155 -0.037613086 0.0740832 0.9495268
-0.07589606 0.07368852 0.052923027 0.19658855 0.17459957 0.022099314 -0.023749968 -0.4728873
0.08292873 0.029109992 0.008512195 -0.060504436 0.07226894 -0.029751338 0.063054614 -0.042886496
0.03764791 0.058290698 -0.01125246 -0.023383008 0.004104999 0.0063005853 0.06725058 0.0001985156
0.021001296 0.024589898 -0.04464446 0.005189221 -0.026090313 0.002593062 -0.042006467 -0.054050192
-0.063805506 0.042525385 0.031795204 0.03771022 -0.052547447 0.011051892 0.016555639 0.06046462
0.038019683 0.07711237 -0.03403229 0.054050393 0.09716685 -0.020798206 -0.031578217 0.04731604
0.11320144 0.032577913 0.085433595 -0.11467929 -0.01142591 -0.05170546 0.034801785 0.02946891
0.0076535353 0.030315433 -0.006790342 -0.020652968 -0.08310713 -0.11840976 -0.056885123 -0.057708308
0.06914551 0.006721192 -0.005435996 -0.017320344 -0.014704363 0.012716113 -0.02802841 0.106313705
-0.018314822 -0.07032764 -0.14362608 0.07759291 0.0048140013 0.00988722 0.0080117015 -0.015746698
0.044246983 0.0027696302 0.035121653 -0.0036197703 -0.028554572 -0.017999591 -0.0030672227 0.22258419
0.040848464 -0.010021242 -0.19194643 0.039503917 0.0048252624 -0.014228787 0.21137495 0.009515932
-0.07104639 0.1372681 -0.041236587 0.011733011 -0.031169284 0.0845686 0.052044287 0.0044117756
-0.020230975 0.09024252 -0.05595135 0.027480833 -0.05555707 -0.31236425 0.10145872 0.017681262
0.028343476 0.028303903 -0.05368469 -0.80864984 0.0010261849 -0.005829025 -0.012347049 0.08868323
00000000: 6e4b e13c 4362 883d 9411 9b3d 3eed d13d
00000010: 412f b9bd 6656 163c f4c8 13ba a9fc 263d
00000020: 1a7d 6a3c b361 c6bc 5a34 99bd 1c3e 8bbc
00000030: 673a 233f ae3c 21bb 4d7d d93d 8337 b6bd
00000040: 4e02 133c 2bf4 0e3d 8939 ccbd cdf3 233d
00000050: 9459 f3bc a47d e9bc b36c 623d 901b 9ebc
00000060: dd79 e03c af47 6abe 2a37 f4bd 735d 34bd
00000070: e6dc 97bc 61b4 663d 27a7 3bbe 65a7 a4bc
00000080: c820 5bbb 6eab 8f3d a071 853d e92e 833d
00000090: 296b f2bc 0e83 2fbd a281 22bd 1eac c33c
000000a0: 63c2 fdbc a65b 343d 234b 473c c133 8b3d
000000b0: 928c 693a 3f89 293c dcc0 19bd 0856 ce3c
000000c0: 029a 8dbd ec95 463e 106f ea3c 95c8 f73d
000000d0: 2846 483e ecc5 363c 7bf9 0e3d 6e8a 823b
000000e0: ca14 bb3c 1f51 51bc b48a 073d a455 2e3d
000000f0: a312 ee3c 62a4 6cbd a256 4cbe 3b8d fbbc
00000100: 8704 c4bc 0b48 5b3b b7ad f2bc 5b5c afbc
00000110: 717c 6abc f90c 8c3f 01fa f4bc be77 3bbd
00000120: d49f 2bbd 685f 5c3b 52a4 2ebc 124f 3fbd
00000130: 9a23 0c3e 1100 50bc 0a43 6c3c 9121 673d
00000140: 98f7 c0bc 3379 91bc 4ac9 503d 512e 843c
00000150: 1f40 59bc b09e 42bf d0f6 a9bc 3eda 8cbb
00000160: c675 333d f257 243d b262 e93c 5086 f43b
00000170: 8fe1 94bd e9c1 bcbd 7fea 1f3d 6fac c13d
00000180: 694e ac3c a3b9 983d bdd2 8abc 75e7 a13d
00000190: 76fa cb3b 840c c7bd 0522 6cbc 6a90 a0bc
000001a0: 6c5e 823c 1ee2 193c 3dca b0bd bf50 27bc
000001b0: 14fc c53b 80bd 83bc aa58 8a3d 88b8 873c
000001c0: c255 50bd b80b 33bc 85cd 453d 4cca 3ebd
000001d0: 6b77 13bd e61a 833c de4d 0e3d 6664 76bc
000001e0: 2044 b1bc 84af 853d 0a95 4ebe b5ca c13c
000001f0: 06b0 43bc d1b9 4b3c 29c2 ccbc 2663 a43b
00000200: 6915 2a3d 65cf 343d fc20 003d 8b5f 7b3c
00000210: 309b 3a3d 2e10 1abd efb8 973d 3014 733f
00000220: 656f 9bbd 02ea 963d d1c5 583d 824e 493e
00000230: 3bca 323e 9f09 b53c 4b8f c2bc 491e f2be
00000240: 8ad6 a93d 1478 ee3c bc76 0b3c 80d3 77bd
00000250: bd01 943d 14b9 f3bc c722 813d c0a9 2fbd
00000260: b234 1a3d 3ac2 6e3d 3d5c 38bc b98d bfbc
00000270: 3a83 863b 2475 ce3b acba 893d a028 5039
00000280: e90a ac3c c170 c93c 1cdd 36bd 570a aa3b
00000290: 5abb d5bc 5cf0 293b f90e 2cbd bc63 5dbd
000002a0: 76ac 82bd 192f 2e3d b03b 023d 0876 1a3d
000002b0: fe3b 57bd ff12 353c b19f 873c c0a9 773d
000002c0: 87ba 1b3d 17ed 9d3d 7165 0bbd f263 5d3d
000002d0: 6aff c63d 0061 aabc 2958 01bd 77ce 413d
000002e0: 28d6 e73d 6b70 053d cff7 ae3d fadc eabd
000002f0: bd33 3bbc 1bc9 53bd 518c 0e3d c968 f13c
00000300: 82ca fa3b 1258 f83c 8481 debb 6a30 a9bc
00000310: 1234 aabd d180 f2bd 6000 69bd 8c5f 6cbd
00000320: 299c 8d3d 723d dc3b 7120 b2bb 65e3 8dbc
00000330: 92ea 70bc 3e57 503c d69b e5bc 00bb d93d
00000340: f708 96bc f007 90bd b712 13be 08e9 9e3d
00000350: c5be 9d3b 02fe 213c 8343 033c 38ff 80bc
00000360: 533c 353d af82 353b b9db 0f3d ab39 6dbb
00000370: 47eb e9bc e173 93bc 7503 49bb 1ced 633e
00000380: b850 273d 2330 24bc 9b8d 44be dcce 213d
00000390: 3c1d 9e3b dc1f 69bc ad72 583e b6e8 1b3c
000003a0: c580 91bd 0290 0c3e b2e7 28bd d13b 403c
000003b0: ba56 ffbc 4d32 ad3d 642c 553d a890 903b
000003c0: 6ebb a5bc 12d1 b83d 3e2d 65bd 7c1f e13c
000003d0: cf8f 63bd 35ee 9fbe 97c9 cf3d 4bd8 903c
000003e0: 9430 e83c 96dd e73c 7ae4 5bbd ad03 4fbf
000003f0: 0d81 863a 6801 bfbb 474b 4abc 8e9f b53d

output_layer.bias f4 [2]
-0.1450493 -0.09054546
00000000: ce87 14be e66f b9bd
