trained_model_with_input_noise_200epochs.pth (torch, 369887 bytes, 6 tensors)

rnn.input2h.weight f4 [300, 2]
00000000: c399 603e 71b3 e03e 1552 46be c742 68bf
00000010: 2a4e 98be 7e52 8c3e 2cd4 e7be dd4e 92be
00000020: 7418 13be c0d9 cc3e 6761 01be 5cfc 7f3e
00000030: 61eb 00bf 6124 4b3f 2d58 103e 953f 55bf
00000040: 2290 d93c 5098 403e 0f0d 06bf a9a6 07bf
00000050: e88e 82bf 7ed3 fd3e b7c3 fe3e 3658 d6be
00000060: 9f4a c2be e730 023f d762 2b3f 132a e33d
00000070: d118 7a3d 09e6 303f d666 60bf 0368 0bbf
00000080: ebf3 2b3f 8706 9b3e da9e b13e de80 a5be
00000090: 5000 763d a05c 01bf 4d83 573e fd36 23bf
000000a0: 6c09 823f c9f3 abbe 4fd3 dbbe 1768 4bbf
000000b0: 4798 5fbe 29eb 69be fa89 59bf f96b dcbd
000000c0: 5d57 1ebe 893f dfbd 5e6e b63e cf45 6dbf
000000d0: 3536 eb3d 0748 89be 2aef 73be d0a1 f03d
000000e0: 2d52 3f3f aecd c33e 870e 32bc 4d7e f23e
000000f0: 8805 15bf fd96 f23e ed1a cbbe e133 ddbd
00000100: 6c21 1fbf 4469 9bbe f975 64bf e7a0 0b3f
00000110: 802f d5be b1b4 7bbf 5075 793d fcee 37be
00000120: 5c13 22bf 4e9a ed3e 9e3b 24bf c74f 54bf
00000130: 6b67 0abf 4df9 6e3f 9657 893f 9d94 4c3f
00000140: a96e fc3e 0b27 c2be 7b8b a2be e1d2 843e
00000150: 88cd 8dbf 24bd 7d3e fb93 8fbf 49c2 853b
00000160: db36 293e 93e8 533d 88d1 f7bd 805a f0bb
00000170: f7cf 2ebf 32ed a6bf 6b48 c73e 7db5 413e
00000180: 33f4 a1be 199c 08bf 6b97 1c3f 468b e3be
00000190: 0749 9d3d 2fe4 2ebf 22cb edbd 9f76 1ebf
000001a0: fcda 1abf 315d 14be 8043 a1be 60e1 ad3d
000001b0: c3a7 a3be 844f 9b3d bd0f 12be eb64 4fbe
000001c0: 51c9 46be 9939 473e 1d54 173e fae1 823f
000001d0: 8337 233f f042 28bd 0f7d 3bbe 651c 713e
000001e0: 4aff 62bf aa36 60bf ad7d 45bd aa21 afbe
000001f0: d947 4e3c 8fc8 6e3f e500 a2be 604e 8f3d
00000200: 808b 4d3d 627f 883e ff3b c53e ca16 28bf
00000210: 6ec8 d9be 316a 14bf 16ab ae3e e4fb 3bbb
00000220: 4c0b 5abf 9017 3e3f 0012 ffbc 78e3 07be
00000230: a177 583e 12da 96be 22ca a03c 7a17 f8be
00000240: caf5 883e 207f acbc 4e73 84be e250 dd3e
00000250: 5cdf 823e e83b 283e b665 c53e 681b 873e
00000260: b506 293f 7e65 1e3f 182d 9a3d 427a a63e
00000270: 5c92 72bf 0e55 2c3f ac21 a83e 6bc3 51bf
00000280: 402e f63e 985a 203f f46f 903e e815 57be
00000290: 87ab 843f 1b9a 0c3f c240 12be 368a 913f
000002a0: 6d51 1bbe 2608 56be ce4d 153f d9fb fabc
000002b0: 1614 c23c a808 ebbe 26ca 1b3f 7bb8 f8bd
000002c0: 23a4 19bf bdaf e2be 9d61 42bf e95e 733f
000002d0: 20cd cdbe 4eba 88bf 3632 fa3e b5b0 423d
000002e0: 9e84 19bf 4267 7e3e d3fb 513f 8b05 9dbe
000002f0: a0e7 083f c838 db3e 7061 4bbe 0d00 e03e
00000300: 8611 a33e 40a4 10bd d975 1fbf 8bbd 643f
00000310: d7d9 653f 2e1a 1bbf 92f0 133f 79d7 8c3e
00000320: bb61 f73e 3f48 193f 0339 a8be e8a2 393e
00000330: c14a c0be 28ed 433e 7f78 7c3f 9e3e b7be
00000340: ed01 62bf ecc3 643f 65bc 1d3e 9f62 fabd
00000350: 566a 5cbe 46a6 693f 92aa 51be 87cf 3ebf
00000360: e28a 4f3f 4ab3 18bf 98f2 e6be 06b3 723f
00000370: f7f4 4e3f 91e9 013f c9f4 43bd 1255 f9bd
00000380: c567 43bd cdcb b73b 3fa5 003f 1c33 29bf
00000390: f464 d5be 7034 96bd df89 87be 9479 c23e
000003a0: a0d8 4fbd 4751 cbbe d39a d6be 9bd6 f1be
000003b0: 4982 013f aa31 39bf 0a21 1f3f 0ac4 fc3e
000003c0: f9c9 b33e 6f85 d2be a28e 15bd ad93 303e
000003d0: a7e0 853b 3661 033e 1127 103f c32d 75bf
000003e0: 0ae3 473f 2a8a 35bf 73c7 0a3e e798 cc3e
000003f0: 4453 f13e 13e4 19bf f70a a13e 4f50 bf3d
0.21933655 0.43886903 -0.1936725 -0.90726894 -0.29747134 0.27406687 -0.45279062 -0.28575793
-0.14364797 0.4000988 -0.12634812 0.24998611 -0.5035916 0.79352385 0.14096136 -0.83300143
0.026557986 0.18808103 -0.52363676 -0.5298868 -1.0199862 0.49575418 0.49758694 -0.41864175
-0.37947556 0.5085587 0.6694769 0.110920094 0.061058823 0.69101006 -0.87656915 -0.54455584
0.67169064 0.30278417 0.34691507 -0.3232488 0.06005889 -0.5053196 0.21046181 -0.6375578
1.0159125 -0.3358443 -0.42934653 -0.79455703 -0.21835433 -0.22843613 -0.8497616 -0.10762782
-0.15463014 -0.1090079 0.35631078 -0.92684644 0.114849485 -0.26812765 -0.23821703 0.11749613
0.74734765 0.3824286 -0.010867721 0.47361985 -0.58211565 0.4738082 -0.3966898 -0.10800911
-0.6216037 -0.3035375 -0.8924251 0.5454239 -0.41637802 -0.9832259 0.060902894 -0.17962259
-0.6331079 0.46406788 -0.6415347 -0.8293423 -0.54064053 0.9334915 1.0729854 0.79914266
0.49303177 -0.37920412 -0.3174704 0.25942138 -1.1078348 0.24779183 -1.1217035 0.0040819985
0.16524832 0.051735472 -0.12100512 -0.007335007 -0.6828608 -1.3041136 0.38922438 0.18916889
-0.31631622 -0.53363186 0.61168545 -0.44442195 0.076799445 -0.6831693 -0.1161101 -0.6189975
-0.60490394 -0.14488675 -0.3149681 0.084902525 -0.3196393 0.07583526 -0.14263816 -0.20253341
-0.19412734 0.19455566 0.1477818 1.0225213 0.6375658 -0.04107946 -0.18309425 0.23545988
-0.8867079 -0.8758341 -0.048215557 -0.3420537 0.012590372 0.9327478 -0.31641307 0.06997371
0.050181866 0.26659685 0.38522336 -0.65659773 -0.42535728 -0.57974535 0.34114903 -0.0028684074
-0.8517349 0.74254704 -0.031136513 -0.13270366 0.21139385 -0.2946325 0.019627634 -0.4845541
0.26750022 -0.021056712 -0.2586922 0.4322577 0.25561035 0.16429102 0.38554162 0.26388097
0.6602586 0.61873615 0.07528132 0.3251515 -0.94754577 0.67317283 0.3283819 -0.8193881
0.4808216 0.62638235 0.28210413 -0.2100445 1.0364846 0.54922646 -0.14282516 1.1370304
-0.1516778 -0.20901546 0.58321846 -0.030637668 0.023691218 -0.45905042 0.6085533 -0.12144562
-0.6001608 -0.44274703 -0.75930196 0.95066696 -0.4019556 -1.0681856 0.48866433 0.047531802
-0.5996798 0.24844077 0.8202488 -0.3066829 0.5347843 0.42816758 -0.19861388 0.4375004
0.31849307 -0.03531289 -0.62289196 0.8935172 0.8978552 -0.6058682 0.57788956 0.27508143
0.4831675 0.59875864 -0.32855996 0.1812855 -0.37557033 0.19133437 0.9862136 -0.3578996
-0.8828419 0.89361453 0.15403898 -0.12225842 -0.21524939 0.9126934 -0.20475224 -0.7453541
0.81071293 -0.59648573 -0.4510696 0.9480442 0.80842537 0.5074702 -0.047840867 -0.12174429
-0.047706384 0.0056090117 0.50252146 -0.6609361 -0.41678584 -0.073342204 -0.26472375 0.37983382
-0.0507437 -0.39710447 -0.41914997 -0.47234043 0.50589424 -0.72341406 0.6215979 0.49368316
0.3511503 -0.41117427 -0.03651298 0.17243834 0.0040856185 0.12830052 0.5630961 -0.9577295
0.7808081 -0.70913947 0.13552646 0.39960405 0.4713384 -0.6011364 0.31453678 0.093414895

rnn.input2h.bias f4 [300]
00000000: 805d f63e 9553 963c 1c8c 4e3e 0fd7 79be
00000010: a6ff c33d 56c5 533e 5f00 b3bc f4c1 e93c
00000020: 8a19 273f 2b89 d43e 61b3 253e 9009 ce3d
00000030: 5687 f33e c238 103d e220 893e bbe5 1bbe
00000040: 61cc 30bb 088e 2cbf e4bd 24bf b043 803d
00000050: 262a 0e3e 5228 e73d fc79 443d 135a a9bd
00000060: c35c 3bbe 8fca 84be ea8a 4b3e 2130 2abf
00000070: fd60 2dbd 8c9e ab3e 6f9c 143f cf18 663d
00000080: ccca d33d a9c6 cfbe 0567 1e3e 14d2 0fbf
00000090: 91a6 bb3e 35b5 683e d0b0 ac3c 025e babe
000000a0: ae87 0b3f 553e 933e f5ae 043e a9db 81be
000000b0: fd99 be3e fe8e 6fbe 2e9b 153f 0516 c93e
000000c0: 1916 153f 730c 1c3d d516 a63d bc2c b93e
000000d0: 6fa0 e73e 4d20 2abf e315 a23e 40b4 c53d
000000e0: 301c 513e e853 30be 36cd 2dbf 0366 0d3e
000000f0: 800b 58be 98be 273e 7ba1 e83e b74f 2fbf
00000100: ea00 e8be 41bb 963e 315d 80be a73e 683e
00000110: d9c6 05bd fcc1 21bf 35eb 413d 60a5 d23e
00000120: 1cc8 0fbf e1ea 0bbf 9fba ccbe 049e 2d3e
00000130: b096 9dbd 003a 03bf e657 00be 431d d33d
00000140: df61 fc3e 5cdb 013f 876a 03be 8314 d9bd
00000150: 699a ae3d e1e1 e43d 29a2 833e fdc3 8b3d
00000160: 2cae 9e3d 8ff1 e93d 0fe2 8bbd 49ef 9bbd
00000170: 14a4 5ebe aa8c 193e a384 893e f2d6 d03e
00000180: 0852 2abf 56ab e4bd 5807 42be 1bad 873e
00000190: ff82 93bd 3667 4d3e 44aa b23e 496a 8d3e
000001a0: d454 eebd decb b73e 67fc 4a3e e663 f9bd
000001b0: e6c7 73bd 8ec3 18be fd2c 9e3e 4efb 21be
000001c0: 7dfc 573e 4ab8 cf3c 7492 c83e e131 df3c
000001d0: 8308 cdbe f7c8 8c3e 4253 98be fa03 383e
000001e0: 9e97 16be b0dd 1e3e f498 953e 3498 c1be
000001f0: d155 46bd 7857 df3e 0e0d 79be 86f2 e03e
00000200: c1c6 063e c838 9c3e f802 103f c837 6fbe
00000210: b40f f33e 33e8 713e 4778 6b3e 0ae9 86bd
00000220: 4ac1 51be f2ec 243f 1c45 403d e371 25be
00000230: 9374 87be 21f8 153f c9be 513d 6509 133f
00000240: 4a0a cb3b 04e2 da3e f93b 113e 7d5d 3bbe
00000250: 09fd ae3c 6f6b 2b3e 2778 96bd 3f53 813e
00000260: 6ec8 103e ceaa d8bc 55ad 17bf c6c1 2cbf
00000270: 0dad 973d c1c1 eebd d28b 213f 19f9 6fbe
00000280: 4b50 6b3d 3efa f83c 0c99 eb3e 9dd5 eabd
00000290: 1182 11be 6b24 9fbc d798 ee3c cb36 a53c
000002a0: 36e5 2ebe f8f7 cebd dad2 5fbe fec7 f63e
000002b0: f89f c83d 749d b53d 8951 1f3e 1c6a 82be
000002c0: ca87 8fbd cc93 5a3e a7cc 073f a7b6 abbe
000002d0: 1edd d8be 7eaf 32bf a8bd eb3e 763e 293e
000002e0: cc64 18bc 86e0 a43e a551 6f3e c077 15be
000002f0: 280b 923b 8420 553e 8ee8 973d cbae 4d3d
00000300: a086 c9bd fb71 1bbf 4bb7 d23d f4af 4f3e
00000310: e4a8 553e 7da3 68be 44f8 a23d 658c 17bf
00000320: e906 c13e a122 bf3a 563e 653e f88d 013e
00000330: f9ae e33e 2772 e3bc c15a 97bc f2c8 5f3e
00000340: c1fc 02bf bcba 103f 9d6b e7be 6b00 94bc
00000350: 3845 f83d 2f93 82be 2d92 2f3e d12f da3c
00000360: 56e8 35be 63c3 d7ba 2cdd dbbe 3c9e 353e
00000370: bb67 2c3e 839e 59be cc02 803e 694d ce3c
00000380: bac4 823e 488d 483d 824d 543c 5391 c1be
00000390: fd07 8d3e e349 80bb 05f9 9d3e 0a04 3cbe
000003a0: e161 d2be 1d50 31bf 7aaa 213f c902 083f
000003b0: acfe c1be b737 45be 81c1 663e ce86 983e
000003c0: 218a 49bd f511 fa3d b1d7 0c3e 861a d03e
000003d0: f182 c3be 9f6e 98be 00a8 493e 2d2f a7bd
000003e0: 00c9 fb3d f4c7 913d 2136 ce3d 6a14 933e
000003f0: b9a2 073f 86a8 99be 9cc7 de3e 6ca2 c93c
0.4811821 0.018350402 0.20170635 -0.24398445 0.095702454 0.20680746 -0.021850763 0.028534867
0.65273345 0.415109 0.16181709 0.10060418 0.4756419 0.03521038 0.267829 -0.15224354
-0.0026977288 -0.6740422 -0.6435225 0.0626291 0.13883266 0.11286987 0.047967896 -0.082691334
-0.18297105 -0.2593579 0.1987721 -0.6647969 -0.042328823 0.335194 0.580512 0.056176003
0.10341415 -0.40581253 0.15468986 -0.5617993 0.36650518 0.22725375 0.021080405 -0.36399847
0.54503906 0.28758493 0.12957366 -0.253629 0.3722686 -0.23394391 0.5843991 0.39274612
0.58236843 0.03809781 0.081098236 0.36166942 0.4523959 -0.6645554 0.31657323 0.096535206
0.20420909 -0.17219508 -0.6789125 0.13808446 -0.21098137 0.163813 0.454357 -0.6848101
-0.45313197 0.29439738 -0.250711 0.2268015 -0.03266034 -0.6318662 0.04734345 0.41141796
-0.5616472 -0.5465527 -0.3998613 0.1695481 -0.07694757 -0.51260376 -0.1253353 0.103083156
0.4929342 0.5072534 -0.12833606 -0.105996154 0.08525545 0.111758955 0.25709656 0.06824491
0.077480644 0.11423027 -0.06830227 -0.076139994 -0.21742278 0.14995065 0.26859006 0.4078899
-0.6653142 -0.11165492 -0.18948114 0.26499256 -0.0720272 0.20058903 0.34895527 0.27620152
-0.116372734 0.35897726 0.19822846 -0.12177257 -0.05951681 -0.14918348 0.30893698 -0.15818521
0.2109241 0.02535643 0.39174235 0.027245464 -0.40045556 0.27497074 -0.2975102 0.17970267
-0.14706275 0.15514255 0.29218256 -0.37811434 -0.048421685 0.4362142 -0.24321386 0.4393503
0.13161756 0.3051207 0.5625453 -0.23361123 0.47472918 0.23623733 0.22995101 -0.065874174
-0.2048389 0.6442405 0.046940908 -0.16156726 -0.26456127 0.5858174 0.051207338 0.5743621
0.006196295 0.4275056 0.14183034 -0.18297382 0.021360891 0.16740201 -0.07347136 0.25258824
0.14138958 -0.026448634 -0.5924886 -0.67483175 0.07406054 -0.116580494 0.63103974 -0.23434867
0.05744962 0.030392762 0.46015203 -0.11466525 -0.14209773 -0.019426545 0.029125614 0.020167729
-0.17079625 -0.1010589 -0.21857777 0.48199457 0.097961366 0.088679224 0.15558447 -0.2547158
-0.070083216 0.21345443 0.5304665 -0.3353779 -0.423562 -0.6979903 0.46043134 0.16527733
-0.009301376 0.32202548 0.23370989 -0.14596462 0.0044568963 0.20813185 0.07417403 0.050215524
-0.09840131 -0.60720795 0.102888666 0.20281965 0.20865208 -0.22718616 0.07957509 -0.591986
0.37700585 0.0014582464 0.2238706 0.12651813 0.4446943 -0.027764393 -0.018475892 0.21853998
-0.5116692 0.56534934 -0.4519929 -0.018066606 0.121225774 -0.25502917 0.17145605 0.026634129
-0.1776441 -0.0016461428 -0.42942178 0.17736143 0.16836445 -0.21251874 0.25002134 0.025183396
0.25540715 0.04896286 0.012957932 -0.37806186 0.27545157 -0.003915058 0.3085405 -0.18360916
-0.410903 -0.6926287 0.6315075 0.5312925 -0.37889612 -0.19259535 0.22534753 0.29790348
-0.049203996 0.12210456 0.13754155 0.40645236 -0.38185838 -0.29771897 0.19692993 -0.08163295
0.12294197 0.07118216 0.10068918 0.28726512 0.5298267 -0.30011386 0.43511665 0.024613582

rnn.h2h.weight f4 [300, 300]
00000000: 5c9c 78be 56c2 49be 56f1 d6bd 28e8 6abd
00000010: d213 9abd cc8f 98bd 5985 bf3d c487 12be
00000020: 4a4d 49be 3699 2abe c2c8 febc 65eb febd
00000030: 3ffa 1fbe d402 04be 5654 42be 4edf 20be
00000040: e22a 56be ccb0 323d 4750 00bd 9bcf 4aba
00000050: 4678 dabc 9e6c 03be ec8d cebd d111 63bd
00000060: 4bd6 0dbc d3de 0abe d94f 8abd a46d c43c
00000070: ebb9 843c 0be1 ffbd 3304 d6bd 2732 19be
00000080: af25 29be 6a64 c5ba 55bd 5dbe 9c46 52bc
00000090: 58b3 3ebe 9dca 45be 9332 ae3d aec9 0c3e
000000a0: 7855 83bd 8499 b0bd 0dea cdbd b9ab ffbd
000000b0: fdd0 c8bd 48a9 b23c c784 bebd 6a11 acbd
000000c0: f837 25be 98bc f5bd fb47 46bd 8e54 f0bd
000000d0: 2298 acbd 90c1 623d c211 23be 0451 0dbd
000000e0: 17a4 23be 67e5 ed3d 504c 9bbc d27b 23be
000000f0: 243f 41be 4322 b2bd b49f 9abd 926d 163d
00000100: 1068 88bb d767 e5bd 07a6 4cbe 9d15 48be
00000110: 6103 573d 3a29 3cbd ed54 7bbc 4a56 abbd
00000120: 3c19 21bd c8e3 a0bc b022 d53c a03b debd
00000130: 3fe7 e6bd aa86 32bd 1c43 61bd a948 5abe
00000140: 0460 10be 1288 1ebc 046e d83c ace3 653e
00000150: 9a8c e7bd ea17 94bc 134c 0cbd cdcd a8bd
00000160: 646b 9dbd 6c2a b93c 1dc4 7ebe 3e07 d7bd
00000170: 5d2d 1fbe 2f22 63bd f3e0 4cbe b0b0 bfbd
00000180: 2ef3 87bc 97e8 ba3d 81c7 75bd cf18 0ebe
00000190: 78f6 48be f7d4 ccbd 367d 0abe 972f 84bd
000001a0: bcf7 18bd 5800 03be 5fc3 e9bd c75a 0fbe
000001b0: 4e1c 8dbc d591 523e 9a8b 17be 9b14 babb
000001c0: 1bbf b3bd 7259 79bd a96c cebd dce3 b2bd
000001d0: 55ca 4abd 1588 49be b00a 18be 807e c0bd
000001e0: bdf4 4fbc 8e37 a1bd 8317 3abe 373e 93bd
000001f0: fca2 5dbd c0e6 3cbe 0e3d 2cbe ffe9 ffbd
00000200: b1d2 fabd fd90 a2bd 4bdb 36be 52c3 3ebe
00000210: 123e ddbd 8d40 b6bd 2019 9dbd 4281 2dbe
00000220: 640a 99be 007b 46bd 9689 2cbe ab39 38be
00000230: 75e5 a0bd b436 46be 0c29 12be c3d4 6cbd
00000240: 9a25 483c b372 bbbd 65a2 50be bb59 013d
00000250: 5d75 d2bd a0d3 ecbd 1559 17be 82db 2abe
00000260: bd00 74be 782d 9bbe 72a9 16bd 2ac5 393d
00000270: 7f50 13be 4e55 f2bd 3abf 5c3c fc5f bbbd
00000280: c78f 1d3e 2f34 92bd 6315 fbbd f953 073b
00000290: ad4f ee3d 324b 55bb 413b 89be b99e 49be
000002a0: 3164 92be 7a97 00bd 44ca 97bd dcff 2dbe
000002b0: 14a9 05be 6a9b ebbd e248 2dbe 2b5f e23d
000002c0: 1bc5 44be f995 d3bd e2e0 35be 83d9 2ebe
000002d0: fe4f bdbc 4828 703c 13bb aebd 0318 cbbd
000002e0: 6fa8 8dbd af9d a9bd 6c9a b3bd 0ebc 93bd
000002f0: 778d e9bd aeb4 34be 830d 0a3e b369 5cbe
00000300: 5a90 3dbe 552f fdbc afd4 35bc 433a 3bbe
00000310: f4a0 2b3c a8d5 31be 6d2b 52be 8c11 2bbd
00000320: 056e 52be 422f 2abe 52a2 64bc b914 5ebd
00000330: 0559 aabd 8b57 92bd 1ea2 a6bd df0b 2e3c
00000340: 18e2 b6bb 01c8 16be f410 62bd 86b8 2ebd
00000350: a2d6 963d f579 9a3d 8ab5 90bd 92e1 53be
00000360: c5ef a53e 12b3 83bd 9ef8 cdbe 77ad 9bbd
00000370: bb7b 37be 8510 c43c ba20 5ebe ea49 c03d
00000380: 460c a8bd 4f1c b3bd bf04 3fbe 6c93 3dbc
00000390: 7de5 debd 877c 133d 229c 1ebe f516 6ebb
000003a0: bb1c e8bd 8028 adbb d32a 12be e656 f4bd
000003b0: ccd8 5abc 4edb eebd b104 b0bd aae6 03be
000003c0: 0f14 3fbe 3f66 173d 42c0 003e bf90 0bbe
000003d0: 9b3e 49bc a741 b3bd d021 48be fcbe 3cbe
000003e0: 9a07 33be d2fe 3dbd b930 50be 0df7 aabd
000003f0: de9c 1bbe c89c e13c d19f 41be 4418 1cbe
-0.24278396 -0.1970304 -0.1049525 -0.057350308 -0.07523312 -0.07449302 0.09351606 -0.14309603
-0.1965839 -0.16660008 -0.031101588 -0.12447242 -0.15622805 -0.12891704 -0.18977484 -0.15710184
-0.20914796 0.043625638 -0.03132656 -0.0007736624 -0.026668679 -0.12834403 -0.10085663 -0.055436913
-0.008657048 -0.13561563 -0.06753511 0.023978062 0.016201934 -0.124940954 -0.1045002 -0.14960538
-0.16518281 -0.0015059833 -0.21654256 -0.012834217 -0.18623102 -0.19315572 0.0850574 0.1374881
-0.06412786 -0.08623031 -0.10054407 -0.12483925 -0.09805486 0.021809235 -0.09302669 -0.08401759
-0.16134632 -0.11998862 -0.04840849 -0.117348775 -0.084274545 0.055360377 -0.15924743 -0.03450109
-0.15980564 0.11616021 -0.018957287 -0.15965202 -0.18871742 -0.08697941 -0.07549992 0.03672559
-0.004162796 -0.112014465 -0.1998521 -0.19539495 0.052493457 -0.045937754 -0.015340072 -0.08366068
-0.039330706 -0.019639865 0.026017517 -0.10851216 -0.112745754 -0.043585457 -0.05499564 -0.2131678
-0.14099127 -0.009675996 0.026419647 0.22450131 -0.113061145 -0.01807781 -0.034252238 -0.082423784
-0.07686499 0.022603236 -0.24879499 -0.10499428 -0.15544648 -0.055452522 -0.20007686 -0.09359872
-0.01659545 0.09126394 -0.060004715 -0.13876651 -0.1962527 -0.10001557 -0.13524327 -0.064543895
-0.037345633 -0.127931 -0.11414217 -0.13999473 -0.01722541 0.20563443 -0.14799348 -0.005678726
-0.08776685 -0.060876317 -0.10079319 -0.08734867 -0.049509365 -0.19680817 -0.14847827 -0.09399128
-0.0126926275 -0.07871924 -0.18173032 -0.07189601 -0.054110512 -0.18447399 -0.16820166 -0.12495803
-0.122472174 -0.079378106 -0.17857091 -0.18629196 -0.108028546 -0.08899031 -0.07670808 -0.16943839
-0.2989074 -0.048457146 -0.1684936 -0.17990749 -0.078562655 -0.19356805 -0.1427347 -0.057820093
0.012215996 -0.091527365 -0.20374449 0.031579714 -0.102762915 -0.11563802 -0.14780076 -0.16685298
-0.23828407 -0.30308127 -0.03678269 0.045354046 -0.14386176 -0.11832677 0.013473326 -0.09149167
0.15386878 -0.071388595 -0.122599386 0.0020649417 0.11636291 -0.003254604 -0.2680302 -0.19689454
-0.28592065 -0.03139446 -0.07411626 -0.16992134 -0.1305278 -0.11504252 -0.16922334 0.11053308
-0.19215815 -0.103313394 -0.17761567 -0.17075162 -0.023109432 0.014658041 -0.08531775 -0.09916689
-0.06916892 -0.08282029 -0.08769688 -0.07213603 -0.114039354 -0.17647049 0.13481717 -0.21524696
-0.18512097 -0.030906359 -0.011098071 -0.18283944 0.010475386 -0.1736666 -0.20524378 -0.04176478
-0.20549782 -0.1661959 -0.013954716 -0.05421898 -0.083177604 -0.07145604 -0.0813639 0.0106229475
-0.0055811517 -0.14724733 -0.05519195 -0.042656444 0.07365157 0.07542793 -0.07065876 -0.20691517
0.32409492 -0.06430639 -0.40228742 -0.07601445 -0.17918293 0.023933658 -0.21692172 0.09389098
-0.08205466 -0.08745634 -0.18654154 -0.011570793 -0.10883615 0.03600743 -0.15489247 -0.0036329601
-0.11333605 -0.005284369 -0.14274149 -0.11930637 -0.013357352 -0.11662923 -0.08594645 -0.1288096
-0.18659995 0.036962744 0.1257334 -0.13629435 -0.012282993 -0.087527566 -0.19544148 -0.1843223
-0.17483369 -0.046385594 -0.20331086 -0.083479024 -0.15196559 0.02754058 -0.18908621 -0.15243632

rnn.h2h.bias f4 [300]
00000000: 1eac 16be 4173 3b3e f353 a0be 5226 89bd
00000010: d32c 003d bf64 e23c ef43 833e 3df2 303d
00000020: 6100 c9bc e6f0 f6bc 6b89 a73e b63d 2cbd
00000030: 2d00 55be 3e54 16bd e1e0 e6bd 2921 a53e
00000040: 48a7 c9bd e89e 2bbc 846b ee3c a514 2b3d
00000050: 038f 8b3e 4904 013e 9157 eabd 6b1d b7bc
00000060: 0ef1 00bd df41 853e 848f 43bd 28d0 cfbc
00000070: 1eb3 993e 9762 38be 1964 e2bd fb5d 4f3d
00000080: eaf1 95bd 3c43 fd3d d784 633e 4bee 2cbd
00000090: 122d 13be 2cac 51bd e895 633e 7a05 a93e
000000a0: fd14 2cbe e28d 03be 3d0f 453e 95b6 cf3e
000000b0: 5fa2 48be 72ac 85bc ef89 8d3b 4fc9 c4bd
000000c0: e811 5cbc 5fca 523e a117 a5bd c5da bcb8
000000d0: 678f 0abe f44f 20bd 7dee ccbd 2a06 82be
000000e0: d790 5a3d c01d 7d3e 4011 d53b 340b bebd
000000f0: d732 803e e995 b5be 8e6f b4bd 2cf2 ec3c
00000100: cc4d fb3c 37fc 89be f84e 9c3c 7b39 dabe
00000110: 6b17 953e 8bcd edbc c048 543e 0dd7 64be
00000120: 623e 45bd 0eb6 d0bc 6069 fcbb cab0 703d
00000130: ea33 b73d 90b3 253b a7a7 8d3e 82af 743e
00000140: 554e 3e3c 375d 19be 9ba2 473e a8b5 ce3e
00000150: df1d eb3d 928a cf3e f977 2bbe 8d68 a6bd
00000160: 99e5 4c3e d9ac 3c3e 3a6d a13e f02a e63c
00000170: 9a0f 24be 72c4 203e 50f0 0cbe d4e9 00be
00000180: 9852 423c f3e6 863e bcef a43e 75d3 89bd
00000190: 5bfa 2ebc 73e8 39bd 2ff4 46be 6785 1dbd
000001a0: 1651 873d 44c3 23be 7553 34be 33ec fb3c
000001b0: db16 633e fd00 9a3e 13b4 8abc 1e20 9d3c
000001c0: e473 9bbe 1569 ab3e 1628 d63c 3b0a 2ebe
000001d0: c28a 06bd 1996 58be ee2d 1bbc 889e 553e
000001e0: 7626 3ebe 0a81 1bbe 022e 2fbe 125a 8e3e
000001f0: 204a 8f3e 387e 0cbd 4e39 96be 1e40 14be
00000200: 657d 58be c601 d0be 17c2 afbd 839c 62bd
00000210: 964e dbbd c4cd dabe 67c4 11be eb2e 5a3e
00000220: ad81 aa3e 7a70 3abd adc6 733e 6381 833e
00000230: 61b1 4c3e 9b5e e03c b2ac cd3d 230b a53c
00000240: 8b5e 303e 1fa1 dabd 08b9 7fbd bdb1 693e
00000250: d08e 1a3e 99b5 26bd ffbc 92bd e914 783b
00000260: 72b6 623e b80d d1bd e8e6 1cbd fa49 2dbd
00000270: 3ff5 9cbd 81b2 d03d ab6e cf3c 1b9f c33e
00000280: a9f4 963e 33eb c53d 23cc 2ebe 13f5 6fbd
00000290: cb4e b73e 42a7 4e3e 54e7 533e e2ba aabd
000002a0: b4f2 04be a579 9c3e 7608 dd3c 1498 94bd
000002b0: 2b09 403e af49 23bd ebde 183d 586c 9c3e
000002c0: b37e 4a3e 0602 77be 9c36 89bd 2b66 953e
000002d0: e2e6 07bd 0022 c13b 2375 02be a399 94bd
000002e0: aba0 1abd 7e43 10be 67b0 f13c a03e 9d3e
000002f0: 210d b7bc 262a 0ebe 744c ae3e 99b4 57be
00000300: faa0 19be 1cd3 4e3d 21cc 84bd a498 e1be
00000310: 06e3 6b3c 3965 50bd 15e3 053e 6afd 3ebd
00000320: fa8c b1bd 67d9 37bd ca35 06bc fcff 4fbe
00000330: b305 01be d637 853d d459 993e 6cad 183e
00000340: b4eb 1dbc e642 66bd a4fb 593d d1ea 1fbe
00000350: 6da5 4f3e 89d4 c13e b82c e9bd 8ac9 233e
00000360: 0153 da3e 481f 023e 6261 e1bd 39c5 f33d
00000370: b79c 43be 79d7 c03e c192 063d fc2c 8a3e
00000380: 5008 92bc 8c75 fe3d 0424 a5bd 3e9f 15bd
00000390: dca6 21be 3a9a a1bd 599e 3cbe d09e ce3d
000003a0: 9767 593e 1c60 953c db22 77bd a2b6 68be
000003b0: 74cf 643d 05f5 54be c67f c6bc 9871 453d
000003c0: 3702 1dbd d67e c53e 4c99 933e 2e2b a6bc
000003d0: 7986 a7bc 33e2 79bd 96c8 d0bd cff3 84be
000003e0: 772b 43be 38ee 0abb 136b 90bd 19c8 0ebe
000003f0: 8372 3abd d505 533c 7db9 7ebe bc0d 933e
-0.14714095 0.18305685 -0.31314048 -0.06696762 0.031292748 0.02763593 0.25637767 0.043199766
-0.024536313 -0.030144166 0.3272203 -0.04205104 -0.20800848 -0.036701433 -0.11273361 0.32251862
-0.098463595 -0.010474898 0.029104002 0.041767735 0.27257547 0.12599291 -0.11442483 -0.022352895
-0.031479888 0.26026818 -0.04774429 -0.025367811 0.30019468 -0.18006359 -0.11054248 0.050626736
-0.07321532 0.123663396 0.22218643 -0.04221944 -0.14372662 -0.051189587 0.22225153 0.3301199
-0.16804881 -0.12847093 0.19244094 0.40568987 -0.1959319 -0.01631758 0.0043194215 -0.09608709
-0.013432004 0.20585011 -0.080611475 -9.0052876e-05 -0.13531266 -0.03913875 -0.100064255 -0.25395328
0.053360786 0.2471838 0.0065023005 -0.092794806 0.25038788 -0.35465935 -0.0881034 0.02892407
0.030676745 -0.26950237 0.019080624 -0.4262198 0.2911943 -0.029028675 0.20730877 -0.2234766
-0.048155196 -0.025477435 -0.0077029914 0.05876235 0.08945449 0.002528403 0.2766697 0.23895076
0.0116153555 -0.14976965 0.19495623 0.40372968 0.11480307 0.40535408 -0.16744985 -0.0812541
0.2000946 0.18425311 0.31528646 0.028096646 -0.16021577 0.15699938 -0.13763547 -0.12589198
0.011860512 0.26348075 0.32214153 -0.06729785 -0.010679807 -0.045387696 -0.19429086 -0.0384573
0.06607263 -0.15992457 -0.17609961 0.030752277 0.22176687 0.3007888 -0.01693157 0.019180354
-0.30361855 0.3347861 0.026142161 -0.1699609 -0.032847174 -0.21151008 -0.0094714 0.20861256
-0.18569359 -0.15185943 -0.17107394 0.27803093 0.2798624 -0.03430006 -0.29340595 -0.14477584
-0.21141584 -0.40626353 -0.085819416 -0.055325042 -0.107083485 -0.42735112 -0.14235078 0.2130696
0.3330206 -0.045517422 0.23806258 0.25684652 0.1998954 0.027388861 0.10042705 0.020146912
0.17223565 -0.10675263 -0.06243232 0.22821708 0.15093541 -0.04070053 -0.071649544 0.003785426
0.2213991 -0.10207695 -0.038306147 -0.042306878 -0.076639645 0.10190297 0.025321325 0.38207325
0.29483536 0.09664001 -0.1707006 -0.05858333 0.35802302 0.20180991 0.20693713 -0.08336426
-0.12983209 0.30561557 0.026981574 -0.07255569 0.18753497 -0.039865192 0.037321966 0.3055141
0.19774894 -0.24121866 -0.06699869 0.2917951 -0.03317917 0.0058939457 -0.12739997 -0.072558664
-0.03775088 -0.14088246 0.02950306 0.30711842 -0.022345128 -0.13883266 0.34042704 -0.21064986
-0.15002814 0.0504943 -0.06484247 -0.44061768 0.014397388 -0.050877783 0.13074906 -0.046628393
-0.08669467 -0.044885065 -0.008191535 -0.20312494 -0.1259983 0.065047905 0.29951346 0.14909905
-0.009638716 -0.056216143 0.0532185 -0.15616919 0.20277949 0.37857464 -0.113854825 0.1599485
0.42641452 0.12707245 -0.110049024 0.119028516 -0.1910275 0.37664393 0.0328548 0.26987445
-0.01782623 0.12424764 -0.0806351 -0.03652882 -0.15786308 -0.078907445 -0.1841978 0.10088885
0.21230923 0.018234305 -0.060335975 -0.22725919 0.055861905 -0.20796593 -0.024230849 0.048204035
-0.03833219 0.3857333 0.28827894 -0.020284262 -0.020449864 -0.061006736 -0.10194509 -0.2596726
-0.1905955 -0.0021199118 -0.07051673 -0.13943519 -0.045519363 0.012879808 -0.24875446 0.28721416

fc.weight f4 [2, 300]
00000000: ad37 0d3d 4582 7dbd 64ca 503e c179 413e
00000010: a1ea ba3d 7782 b23d a68f 453d 27e1 a6bd
00000020: 2d29 09be 6a94 ab3d bef6 0a3e 2826 f8b9
00000030: c103 cc3c a5c8 9b3c b4dc b6bc 522b 8f3e
00000040: 05a1 06be b27f 3a3d 3dba e6bc 36b4 19bd
00000050: 9f07 56bd 582a 1abf bc73 4b3e 2029 db3e
00000060: d7f2 283d 093b 76be bbef b63c 6e3a cbbc
00000070: cbc5 923d 04f4 46bd dddb 763d 1fe0 cc3c
00000080: c6c2 eebc 3530 6c3d cbce e13d b80c 463d
00000090: a579 6d3c 4fbf 893d e9b4 a7be 7b19 37be
000000a0: 16fb fabc 2481 a0bd e1fb 2cbd 04b9 ac3e
000000b0: 4f02 e73b 8055 fd3a 4243 89bd f85d c83c
000000c0: 2ec8 08be 6a52 9d3f fe66 313e 2745 093e
000000d0: 6e1c 6b3d 26b6 153d ab29 c5bd bb32 d13c
000000e0: b74e 16be f8c3 4ebb 2274 36bd 65ac 7c3c
000000f0: ecdf 583e e524 62bd fe2e f2bd c0c3 993b
00000100: 60a4 5b3c 0434 a9bc 7dad 343d d1a1 70bc
00000110: 283c 203e 7898 253d 5a4c 0dc0 8e85 073e
00000120: 9916 0bbd 4c2f 09bc f821 1b3d 0323 c93d
00000130: 29da 0bbd 7014 8dbc 6b0d 453e ad2e 4c3d
00000140: 55d4 4d3e eb17 15be cd68 a2bd a17c 203d
00000150: 705e 013e 56f9 0540 8224 583b 9275 45be
00000160: 3764 a53e e4ff 113e 2df5 b73d e103 55bd
00000170: 19a0 3a3e 0f81 bd3e 72ed c0bd d954 73bd
00000180: 40b1 49ba 2e4c 583e 943f 73be 116b 80bb
00000190: 8b6a 9ebe 630c 34bc cee6 6d3d d0e8 e6bd
000001a0: 4d87 b53d 16e5 8abd 9223 4f3d f21d abbd
000001b0: c02b 36be 2e41 2b3e a779 96bd e6b9 84bc
000001c0: f66a d5bc d5ea e1be fc71 0cbd 9230 5f3e
000001d0: 8e54 1b3d a083 a8bc 8164 1a3e f83f 083e
000001e0: 7da5 3abe 36bd aa3b 6775 573d fb2c 94be
000001f0: d82d 23be e2c6 4b3d ec17 65be 6c17 873d
00000200: 273a b9bd af72 d23d 4573 ac3d ec1e 6f3e
00000210: 463d dfbc ef31 693e d4e9 c23c 77ac 083e
00000220: 9141 b23d 64c1 7c3d a03b cd3d e76c 393c
00000230: 379c 66bd 9487 d8bd 387b 9abd 7d00 af3c
00000240: 6afe a63b 54d2 633c 7053 7c3c 1a11 92bd
00000250: 4ce3 8d3d 856c 96bc a0e7 d6bc 9ad8 04bb
00000260: 9b8f 323d 4da9 6f3b 5c21 683d 10a7 593c
00000270: abb0 9b3d 4a92 b33c 195d 033e 39d9 853e
00000280: 42b4 8abc 0b2b 093e 4f59 9dbc b69f f8b8
00000290: 1115 09bc ccbf ccbe 22fc d43d 80c2 72bd
000002a0: 7b65 87be c1b7 b73c a9e2 b5bd 5863 c3bc
000002b0: e28c 643f 47ae 3b3d 1b19 dbbc 295b 8fbe
000002c0: b7c2 793e 154b 133e 9701 1cbc 5892 9abd
000002d0: 40a3 ef3b 3cec 27bc 90b9 ddbd bf3c e23c
000002e0: 3837 6e3d 78ec 933d 0a16 bc3c 7044 02be
000002f0: 0e83 8b3e b080 603e 26dd 2abe e27a 013d
00000300: 39cb f73a 987e 0d3c 3d04 383d f030 b1be
00000310: a88e 92bc 7383 e7be f958 06bd b246 1abd
00000320: 392d 7ebd 4082 3a3e 75e3 a2bd 1830 a9bd
00000330: dfab 86bd 744d 91bd 5fb6 f2bd 13d3 3ebd
00000340: 0d66 fdbc 4bcd 9fbd e6b5 683d 7d89 15bc
00000350: 3ab9 0dc0 4542 92be 9847 163d 3707 413d
00000360: 5cd3 f5be ff97 993d 6627 dfbb 9391 ad3f
00000370: aa3d 95bd 825c 8dbe 7513 f5bd 7095 3e3e
00000380: 28f6 de3c 5385 4f3f 6652 be3d b894 693c
00000390: 9c00 69bd 2e6b 11bd a958 833d d254 34be
000003a0: 58e0 80bd 38a9 01bc 208d 183d 71cc dc3d
000003b0: 56aa 9fbc d0a2 df3d a0a5 9dbb 9488 113d
000003c0: 033f 3ebe 4310 fb3d bebb 06bd 2fde 783d
000003d0: cbfb 533d 4db4 1cbf 2545 123d fe2f 923e
000003e0: 2e29 d43d 69ec 07bd d44a 74bd 9e0c 0abd
000003f0: 4542 123d f575 2c3d 8aad 70bd a8bc ff3c
0.034476925 -0.061891813 0.20389706 0.18894102 0.09126783 0.087162904 0.048232697 -0.08148413
-0.13394614 0.08377917 0.13570687 -0.00047330675 0.024904134 0.019016573 -0.022322036 0.27962738
-0.13147362 0.045531936 -0.028164977 -0.03752538 -0.05225336 -0.6022086 0.19868368 0.42804813
0.041247215 -0.24045958 0.02233111 -0.024808135 0.07166632 -0.048572555 0.06026827 0.025009213
-0.02914561 0.05766316 0.11025771 0.048351973 0.014494334 0.06725942 -0.3275521 -0.17880814
-0.030637305 -0.078371316 -0.042232398 0.33734906 0.0070498358 0.0019327849 -0.067022815 0.02445887
-0.13357612 1.2290776 0.17324445 0.13405286 0.05740016 0.036550663 -0.09627088 0.025536885
-0.14678465 -0.0031549912 -0.044544347 0.015421961 0.2117917 -0.055210967 -0.11825369 0.0046925247
0.013405889 -0.020654686 0.044110764 -0.014687018 0.15647948 0.04042861 -2.2077851 0.13234541
-0.033957098 -0.008373093 0.037874192 0.09821131 -0.0341436 -0.01722166 0.192434 0.0498492
0.2010053 -0.14559905 -0.079301454 0.039181355 0.12633681 2.0933433 0.0032980745 -0.19283131
0.3230302 0.14257771 0.089823104 -0.052005652 0.18225135 0.37012526 -0.09420289 -0.05940709
-0.0007693954 0.2112281 -0.23754722 -0.0039190133 -0.3094066 -0.010989281 0.05808144 -0.11274874
0.08863697 -0.06781976 0.050571032 -0.08355321 -0.17790127 0.16724083 -0.07347422 -0.016201925
-0.02605198 -0.44124475 -0.03428839 0.21795872 0.037922435 -0.020570576 0.15077402 0.13305652
-0.18227191 0.005210544 0.052602198 -0.28940567 -0.15935457 0.049750216 -0.22372407 0.06596264
-0.09044295 0.102757804 0.084204234 0.2335164 -0.027250897 0.22772954 0.023793139 0.1334704
0.08703912 0.06170787 0.10021138 0.011317468 -0.05630132 -0.105727345 -0.07543033 0.021362538
0.0050962465 0.013905127 0.015400752 -0.07132168 0.06928119 -0.018362293 -0.026233494 -0.0020270706
0.043593984 0.0036569417 0.05667244 0.01328446 0.07602056 0.021920342 0.12828483 0.2614229
-0.016931657 0.13395326 -0.019207625 -0.0001185531 -0.008366839 -0.3999008 0.10399653 -0.05926752
-0.2644461 0.022426488 -0.088811226 -0.023851082 0.8927747 0.0458205 -0.02674537 -0.27999237
0.24390684 0.1438411 -0.009521863 -0.07547444 0.007313162 -0.010249194 -0.10826409 0.027616857
0.05815813 0.07222837 0.022959728 -0.1272142 0.27248424 0.2192409 -0.16685924 0.03161133
0.001890517 0.008636139 0.044925917 -0.3460765 -0.01789029 -0.45217475 -0.032799695 -0.037665077
-0.062054846 0.18213749 -0.0795354 -0.08261126 -0.065757506 -0.07094851 -0.11851191 -0.046588015
-0.03093245 -0.078028284 0.056814097 -0.009127018 -2.2144303 -0.28566185 0.03668937 0.04712602
-0.48012817 0.07499694 -0.0068101166 1.3560051 -0.07287152 -0.2760964 -0.11966602 0.18611693
0.027216986 0.8106281 0.0929306 0.014256649 -0.056885347 -0.035502605 0.06413395 -0.17610481
-0.0629279 -0.00791388 0.037243962 0.107811816 -0.019490402 0.10919726 -0.004811004 0.03553064
-0.18578725 0.12258961 -0.03289389 0.060758766 0.0517538 -0.6121262 0.035710473 0.2855224
0.10359417 -0.033184443 -0.059641674 -0.03370344 0.03570773 0.04210468 -0.05875925 0.031217888

fc.bias f4 [2]
00000000: d10e 71bd 1630 47bd
-0.05885202 -0.048629843
