trained_model_with_input_error_rnn_error_200epochs.pth (torch, 369175 bytes, 6 tensors)

rnn_cell.weight_ih f4 [300, 2]
0	0xbb9d6315	-0.0048030713
1	0x3c997443	0.018732196
2	0x3d0c7366	0.03428974
3	0x3cea620c	0.028611206
4	0xbc961f94	-0.018325604
5	0x3d2aed8e	0.041730456
6	0xbd955972	-0.07292451
7	0x3d8b35f5	0.06797401
8	0xbc843ae1	-0.016141357
9	0xbc9451e0	-0.018105447
10	0xbc892416	-0.01674084
11	0x3b1a2ad3	0.002352406
12	0xbcab9458	-0.02094476
13	0x3b2ceb5e	0.0026385407
14	0x3d86231f	0.065496676
15	0xbd8332f3	-0.06406202
16	0x3f9f7b9e	1.24596
17	0xbf948f9b	-1.1606325
18	0xbdae48e9	-0.0851
19	0xbcc550f5	-0.024086455
20	0x3f700325	0.937548
21	0x3f9202e7	1.1407136
22	0xbcfb714d	-0.030693674
23	0x3d34185c	0.043968543
24	0x3d039d95	0.032132704
25	0xbc9e37a7	-0.019313646
26	0xbca3ab16	-0.019979041
27	0x3b84a09e	0.0040474674
28	0x3d0ee944	0.03489043
29	0xbdcd55cb	-0.10026129
30	0x3da83bf5	0.08214561
31	0xbc9d08c1	-0.019169213
32	0xbcf60f26	-0.03003652
33	0x3c5fd22f	0.0136609515
34	0xbc70ae20	-0.014689952
35	0xb9f0a6ed	-0.00045900737
36	0xbe049dde	-0.12950847
37	0x3cebbb91	0.028775962
38	0x3c8e0af8	0.017339215
39	0x3da61000	0.081085205
40	0xbc591996	-0.013250729
41	0xbc6fc40f	-0.014634146
42	0xbd3ef34b	-0.04661874
43	0x3d8d8e05	0.06911854
44	0xbd54254e	-0.05179339
45	0xbd327c32	-0.043575473
46	0xbb19f956	-0.0023494563
47	0xbb3ab70a	-0.0028490447
48	0x3c890dea	0.016730268
49	0xbd86085e	-0.06544565
50	0x3c544030	0.012954757
51	0x3af0b566	0.0018364608
52	0x3d4fba9e	0.05071508
53	0xbd0ffb9a	-0.035152055
54	0xbc67e6fe	-0.014154194
55	0xbc0f78b8	-0.008756809
56	0x3dbd574a	0.09245165
57	0xbce1243a	-0.027483094
58	0x3d4b21db	0.049592834
59	0xbcaffc83	-0.021482712
60	0xbd27ab82	-0.040935047
61	0x3ccdd6a0	0.025126755
62	0x3c687d14	0.014189977
63	0x3d828536	0.06373064
64	0xbdaa92f9	-0.08328814
65	0xbdc36f63	-0.0954273
66	0xbcc9b4ac	-0.024622284
67	0xbd543005	-0.051803607
68	0xbdd662cb	-0.10468062
69	0x3d97665c	0.073925704
70	0x3e692521	0.2276807
71	0xbf2dfb21	-0.6796132
72	0xbf09aaf0	-0.53776455
73	0x3e05a743	0.13052087
74	0xbf436281	-0.7632218
75	0x3f2f8172	0.6855689
76	0xbb7b1a70	-0.0038315319
77	0x3d866f20	0.06564164
78	0x3de01a71	0.10942543
79	0x3bbf3b0b	0.005835896
80	0x3c7963dd	0.015221563
81	0xbc4b6f18	-0.0124166235
82	0x3cae1833	0.021251773
83	0x3c93f4d5	0.018061081
84	0xbd03ed9d	-0.032209028
85	0xbd4e4d95	-0.050366957
86	0x3cfd45f4	0.030917145
87	0xba887d5c	-0.0010413337
88	0x3e063e3e	0.13109681
89	0xbd61a642	-0.055090196
90	0x3c8c5798	0.017131612
91	0xbc8c900d	-0.017158533
92	0x3ca2b3a4	0.01986105
93	0xbda79f8e	-0.081847295
94	0xbd3967d2	-0.045265026
95	0xbd1052ee	-0.035235338
96	0xbda19679	-0.078900285
97	0xbd53f492	-0.051746912
98	0x3ce49021	0.027900757
99	0xbd2fd75a	-0.042929985
100	0xbddf8f27	-0.10915976
101	0xbd05d48c	-0.032673404
102	0x3d0063d2	0.031345196
103	0xbb1e48a7	-0.002415219
104	0xbda6819b	-0.08130189
105	0xbd7ee3e2	-0.062229045
106	0xbcde55f5	-0.027140597
107	0xbd1e68cb	-0.038674157
108	0x3c19d29d	0.009388593
109	0x3c28bc0e	0.010298742
110	0xbcbc8a73	-0.023015236
111	0xbc32c32f	-0.010910793
112	0xbdb8ea1a	-0.09029026
113	0xbce59982	-0.0280273
114	0x3b24951e	0.0025113295
115	0x3bdba5b0	0.006703101
116	0x3d873e1c	0.06603643
117	0xbd0d1494	-0.034443453
118	0x3b9e4b9e	0.0048307916
119	0xbd21912c	-0.039445087
120	0x3caa47f4	0.020786263
121	0x3d5d53da	0.054035045
122	0xbc9dc0be	-0.019256946
123	0x3d1057f5	0.035240132
124	0xbcd94f3e	-0.026527043
125	0x3d056427	0.032566216
126	0xbce8a2ae	-0.028397884
127	0xbaddb454	-0.0016914704
128	0x3c8990d8	0.0167927
129	0xbd66251a	-0.056187727
130	0xbd098483	-0.03357364
131	0x3c9bf636	0.019038301
132	0x3d239126	0.039933346
133	0xbc93eda8	-0.01805766
134	0xbd246cfa	-0.04014299
135	0x3dbedb18	0.093191326
136	0x3df4a070	0.119446635
137	0xbd15ce75	-0.036573846
138	0x3ed10e62	0.40831286
139	0xbe9f6221	-0.31129554
140	0x3ddb751a	0.10715695
141	0xbdffb7a9	-0.12486202
142	0xbd07e43a	-0.03317664
143	0x3c04ea8e	0.008112563
144	0x3c98e62b	0.01866444
145	0xbd339229	-0.04384056
146	0xbc25e6c0	-0.010125816
147	0x3d49db56	0.04928144
148	0x3ce306d6	0.02771322
149	0x3db52f8c	0.088469595
150	0x3c78a7bb	0.015176709
151	0x3c089c0f	0.0083379885
152	0x3c7b8f62	0.015354009
153	0xbb3b7645	-0.002860443
154	0x3d8310b9	0.06399674
155	0xbca91dfc	-0.02064418
156	0x3d854a9a	0.0650837
157	0xbd40d4e4	-0.04707803
158	0xbab23898	-0.0013597189
159	0x3d628c5a	0.05530963
160	0xbc9b8e86	-0.018988859
161	0x3c250b2c	0.010073464
162	0x3d1f1802	0.038841255
163	0x3cd76c8d	0.026296878
164	0xbd09b812	-0.03362281
165	0xbddd671a	-0.10810681
166	0xbcf28ee3	-0.02960915
167	0x3b143fc0	0.0022621006
168	0x3d38ffc1	0.04516578
169	0x3c0cc9ba	0.008593017
170	0x3c962199	0.018326567
171	0xbd2978f1	-0.041375104
172	0xbd89ba05	-0.067249335
173	0xbcb54861	-0.02212924
174	0x3d3c8e83	0.046034347
175	0xbce5ba0d	-0.028042817
176	0xbd8cc839	-0.06874127
177	0xbd0f0319	-0.034915064
178	0xbc80db15	-0.015729466
179	0x3bca30e1	0.0061703776
180	0x3da5bdd2	0.08092846
181	0x3c2c5200	0.010517597
182	0x3cb91cee	0.022596803
183	0x3d167c8f	0.036739882
184	0x3d07951e	0.033101194
185	0xbd930a01	-0.071796425
186	0x3c898561	0.016787233
187	0xbc37c26f	-0.01121579
188	0xbc96a00a	-0.01838686
189	0xbbd21438	-0.0064111017
190	0xbd1bd456	-0.038044296
191	0x3d3f2499	0.04666576
192	0xbd6edb27	-0.05831447
193	0x3dac7054	0.084198624
194	0x3cd8f968	0.026486114
195	0xbd31f023	-0.043441903
196	0xbc7525fb	-0.0149626685
197	0xbcc58651	-0.024111899
198	0xbd75189f	-0.059837934
199	0x3cc1fe41	0.023680808
200	0x3f3c1ce2	0.7348157
201	0x3ce2c64e	0.02768245
202	0x3da0a549	0.07844026
203	0x3d62a92d	0.05533712
204	0xbda70cb8	-0.08156723
205	0xbc57bfcd	-0.013168287
206	0xbd1bffbd	-0.038085688
207	0x3c480d68	0.012210228
208	0x3e786418	0.24256933
209	0x3f01a257	0.50638336
210	0xbd896d34	-0.06710282
211	0xbdd47599	-0.103739925
212	0xbb2f49f3	-0.0026746958
213	0xbb8d57aa	-0.004313429
214	0x3c919f0a	0.017776031
215	0xbb74ad75	-0.0037334834
216	0x3c3fc12a	0.011703769
217	0xbd3a684c	-0.04550962
218	0x3d9ca407	0.07648473
219	0x3c9a504c	0.018837117
220	0xbd19ee50	-0.037580788
221	0x3c075fa8	0.008262552
222	0x3ccfdf0e	0.025374915
223	0x3d8ff495	0.07029072
224	0xbc2c53c9	-0.010518023
225	0xbd106ca0	-0.035259843
226	0xbca1575b	-0.019694975
227	0x3d1d9903	0.038476
228	0x3ba82fd3	0.005132654
229	0xbd6864b4	-0.056736663
230	0x3d87c85c	0.066300124
231	0x3c69a43b	0.014260347
232	0xbd99da5d	-0.075123526
233	0x3dbe612e	0.09295879
234	0x3d205a32	0.039148517
235	0xbd8f4acd	-0.06996689
236	0xbdea9ab7	-0.11455291
237	0xbd3704ed	-0.044682432
238	0xbca73e76	-0.020415526
239	0x3d31ae4f	0.043379124
240	0x3c1282d0	0.008942321
241	0x3c93a688	0.018023744
242	0xbd20acf3	-0.039227437
243	0xbc837cbd	-0.01605069
244	0x3c410430	0.0117807835
245	0x3c8927b0	0.016742557
246	0xbdd050e4	-0.10171679
247	0xbcc1f99b	-0.023678591
248	0x3d8b4de8	0.06801969
249	0x3c977060	0.018486202
250	0xbcce385f	-0.025173364
251	0xbd6c8686	-0.05774548
252	0xbc3a2ebe	-0.011363683
253	0xbc86992e	-0.016430464
254	0xbccc3fa4	-0.02493269
255	0x3cd8c5a8	0.026461437

rnn_cell.weight_hh f4 [300, 300]
0	0x3cd8c9e4	0.026463456
1	0xbe466fff	-0.1937866
2	0xbe652cf6	-0.22380432
3	0x3f2f77e1	0.68542296
4	0x3f0189ff	0.5060119
5	0x3eac01c1	0.33595088
6	0x3d0028fb	0.031289082
7	0x3c49b196	0.012310406
8	0xbd22c963	-0.03974284
9	0x3e3e2bee	0.18571445
10	0x3e31f4af	0.17378496
11	0x3d4cfc75	0.05004545
12	0x3e3bd02c	0.1834113
13	0xbe0c9a81	-0.13730814
14	0x3d5f3208	0.054491073
15	0xbe475e20	-0.194695
16	0xbe2ab05f	-0.16668843
17	0x3db3e8f8	0.0878467
18	0x3e398196	0.1811584
19	0x3b0a935e	0.0021144967
20	0xbdb4d160	-0.088289976
21	0xbbc1feb6	-0.0059202565
22	0xbcdf7c1d	-0.027280862
23	0xbe22b964	-0.15891033
24	0x3bcbd4de	0.006220444
25	0xbde44309	-0.111455984
26	0xbe152bda	-0.1456751
27	0xbcb624fe	-0.022234436
28	0x3e135451	0.14387633
29	0x3e868a14	0.2627722
30	0xbe2a8561	-0.16652443
31	0xbd595d89	-0.053067718
32	0x3d744e66	0.05964508
33	0xbe606b4a	-0.21915928
34	0x3d44e89f	0.048073407
35	0x3d826b5a	0.06368132
36	0x3ce6814b	0.028137824
37	0x3c9437bc	0.018092982
38	0xb910e7ba	-0.00013819235
39	0x3d0e89ed	0.034799505
40	0x3e50b3e6	0.20381126
41	0x3e10db77	0.14146219
42	0x3ef5f5d0	0.48039103
43	0x3ed2423a	0.41066152
44	0x3da7523a	0.0816998
45	0x3f49bb6a	0.78801596
46	0xbeb4396e	-0.35200065
47	0x3e484ea8	0.19561255
48	0xbf771cf9	-0.96528584
49	0xbec8be98	-0.39207911
50	0x3d974f10	0.07388127
51	0x3da020af	0.07818734
52	0x3d3d5ca4	0.046230927
53	0x3d2d7dbe	0.042356245
54	0xbe2cd6cf	-0.16878818
55	0xbd91e1a1	-0.071231134
56	0xbf90d6d3	-1.1315559
57	0x3d79618a	0.060884036
58	0x3f3b2c69	0.7311464
59	0xbdea202b	-0.11431917
60	0x3de71679	0.11283583
61	0x3f27da91	0.6556788
62	0x3f66553f	0.89973825
63	0xbd4992eb	-0.049212378
64	0xbf043d45	-0.5165599
65	0x3eb9af2c	0.36266458
66	0xbef131cf	-0.47108313
67	0x3e9941d5	0.29933038
68	0xbe7f2e03	-0.24919896
69	0xbed34eac	-0.4127096
70	0x3e004187	0.12524997
71	0xbeac0756	-0.33599347
72	0x3ca74d34	0.020422556
73	0x3e12c1c6	0.14331731
74	0x3f09b02b	0.53784436
75	0x3e86e323	0.26345167
76	0x3f46f3f9	0.7771602
77	0xbd595eaf	-0.053068813
78	0x3d9b2598	0.0757553
79	0x3f86a216	1.0518215
80	0x3dc2acde	0.09505628
81	0x3f1af89a	0.60535586
82	0xbea7462f	-0.32670733
83	0x3cfa61df	0.030564247
84	0x3eadb5f0	0.3392787
85	0xbb98fea7	-0.004669029
86	0x3e0ad6a9	0.13558449
87	0x3f7dacb3	0.99091643
88	0xbf28512a	-0.65748847
89	0x3bf5e0bb	0.0075035966
90	0xbc653338	-0.013989262
91	0x3f76208f	0.9614343
92	0xbec2b6ba	-0.38030034
93	0x3ba9f843	0.005187066
94	0x3dbce90f	0.0922414
95	0xbe1d2fab	-0.15350215
96	0x3e0fc734	0.14040834
97	0xbf300701	-0.6876069
98	0x3de34a14	0.11098114
99	0x3f145fce	0.57958686
100	0x3dd504e6	0.10401325
101	0x3f2d15df	0.676115
102	0x3efec8b4	0.497625
103	0xbdb86a2c	-0.09004626
104	0xbd5a3823	-0.053276192
105	0xbb0382dd	-0.0020067014
106	0x3e7bf4f2	0.24605158
107	0x3efa49ab	0.4888433
108	0xbef47eb0	-0.47752905
109	0x3f5e4c79	0.8683544
110	0x3df2d2e2	0.11856629
111	0x3f83c5b3	1.0294708
112	0xbd9a1c00	-0.07524872
113	0x3e27acc1	0.16374494
114	0x38ee9d03	0.0001137797
115	0x3f186216	0.5952467
116	0x3ee51c01	0.44747928
117	0xbeff86c6	-0.4990751
118	0x3e075239	0.13214959
119	0x39d5b4b4	0.0004076116
120	0xbda36623	-0.079784654
121	0x3d3d4140	0.046204805
122	0x3e9c7ace	0.30562443
123	0xbf4e0359	-0.8047386
124	0xbe346739	-0.17617501
125	0xbe976442	-0.29568678
126	0xbe1d70d5	-0.15375073
127	0xbe0e7d71	-0.1391504
128	0xbda89bdb	-0.08232852
129	0xbcaceee8	-0.021110013
130	0xbed8cdf5	-0.42344633
131	0x3e3f4ceb	0.18681686
132	0x3d8bfc10	0.068351865
133	0x3d4a0c50	0.04932815
134	0x3e0eb051	0.13934447
135	0xbd8d8cb4	-0.069116026
136	0xbee08bfb	-0.43856797
137	0xbc84475b	-0.016147306
138	0x3d7ca8bc	0.061684355
139	0xbe776343	-0.24158959
140	0xbde3fe9c	-0.11132547
141	0x3da583c3	0.08081772
142	0x3f58c3ee	0.84673965
143	0x3e904d2b	0.28183874
144	0xbf3189f9	-0.69351155
145	0x3eebb908	0.46039605
146	0xbe186795	-0.14883263
147	0xbd4caf95	-0.049972136
148	0x3db2918b	0.08719166
149	0xbcc318ae	-0.02381548
150	0x3e1d5392	0.15363911
151	0xbed48a7e	-0.4151191
152	0x3ee78361	0.45217422
153	0xbdc4f9d2	-0.09617962
154	0xbdd643a6	-0.10462122
155	0xbc9672b1	-0.018365236
156	0x3d9ee34e	0.07758199
157	0x3e921d81	0.28538135
158	0x3ecdfb33	0.40230712
159	0xbc10e530	-0.008843705
160	0xbe56a2d0	-0.20960546
161	0x3d96391b	0.07335111
162	0xbe2767e8	-0.16348231
163	0x3ef99744	0.4874822
164	0x3b7416b5	0.003724498
165	0xbf313343	-0.69218844
166	0xbe90a1e4	-0.28248513
167	0x3f184fe8	0.5949693
168	0xbd9499b7	-0.07255881
169	0x3dc1c3d5	0.0946118
170	0xbe3323be	-0.17494103
171	0x3ee25199	0.4420288
172	0x3ea8d5d1	0.3297563
173	0x3d941338	0.07230228
174	0x3e64d58f	0.22347091
175	0xbf3032b8	-0.6882739
176	0x3c78fbba	0.015196735
177	0x3f4ab93d	0.791889
178	0xbcd6e54f	-0.02623239
179	0xbd38369d	-0.04497396
180	0x3db423b3	0.087958716
181	0x3dcb75ec	0.09934601
182	0x3e93ee3c	0.28892696
183	0xbdb10c86	-0.08644967
184	0x3f849832	1.0358946
185	0x3e8937aa	0.2680028
186	0xbf0263fb	-0.5093381
187	0x3eb7e2fb	0.3591536
188	0x3dbcab0a	0.092123106
189	0x3d9537d9	0.07286043
190	0x3da933ea	0.08261855
191	0xbe377996	-0.17917475
192	0xbebe72b6	-0.37196892
193	0xbe97b951	-0.29633573
194	0xbd30d98c	-0.04317622
195	0xbcba1b8c	-0.022718213
196	0xbd4579c8	-0.048211843
197	0xbe2dc9e1	-0.16971542
198	0xbee0e991	-0.43928197
199	0x3e5af9f3	0.2138441
200	0x3e208318	0.15675008
201	0x3d40d0b5	0.04707404
202	0xbd396892	-0.04526574
203	0xbbb77939	-0.0055991677
204	0x3de623a0	0.11237264
205	0xbf470be9	-0.7775255
206	0x3f4dee18	0.8044143
207	0xbe5694c0	-0.20955181
208	0x3dca193c	0.09868094
209	0x3ed9da8f	0.4254956
210	0xbf69ff26	-0.9140495
211	0x3d99ed7f	0.07516002
212	0x3e0758b1	0.13217427
213	0x3e0459bf	0.1292486
214	0x3e09f314	0.13471633
215	0x3d62a2fa	0.055331208
216	0x3f5492fb	0.83036774
217	0x3e9636b2	0.29338604
218	0xbb521133	-0.0032053709
219	0x3e5b6e45	0.21428783
220	0x3d29f6e0	0.041495204
221	0x3deb82b4	0.11499539
222	0x3f152767	0.5826325
223	0x3d1ca75b	0.03824554
224	0xbf563a62	-0.83682835
225	0x3ec1ec89	0.37875775
226	0x3e822cb9	0.25424746
227	0x3f3f0a45	0.74625045
228	0xbc2b636b	-0.010460715
229	0x3e9bf666	0.30461425
230	0x3f3b2927	0.7310967
231	0x3c8eae71	0.017417165
232	0x3ef3f36d	0.47646657
233	0xbe801569	-0.25016335
234	0x3ed37d12	0.4130636
235	0xbf28079d	-0.65636617
236	0xbc9f2d50	-0.019430786
237	0x3f0fc3d7	0.561582
238	0x3d64bf7d	0.05584668
239	0x3f18c11b	0.59669656
240	0x3d0ea9ea	0.03483001
241	0x3d3a5e08	0.04549983
242	0xbd14464f	-0.036199864
243	0x3bdea811	0.0067949374
244	0xbd2fef7f	-0.04295301
245	0x3eb5ce89	0.35509136
246	0xbb88c37f	-0.0041736956
247	0x3d7d8e2c	0.061903164
248	0x3e0f7b99	0.14011993
249	0x3e1acb71	0.15116669
250	0x3f9575ed	1.1676613
251	0x3dd12980	0.102129936
252	0x3debcc63	0.11513593
253	0xbefb829e	-0.4912309
254	0x3f39a281	0.72513586
255	0xbe081ca5	-0.13292177

rnn_cell.bias_ih f4 [300]
0	0xbcfec61b	-0.031100323
1	0xbd1b4fad	-0.03791778
2	0xbd141f25	-0.036162514
3	0x3ca3578f	0.019939212
4	0xbcfa9433	-0.030588245
5	0x3d62e550	0.05539447
6	0xbd2496c2	-0.040182836
7	0xbc00413d	-0.007828054
8	0xbd481378	-0.04884669
9	0x3d923560	0.07139087
10	0xbe1a83fc	-0.1508941
11	0xbd87edf8	-0.06637186
12	0xbd1e8e25	-0.03870978
13	0xbde50056	-0.11181705
14	0x3d894f6f	0.06704604
15	0xbda28654	-0.07935777
16	0xbd15c9d9	-0.03656945
17	0xbda50ea4	-0.08059433
18	0x3c4074a3	0.011746558
19	0x3c2eb0da	0.010662282
20	0xbce47019	-0.027885484
21	0x3d6ab3c7	0.057300355
22	0xbc93021b	-0.01794534
23	0xbd7dcdac	-0.061963722
24	0xbcf70181	-0.030152084
25	0xbd8290b4	-0.06375256
26	0xbd83ea90	-0.064412236
27	0xbd0dd049	-0.034622464
28	0xbd0abb60	-0.0338701
29	0xbce29dd3	-0.027663147
30	0xbcc2ea23	-0.023793286
31	0x3d406f82	0.046981342
32	0xbc561643	-0.013066831
33	0xbd9e3b95	-0.07726208
34	0xbcc8f0cc	-0.024528883
35	0x3d8b5398	0.068030536
36	0xbd0e232f	-0.034701522
37	0x3c12007c	0.008911248
38	0x3d860818	0.065445125
39	0x3be97541	0.0071245735
40	0xbd9901f6	-0.07471077
41	0xbb8a7b03	-0.00422609
42	0xbd829fc5	-0.0637813
43	0xbb874ad8	-0.004128795
44	0x3c687b3a	0.014189536
45	0x3c720ddb	0.014773811
46	0xbd8b9262	-0.0681503
47	0x3bec7050	0.007215537
48	0xbd29b712	-0.041434355
49	0x3da52bb8	0.08064979
50	0xbcf588fe	-0.02997255
51	0x3d7fa5ac	0.062413856
52	0xbd77f5f9	-0.060537312
53	0xbd63b438	-0.055591792
54	0xbd1b82c4	-0.037966505
55	0xbd1d7ae8	-0.03844729
56	0x3cb23248	0.021752492
57	0xbd934e5c	-0.0719268
58	0x3ca040bb	0.019562116
59	0xbd1ee0a7	-0.038788464
60	0xbdd9541c	-0.10611746
61	0xbd6a22e3	-0.057162177
62	0xbbe3868d	-0.00694353
63	0xbcb54184	-0.022125967
64	0x3d99fbc4	0.075187236
65	0xbbfaf193	-0.0076581924
66	0xbd211d1c	-0.0393344
67	0xbdcf1aa9	-0.10112507
68	0x3d72312e	0.059128933
69	0xbd77440a	-0.06036762
70	0xbcb56a7a	-0.022145499
71	0x3b519955	0.0031982262
72	0xbcc6f37c	-0.024286024
73	0xbd90f862	-0.07078625
74	0x3cbbe631	0.022936912
75	0x3d69c844	0.057075754
76	0x3c8d7fd3	0.017272865
77	0xbd51e689	-0.051245246
78	0x3d2428bb	0.040077906
79	0xbbd261a6	-0.006420332
80	0xbcba586a	-0.022747237
81	0xbd5b14e0	-0.053486705
82	0xbbd2196e	-0.006411723
83	0xbd95812b	-0.073000275
84	0xbdae6c8c	-0.085167974
85	0x3d82b149	0.06381471
86	0x3c6b4f3c	0.014362153
87	0xbd908382	-0.07056333
88	0xbca93dc7	-0.02065934
89	0xbd8e7dad	-0.069575645
90	0xbccfe085	-0.025375614
91	0xbcc809a5	-0.024418661
92	0x3d89746e	0.0671166
93	0x3a5fef98	0.0008542477
94	0xbdaab1ba	-0.0833468
95	0xbceda46a	-0.029009063
96	0xbdcd8fd9	-0.100372024
97	0xbd33d4e0	-0.043904185
98	0xbd5f51bd	-0.05452131
99	0xbc921492	-0.017832074
100	0x3b6f7f67	0.0036544444
101	0xbcaacc67	-0.02084942
102	0xbcfd4125	-0.030914852
103	0xbd8a535a	-0.06754179
104	0x3ed7e783	0.42168817
105	0xbcb4a07a	-0.022049177
106	0xbd7990dd	-0.060929168
107	0xbd172ef3	-0.03691001
108	0x3d870ef3	0.06594648
109	0xbd1443c6	-0.036197446
110	0xbdb95c84	-0.09050849
111	0xbbcb910d	-0.0062123598
112	0x39406b20	0.00018350454
113	0xbd1f4703	-0.03888608
114	0xbd26b5b0	-0.040700614
115	0xbdc4d8f0	-0.0961169
116	0xbdb2daa1	-0.087331064
117	0xbd8144fe	-0.06311987
118	0xbc818af9	-0.015813338
119	0xbd84d7ba	-0.06486459
120	0xbda619b6	-0.08110373
121	0xbd924466	-0.07141952
122	0xbd741990	-0.05959469
123	0x3d263b8f	0.040584143
124	0x3d36f572	0.04466767
125	0xbd0fc1c7	-0.03509691
126	0xbd435ebf	-0.04769778
127	0xbdbe7888	-0.09300333
128	0x3d7bb285	0.061449546
129	0x3d38f1e0	0.045152545
130	0xbd60a714	-0.054846838
131	0xbd9476ba	-0.07249208
132	0x3d37c519	0.0448657
133	0xbdfbfecb	-0.12304457
134	0xbda78528	-0.081796944
135	0xbd1a35d5	-0.037648994
136	0xbba210c2	-0.0049458453
137	0xb935d721	-0.00017341647
138	0xbc3caca6	-0.011515772
139	0x3c2545fa	0.0100874845
140	0xbdac65ba	-0.0841784
141	0xbc4bcc46	-0.012438839
142	0x3bc40bb9	0.0059828428
143	0x3c6c1cc4	0.014411155
144	0xbd8d2d6d	-0.0689343
145	0xbd5ec16b	-0.054383676
146	0x3de215e4	0.110393316
147	0xbd8ebcbb	-0.06969591
148	0x3cb068d9	0.02153437
149	0xbca74926	-0.020420622
150	0xbd8aabdf	-0.06771063
151	0xbd35a08f	-0.044342574
152	0x3bbababf	0.0056985314
153	0xbdfd9a26	-0.12382917
154	0xbc6bde8a	-0.014396319
155	0xbd6358a2	-0.05550445
156	0x3d9bdf61	0.076109655
157	0xbda5edc2	-0.08101989
158	0x3ccff1c0	0.02538383
159	0xbd167f4b	-0.03674249
160	0xbd8e7001	-0.06954957
161	0xbd679831	-0.056541625
162	0xbd343836	-0.04399892
163	0xbccb982b	-0.024852833
164	0xbc746a43	-0.014917913
165	0x3d83454c	0.06409702
166	0x3d9cf537	0.076639585
167	0x3d1f9190	0.03895718
168	0xbe1ef0f9	-0.15521611
169	0xbd24db96	-0.040248476
170	0xbd964541	-0.07337428
171	0xbd21fd5c	-0.039548263
172	0xbd9ad417	-0.07559984
173	0xbcc70840	-0.024295926
174	0xbd85ad95	-0.06527249
175	0xbb8197a0	-0.0039548427
176	0xbc837e77	-0.016051514
177	0xbcffeaff	-0.031239985
178	0xbca49aff	-0.02009344
179	0xbe0f92b9	-0.14020814
180	0x3c23f114	0.010006208
181	0xbd1d86fe	-0.038458817
182	0xbd8d8ed8	-0.06912011
183	0xbca39085	-0.019966373
184	0xbd42da45	-0.04757144
185	0xbca4c353	-0.02011267
186	0xbc0fb347	-0.00877077
187	0xbced3c74	-0.02895949
188	0x3d218455	0.039432842
189	0xba023519	-0.00049670186
190	0xbd98d631	-0.07462729
191	0xbc2d94d9	-0.01059457
192	0xbcd80e2c	-0.026373945
193	0xbd03de9b	-0.032194715
194	0xbd73a72b	-0.059485596
195	0xbd19bbcf	-0.037532624
196	0x3caf138e	0.02137163
197	0xbd050bba	-0.032481886
198	0xb9de6ea0	-0.00042425562
199	0xbd70c552	-0.05878193
200	0xbdc08e60	-0.09402156
201	0x3cc8c344	0.024507172
202	0xbd45b87f	-0.048271652
203	0x3cfa17ab	0.030528864
204	0xbd31b2cc	-0.043383405
205	0xbd4bf6dd	-0.049795974
206	0xbccc345e	-0.024927314
207	0x3e050b86	0.12992677
208	0xbd1e1a9a	-0.038599588
209	0xbb6ee6a5	-0.0036453393
210	0xbc92d88c	-0.017925523
211	0xbd8ec145	-0.06970457
212	0xbcfce34e	-0.030870106
213	0xbc7719ce	-0.015081836
214	0xbcb96006	-0.022628795
215	0x3c076ed7	0.008266172
216	0xbd2c42df	-0.04205596
217	0x3d31079b	0.043220144
218	0xbda52d6a	-0.08065303
219	0xbd5d9f50	-0.05410701
220	0xbd6d7bb9	-0.05797932
221	0xbc71dc8a	-0.014762053
222	0x3d38f25e	0.045153014
223	0xbd6335f6	-0.055471383
224	0x3dac0ca2	0.08400847
225	0x3dd490c7	0.103791766
226	0xbd058361	-0.032595996
227	0x3ce7807e	0.028259512
228	0xbdc5e0a8	-0.096619904
229	0xbc366870	-0.011133298
230	0xbbafc60d	-0.0053641857
231	0x3d990953	0.074724816
232	0x3c97831e	0.018495139
233	0x3e22c95f	0.1589713
234	0x3d317da9	0.04333273
235	0xbd058d2b	-0.03260533
236	0x3dbcb039	0.09213299
237	0x3cdf8e77	0.027289612
238	0xbc125b70	-0.008932933
239	0xbcbdf7e0	-0.023189485
240	0xbccb8ce4	-0.024847455
241	0xbd26b177	-0.040696587
242	0xbd8b8d6c	-0.068140835
243	0xbd88549a	-0.066567615
244	0x3cc31ac4	0.023816474
245	0xbcba52bd	-0.02274453
246	0xbd549d78	-0.051907986
247	0xbd5c80a6	-0.053833626
248	0xbd01bc96	-0.03167399
249	0xbc945929	-0.018108921
250	0x3a33bfae	0.00068568706
251	0xbdaa74d3	-0.08323064
252	0xbd1259e1	-0.035730246
253	0xbce3408c	-0.02774074
254	0x3c1fd158	0.009754501
255	0xbb8e7db2	-0.00434848

rnn_cell.bias_hh f4 [300]
0	0xbcb4bc45	-0.02206243
1	0xbda3be72	-0.07995309
2	0xbc80391c	-0.015652232
3	0x3ccb71d4	0.02483455
4	0xbd014b23	-0.031565797
5	0xbbfb6ead	-0.0076731057
6	0xbd9392e9	-0.07205755
7	0x3d0a1173	0.033708047
8	0xbce0252a	-0.027361471
9	0xbcca3cfe	-0.024687286
10	0xbd4e94c2	-0.050434835
11	0xbd1a1703	-0.037619602
12	0xbd3ef012	-0.046615668
13	0xbd1f2b8a	-0.03885988
14	0x3ba7fb82	0.0051264176
15	0x3cb8bf94	0.02255229
16	0xbdbafa44	-0.09129766
17	0xbc3723b8	-0.01117795
18	0x3d0d32ad	0.034472156
19	0x3c0e87ba	0.008699352
20	0xbc86196a	-0.01636954
21	0x3cca7421	0.024713578
22	0xbdaa09ea	-0.08302672
23	0xbd499250	-0.0492118
24	0x3d2321b2	0.039827056
25	0xbc15777a	-0.009122724
26	0xbdc63c8b	-0.096795164
27	0xbc17d34e	-0.009266688
28	0x3c831169	0.015999513
29	0xbc3c710b	-0.011501561
30	0xbce203bc	-0.027589671
31	0x3befb740	0.0073155463
32	0xbd4439f6	-0.04790684
33	0xbc358435	-0.011078884
34	0x3d3e928a	0.04652647
35	0x3c10e2cb	0.008843134
36	0xbc2a3bf6	-0.010390272
37	0x3c36242e	0.011117024
38	0x3dd11f4a	0.10211046
39	0xbbd9619e	-0.0066339513
40	0xbc849892	-0.016186032
41	0xbda6b5f3	-0.08140173
42	0xbd192e0d	-0.037397433
43	0xbc284c53	-0.010272103
44	0x3d96ca34	0.07362786
45	0xbd7896a1	-0.060690526
46	0x3ad61a26	0.0016334697
47	0x3c4e365c	0.0125862025
48	0x3b9763c6	0.004620048
49	0x3da32ab0	0.07967126
50	0x3cd63ff3	0.02615354
51	0xbc75b516	-0.0149967875
52	0xbd332520	-0.043736577
53	0xbd15c2fe	-0.036562912
54	0xbc1e4d5e	-0.009662
55	0xbd8b479e	-0.06800769
56	0xbd8b4e08	-0.06801993
57	0xbbd5f931	-0.00652995
58	0xbb85a483	-0.004078449
59	0xbd2a1efb	-0.04153345
60	0xbd812f05	-0.063077964
61	0xbbc280cc	-0.005935764
62	0xbc822f08	-0.015891567
63	0xbd006d26	-0.031354092
64	0x3cf8fdd7	0.030394478
65	0xbc836b67	-0.016042424
66	0xbb905082	-0.0044041285
67	0xbd1ad76b	-0.037803095
68	0x3d9fd6b3	0.078046225
69	0xbd1ca661	-0.03824461
70	0x3c0d27e0	0.008615464
71	0xbda97718	-0.082746685
72	0x3c87ff4e	0.016601231
73	0xbd2e14a7	-0.042500164
74	0xbccbf0a7	-0.024895025
75	0xbc026251	-0.007958011
76	0xbd9e19c1	-0.07719756
77	0xbd24a465	-0.04019584
78	0xbd1ad272	-0.037798353
79	0x3c970583	0.018435245
80	0x3c87df65	0.016586015
81	0x3b46dcf2	0.0030344096
82	0x3d43db4b	0.047816556
83	0xbdcefeb5	-0.10107175
84	0xbd147c94	-0.03625162
85	0x3d961211	0.07327665
86	0x3cfffdfc	0.031249039
87	0x3c532546	0.012887305
88	0xbd05978d	-0.032615233
89	0xbd80b4da	-0.06284495
90	0x3c97c019	0.018524216
91	0xbc19b98d	-0.009382618
92	0x3d863e13	0.065548085
93	0xbd8c54f2	-0.068521395
94	0xbd9ab2d8	-0.07553643
95	0xbd2d2651	-0.04227287
96	0xbdb108be	-0.086442456
97	0x3b1fdf97	0.0024394745
98	0xbd2d8a35	-0.042368133
99	0xbbf8421e	-0.007576241
100	0xbadefe7a	-0.0017013096
101	0xbc796af1	-0.015223251
102	0x3d40db69	0.047084246
103	0xbd84d79f	-0.06486439
104	0x3ee07bcd	0.43844453
105	0x3c6a4f3e	0.014301119
106	0xbc1c6c28	-0.009547271
107	0x3d7cb348	0.061694413
108	0x3da6142c	0.08109316
109	0xbc7f7f0b	-0.015594254
110	0xbd1a0e25	-0.037611146
111	0xbd8a846a	-0.06763537
112	0xbdaaf512	-0.08347525
113	0xbd97b319	-0.07407207
114	0xbdb5327e	-0.08847521
115	0xbcd630a8	-0.026146248
116	0xbc8c61f8	-0.017136559
117	0x3c2872b1	0.010281251
118	0x3ce96b68	0.028493598
119	0x3d1f457e	0.038884632
120	0xbd13bfb8	-0.03607151
121	0x3c35dcb3	0.011099982
122	0xbce8a3ce	-0.02839842
123	0x3d956beb	0.07295974
124	0xbc3d127a	-0.01154005
125	0x3c208d2a	0.009799281
126	0xbcc2d1d1	-0.023781689
127	0xbdf88450	-0.121346116
128	0x3d8d2f2a	0.068937615
129	0x3d671464	0.05641593
130	0x390931bd	0.00013083867
131	0xbd8bd160	-0.068270445
132	0x3d2c7e6b	0.04211275
133	0xbd86af81	-0.065764435
134	0xbdbb0866	-0.09132461
135	0xbc383503	-0.011243108
136	0xbd86504c	-0.06558284
137	0xbd554df6	-0.052076302
138	0xbd87cbab	-0.066306435
139	0xbd92c8ef	-0.07167231
140	0xbd9cca12	-0.07655729
141	0xbd87b40b	-0.06626137
142	0xbdb17093	-0.0866405
143	0x3d04b482	0.03239871
144	0x3c4e608b	0.01259626
145	0xbcc64889	-0.02420451
146	0x3bd479d9	0.006484252
147	0xbcdcb1f3	-0.026940322
148	0x3be2574d	0.0069073797
149	0xbcd0e84c	-0.025501393
150	0xbd9c3b98	-0.07628554
151	0xbd2d0da7	-0.042249348
152	0x3d00632c	0.031344578
153	0xbd1fe1f9	-0.039033864
154	0xbdb88ea2	-0.0901158
155	0xbd8c07dc	-0.068374366
156	0x3cfa2b78	0.030538306
157	0xbc97c36f	-0.018525807
158	0xbd891a0d	-0.06694422
159	0xbcdf4593	-0.027254855
160	0xbcfcfd63	-0.030882543
161	0xbd6c0b77	-0.05762812
162	0xbd8915ea	-0.06693633
163	0x3cd3ab7f	0.025838612
164	0x3d8ee6c1	0.069776066
165	0x3d9c8a9f	0.076436274
166	0x3cd34529	0.025789814
167	0x3b0fec99	0.0021961092
168	0xbe4d149d	-0.20027395
169	0xbbb28df8	-0.005449053
170	0xbd8afa64	-0.067860395
171	0x3d3212fd	0.04347514
172	0x3bc32d9e	0.0059563657
173	0xbda9bb5d	-0.0828769
174	0xbd1a9741	-0.037741903
175	0x3d336605	0.043798465
176	0xbdabe764	-0.08393744
177	0xbd16d735	-0.03682633
178	0xbcd3126d	-0.025765622
179	0xbe4590e7	-0.19293557
180	0xbd9a0e85	-0.07522301
181	0xbda1928a	-0.07889278
182	0xbc55c415	-0.013047238
183	0xbdbba695	-0.091626324
184	0xbd4f0a78	-0.050547093
185	0xbda46c87	-0.080285124
186	0x3d082a03	0.03324319
187	0xbd553fcb	-0.05206279
188	0x3d52203c	0.051300272
189	0x3d0cbfd3	0.034362625
190	0xbcb71e2b	-0.022353252
191	0xbd701323	-0.058612
192	0xbd763b74	-0.060115293
193	0xbd8e82ae	-0.06958519
194	0xbcf24e77	-0.02957843
195	0xbd500d53	-0.050793957
196	0x3d361cb3	0.044460963
197	0xbdc09ed0	-0.09405291
198	0xbb219b30	-0.002465915
199	0xbd26c012	-0.040710516
200	0xbe0742ff	-0.1320915
201	0x3ce29feb	0.027664145
202	0xbc3a2fd2	-0.01136394
203	0x3cd78eba	0.026313175
204	0xbc10f492	-0.008847373
205	0xbca65ce2	-0.020307962
206	0xbd05595c	-0.032555923
207	0x3e118f58	0.14214838
208	0x3d22fe81	0.039793495
209	0x3d037d24	0.032101765
210	0xbcfee94e	-0.031117108
211	0xbcfd6c66	-0.030935477
212	0xbd184bd4	-0.03718169
213	0xbdb11afa	-0.086477235
214	0xbbae5811	-0.005320557
215	0xbdcd7120	-0.100313425
216	0xbd1120ab	-0.035431545
217	0x3ca31f3a	0.01991235
218	0x3b801763	0.003909038
219	0xbdab29e6	-0.08357601
220	0xbd67ec35	-0.05662175
221	0xbd994309	-0.07483489
222	0x3d265019	0.04060373
223	0xbc7d659d	-0.015466121
224	0x3d29868c	0.04138808
225	0xbbc04d07	-0.0058685574
226	0xbd728679	-0.059210274
227	0x3d21cdf8	0.039503068
228	0xbe15093b	-0.14554302
229	0xbcb381e4	-0.021912523
230	0x39d33ced	0.0004029045
231	0x3cbe26cb	0.023211857
232	0xbd47daca	-0.048792638
233	0x3d4e39f5	0.05034824
234	0xbd39822c	-0.045290157
235	0x3c4c13a7	0.012455857
236	0x3c851704	0.016246326
237	0xbce4082b	-0.027835926
238	0xbdb7a0c7	-0.08966213
239	0xbcc14a78	-0.02359508
240	0xbd98cadc	-0.07460567
241	0xbc8adb10	-0.01695016
242	0xbd5810ce	-0.0527504
243	0xbccde790	-0.025134832
244	0xbcdd132b	-0.026986679
245	0x3ab26e93	0.0013613276
246	0xbd83b95d	-0.064318396
247	0xbd531896	-0.05153712
248	0xbd3ff15c	-0.046861038
249	0xbc2ebe06	-0.010665422
250	0xbda2267f	-0.07917499
251	0xbc5acac1	-0.013354004
252	0xbdc5ff60	-0.096678495
253	0xbd66fc4d	-0.056392957
254	0xbd3d2b58	-0.046183914
255	0xbd8cda35	-0.06877557

output_layer.weight f4 [2, 300]
0	0xbe0cac07	-0.13737498
1	0xbd2ee2fb	-0.042696934
2	0xbdd7f0a6	-0.10543947
3	0x3c9dfe21	0.019286217
4	0x3c9e6c50	0.019338757
5	0xbc7559b3	-0.014974999
6	0x3ba1f953	0.004943052
7	0xbd654a77	-0.05597922
8	0x3c43d27f	0.011952042
9	0x3c15189c	0.009100106
10	0x3bce5168	0.0062963255
11	0x3d26460c	0.040594146
12	0x3d891846	0.06694083
13	0xbc4112d4	-0.011784274
14	0xbd6f322a	-0.05839745
15	0x3db56ac0	0.088582516
16	0x3d205290	0.039141238
17	0x3d31efbd	0.043441523
18	0x3c57fb5d	0.013182488
19	0x3c4ab5ec	0.012372475
20	0x3d64aec9	0.05583075
21	0xbd44c14a	-0.048035897
22	0xbd0885b2	-0.033330627
23	0x3d185ca3	0.03719772
24	0xbd7ec7c6	-0.062202238
25	0xbc8ec100	-0.017426014
26	0x3c82f249	0.015984671
27	0xbe893f5f	-0.2680616
28	0xbd8cf510	-0.068826795
29	0x3d879188	0.06619555
30	0x3c613c96	0.013747355
31	0xbd757ddf	-0.059934493
32	0xbd0d370f	-0.034476336
33	0xbed170b7	-0.40906307
34	0xbdcce0dd	-0.10003827
35	0xbd95212d	-0.072817184
36	0xbd8ef795	-0.06980816
37	0xbd876775	-0.0661153
38	0xbcd8af88	-0.026450887
39	0xbca89f82	-0.020583872
40	0xbdbcbf2f	-0.09216153
41	0x3db57d66	0.088618085
42	0x3d86eea7	0.06588488
43	0xbc261134	-0.0101359375
44	0x3d858213	0.0651895
45	0xbc5ac218	-0.01335194
46	0xbdd36969	-0.1032284
47	0x3d2817ef	0.04103845
48	0x3ccb1687	0.024791015
49	0xb7d6e1ee	-2.5615995e-05
50	0xbdba92b2	-0.09110011
51	0xbc327200	-0.0108914375
52	0xbdfdf122	-0.12399508
53	0xbdfdf4c2	-0.124001995
54	0xbd2f7295	-0.042833883
55	0xbd583b20	-0.05279076
56	0xbcdfa951	-0.027302416
57	0xbeb2242b	-0.3479322
58	0x3df7093c	0.12062308
59	0xbce4d59d	-0.02793389
60	0x3d2a1c59	0.04153094
61	0x3d3032db	0.04301725
62	0x3b0506a1	0.002029814
63	0xbd8754e8	-0.066079915
64	0xbd004e20	-0.031324506
65	0xbd139485	-0.03603031
66	0x3d3a5951	0.045495335
67	0xbd51e9d8	-0.0512484
68	0x3dae22ad	0.08502708
69	0x3d0d1923	0.0344478
70	0x3dadb4ce	0.084817514
71	0x3dd17017	0.102264576
72	0xbd9ffc52	-0.07811798
73	0x3cf9399d	0.03042298
74	0x3dd428ae	0.103593215
75	0x3d90b29b	0.07065316
76	0xbb3393bb	-0.0027401287
77	0xbcc37546	-0.023859631
78	0x3e95a47e	0.2922706
79	0x3cf1eb32	0.029531095
80	0x3d62e932	0.055398174
81	0x3b52c1c8	0.003215896
82	0x3cbd2a03	0.023091322
83	0x398ec10c	0.00027228182
84	0x3d5588d4	0.052132443
85	0x3dc16571	0.094431765
86	0xbdab5b96	-0.08367078
87	0x3d1974d6	0.03746494
88	0x3c2050f5	0.009784927
89	0xbcbac476	-0.022798758
90	0x3c855669	0.016276555
91	0xbcc5c071	-0.024139615
92	0x3d223eaf	0.03961056
93	0xbd4711c6	-0.048600934
94	0xba26e357	-0.0006366274
95	0xbd561ca2	-0.0522734
96	0x3d68d163	0.05684031
97	0xbc54445e	-0.012955753
98	0x3b00ab6f	0.0019633432
99	0xbc5053fb	-0.012715335
100	0xbbec1cf0	-0.007205598
101	0x3d7d8aed	0.061900068
102	0x3d029155	0.03187688
103	0xbe98aa82	-0.29817587
104	0x3ccf520d	0.02530768
105	0xbd3a59b7	-0.045495715
106	0x3dab3958	0.08360547
107	0x3e6c6e9b	0.23089068
108	0x3d6817a4	0.05666317
109	0x3dcf7667	0.10130005
110	0xbc51d0d8	-0.01280614
111	0x3d7081c4	0.058717504
112	0x3d723c88	0.05913976
113	0x3bbdd1cf	0.0057928334
114	0xbcd3d07b	-0.025856247
115	0x3da49210	0.08035672
116	0xbac29bbb	-0.0014847437
117	0x3cbf907a	0.023384321
118	0xbd6331d9	-0.05546746
119	0xbcb22f2c	-0.021751009
120	0x3a742e04	0.0009314718
121	0xbd9609d1	-0.07326091
122	0x3ccb403e	0.024810906
123	0xbcac9e84	-0.02107168
124	0x3d5206e5	0.051276106
125	0xbc9c32d0	-0.019067198
126	0xbc858c7b	-0.016302338
127	0xba86d174	-0.001028581
128	0xbe036d2e	-0.12834617
129	0xbc229885	-0.009924059
130	0xbd7e0067	-0.062012102
131	0x3cdc532c	0.026895128
132	0xbdc812f7	-0.09769242
133	0x3d703cc2	0.058651693
134	0x3c6bcde0	0.014392346
135	0xbd669087	-0.056290176
136	0xbe4e968f	-0.20174621
137	0x3aa5aca1	0.0012639948
138	0xbe09f01d	-0.13470502
139	0xbe7ab88e	-0.24484465
140	0x3d289cf9	0.041165326
141	0xbdc740d7	-0.09729164
142	0x3d31956a	0.043355383
143	0x3d097f81	0.033568863
144	0x3d1d1167	0.038346674
145	0x3ed07a38	0.40718246
146	0xbd128b64	-0.035777465
147	0x3cc3e40c	0.023912452
148	0xbd0d085f	-0.03443181
149	0x3c90e2e7	0.01768632
150	0x3d53aaee	0.051676683
151	0xbd0ab8a6	-0.0338675
152	0x3d4a9851	0.049461666
153	0x3bcd012f	0.0062562446
154	0x3cf5c26e	0.029999938
155	0x3d682a83	0.056681167
156	0xbc7d7952	-0.01547082
157	0x3cd7829c	0.026307397
158	0x3d103c7a	0.035213925
159	0xbbe2df70	-0.0069236085
160	0x3d960ba2	0.073264375
161	0xbcc0d86e	-0.023540702
162	0x3d2561be	0.040376417
163	0xbd80abc6	-0.06282763
164	0x3d237e3e	0.039915316
165	0xbced1373	-0.028939938
166	0xbdc30e65	-0.0952423
167	0x3d266e32	0.040632434
168	0xbe4b962c	-0.19881505
169	0x3d3113e7	0.04323187
170	0xbd5bd22c	-0.053667232
171	0x3e914db0	0.28379583
172	0x3d005660	0.031332374
173	0xbd020ed0	-0.031752408
174	0x3d165bdc	0.036708698
175	0x3f1025ad	0.5630749
176	0xbd1b6077	-0.037933793
177	0x3eacec46	0.33774012
178	0xbd38922a	-0.045061268
179	0x3e20ce89	0.15703787
180	0xbd075ad4	-0.033045605
181	0xbd58ae0e	-0.052900366
182	0xbea3c62a	-0.31987125
183	0xbd07fc65	-0.033199687
184	0x3d8cd2ce	0.06876145
185	0x3c2e1e22	0.010627301
186	0x3b8d6efd	0.0043162093
187	0xbc275f53	-0.010215598
188	0xbda90bb6	-0.08254187
189	0xbdac4d85	-0.08413223
190	0xbd0aeabf	-0.033915278
191	0xbe3d28f0	-0.18472648
192	0x3ba1fa6d	0.004943183
193	0x3c1898f5	0.009313812
194	0x3d90855e	0.07056688
195	0x3d8ca497	0.068673305
196	0x3d4d822f	0.05017298
197	0xbe4c8d09	-0.19975676
198	0xbdddf604	-0.108379394
199	0x3d565cc7	0.052334573
200	0xbc6b6b51	-0.014368848
201	0x3d5c8e4c	0.053846642
202	0xbab7d492	-0.0014025143
203	0xbc15744e	-0.0091219675
204	0xbcdba7f6	-0.026813488
205	0xbd8bbc3e	-0.06823014
206	0x3d02f5e6	0.03197279
207	0x3bd9fd33	0.006652498
208	0xbd4c189e	-0.049828164
209	0xbbf4c49e	-0.0074697277
210	0xbdc18197	-0.094485454
211	0xbda3a1fa	-0.07989879
212	0x3cea45c8	0.028597727
213	0xbe1c05c6	-0.15236577
214	0xba4b7c6b	-0.0007762375
215	0x3ce23560	0.027613342
216	0x3d9c6d2a	0.07638009
217	0x3d55c9dc	0.05219446
218	0xbcecb433	-0.02889452
219	0xbb100eb6	-0.0021981425
220	0xbd84c8f7	-0.064836435
221	0xbeaf67ff	-0.3425903
222	0x3d1916db	0.037375312
223	0xbd966330	-0.07343137
224	0xbd0f54c9	-0.034992967
225	0xbc1520f8	-0.009102099
226	0x3cf19407	0.02948953
227	0xbbc24ae1	-0.0059293364
228	0x3d3b4d6e	0.04572814
229	0x3d16b8be	0.036797278
230	0xbcf31c49	-0.029676573
231	0xbab5c2c6	-0.0013867251
232	0x3e194879	0.14969052
233	0x3deeaf9c	0.116545886
234	0x3d7530e5	0.059861083
235	0xbd1c953c	-0.03822826
236	0xbd251150	-0.040299714
237	0xbc5d047a	-0.013489837
238	0xbd8a3ded	-0.06750093
239	0xbe1af918	-0.15134084
240	0xbc03c0ce	-0.008041574
241	0x3d16b095	0.036789495
242	0x3cdfb2d7	0.027306957
243	0x3cb2c8ea	0.021824319
244	0x3d41e092	0.047333308
245	0x3cacc0d0	0.021088034
246	0xbc6927bc	-0.014230665
247	0x3d143f47	0.03619316
248	0xba1bb24b	-0.00059393485
249	0x3ce8f004	0.02843476
250	0xbd1a160a	-0.037618674
251	0x3dbce10e	0.09222613
252	0x3dd1cab4	0.10243741
253	0x3c880f62	0.016608898
254	0x3d81e374	0.06342211
255	0xbd571cbd	-0.05251764

output_layer.bias f4 [2]
0	0xbc4b1433	-0.012394953
1	0xbcf14525	-0.029451916
