trained_model_original_200epochs.pth (torch, 369175 bytes, 6 tensors)

rnn_cell.weight_ih f4 [300, 2]
0	0xbc1ca6d0	-0.009561256
1	0xbb254a0b	-0.0025221135
2	0xbc3704fd	-0.011170623
3	0xbd6202ae	-0.055178337
4	0xbc92f416	-0.017938655
5	0x3e1031db	0.14081518
6	0x3d735cb8	0.059414595
7	0xbdda6619	-0.10664005
8	0xbc45034a	-0.01202471
9	0x3c90567b	0.017619362
10	0x3da931ee	0.082614765
11	0xbda75a06	-0.081714675
12	0xbd96a7b6	-0.07356207
13	0xbdc73689	-0.09727199
14	0x3c01e42d	0.0079279365
15	0x3c1f3b28	0.009718694
16	0xbcf5a2b8	-0.029984817
17	0x3c3b9e35	0.011451294
18	0x3d7bd103	0.061478626
19	0x3d612a95	0.05497225
20	0x3bfbc87d	0.007683812
21	0x3d951648	0.072796404
22	0x3d8d042c	0.06885561
23	0x3d229586	0.039693378
24	0x3c1e412b	0.009659092
25	0xbc842600	-0.016131401
26	0x3b37a86d	0.0028023974
27	0x3d504a2c	0.050851986
28	0x3d9c7d98	0.076411426
29	0x3daee5f1	0.085399516
30	0xbd3b4951	-0.045724217
31	0x3d670da6	0.0564095
32	0x3baa7214	0.0052015875
33	0xbd50252d	-0.050816704
34	0x3db9e49a	0.090768054
35	0xbd0364e0	-0.032078624
36	0xbdefe58b	-0.11713704
37	0x3c42d738	0.011892132
38	0x3dc49738	0.09599155
39	0xbda061f7	-0.07831185
40	0xbd642c45	-0.05570628
41	0x3dff8cce	0.12478028
42	0x3a535b80	0.0008062646
43	0xbccc34f6	-0.024927597
44	0x3d19bfd6	0.037536465
45	0x3e0fb88b	0.14035241
46	0xbde5e451	-0.112251885
47	0xbbd1f635	-0.006407524
48	0xbd116c75	-0.035503823
49	0x3986bd6d	0.00025699605
50	0x3d70e40a	0.058811225
51	0x3dc6bc5f	0.09703898
52	0xbd7772ed	-0.060412336
53	0x3da04dbc	0.07827327
54	0xbe9dfc0c	-0.3085636
55	0xbe740477	-0.23829828
56	0x3d302d74	0.043012097
57	0xbcb3f62c	-0.02196797
58	0xbd258dbf	-0.040418383
59	0xbc97ebe5	-0.0185451
60	0xbbf6cf36	-0.0075320257
61	0xbd3f1f77	-0.046660867
62	0xbd288e9d	-0.04115163
63	0xbdc2f1c7	-0.095187716
64	0xbc073d17	-0.008254311
65	0xbb50b958	-0.0031848755
66	0x3dbf45e8	0.093395054
67	0x3bb586c4	0.005539747
68	0x3cf3cf70	0.029762
69	0x3d1c606b	0.03817789
70	0x3bb75beb	0.0055956743
71	0xbb62b642	-0.0034593497
72	0x3d056f3e	0.032576792
73	0x3d006d42	0.031354196
74	0x3ced316a	0.028954227
75	0x3d0f5354	0.034991577
76	0xbc22e76c	-0.009942871
77	0x3dc1990f	0.09453022
78	0xbd736972	-0.059426732
79	0x3cde31eb	0.027123412
80	0x3e1bd8c4	0.15219408
81	0x3e20c5ff	0.1570053
82	0x3c645db8	0.01393836
83	0x3d09ed40	0.033673525
84	0xbd618434	-0.05505772
85	0x3c23a4bf	0.009988009
86	0x3d191247	0.037370946
87	0x3ce98e4f	0.02851024
88	0x3c381cda	0.0112373475
89	0x3d926540	0.07148218
90	0x3654d692	3.1715358e-06
91	0xbda92c6b	-0.08260425
92	0x3c6c8e52	0.014438229
93	0x3de2dc02	0.110771194
94	0xbd999e72	-0.07500924
95	0xbcc72a9b	-0.024312308
96	0x3d4a5a06	0.04940226
97	0x3c45e046	0.012077397
98	0xbcb8f1c4	-0.02257622
99	0xbd09a6a0	-0.03360617
100	0x3cff4aef	0.03116366
101	0x3de3d8c2	0.11125328
102	0x3d75f2ac	0.060045883
103	0xbd8dd717	-0.06925791
104	0xbe9a4d83	-0.30137262
105	0xbebb7620	-0.3661356
106	0x3ac1f781	0.0014798493
107	0x3dd36e41	0.10323764
108	0x3d036a07	0.032083537
109	0xbd5cfc53	-0.053951573
110	0x3d12c6b0	0.035834014
111	0xbc301e62	-0.010749431
112	0x3d18d3cb	0.037311357
113	0xbdaa67b8	-0.08320564
114	0x3dbd82d3	0.09253468
115	0x3c954670	0.018222064
116	0xbd95a90e	-0.07307635
117	0x3d38d468	0.04512444
118	0xbcdd5d33	-0.02702198
119	0xbdbd314c	-0.09237918
120	0x3cecade2	0.028891508
121	0xbd4ad097	-0.049515333
122	0x3e02455a	0.12721768
123	0x3dbb8ed1	0.091580994
124	0x3d44e596	0.048070513
125	0x3b79642b	0.003805409
126	0xbcc1d227	-0.023659779
127	0xbe033c88	-0.1281606
128	0xbd0ae377	-0.033908334
129	0xbd80596e	-0.06267057
130	0xbc74369b	-0.014905597
131	0xbdc0b832	-0.094101325
132	0xbc462633	-0.012094068
133	0x3cc70f68	0.024299338
134	0x3bd153e4	0.0063881744
135	0xbcbc91fe	-0.023018833
136	0xbca3a9bf	-0.019978402
137	0xbdb36703	-0.08759882
138	0xbda5e961	-0.08101154
139	0x3d3cb705	0.04607298
140	0xbdb140eb	-0.0865496
141	0x3c797e1c	0.015227821
142	0x3d5122c3	0.051058542
143	0x3d5e6055	0.054291088
144	0xbda58acc	-0.08083114
145	0x3c9b593e	0.018963452
146	0x3d908940	0.07057428
147	0x3d5f502f	0.05451983
148	0x3cfb8cb0	0.030706733
149	0xbd3449a9	-0.04401556
150	0xbbe723aa	-0.007053812
151	0xbc93f218	-0.018059775
152	0x3e8d3353	0.2757822
153	0x3dc45da0	0.0958817
154	0x3d684199	0.056703184
155	0x3de27613	0.11057677
156	0xba656b8d	-0.0008751683
157	0xbb1d5047	-0.0024004148
158	0x3c8ed3fa	0.017435063
159	0xbd986fed	-0.07443223
160	0xbd0e6d26	-0.03477206
161	0xbdb8c0f6	-0.090211794
162	0x3d29e63e	0.04147934
163	0xbda3ecc6	-0.08004145
164	0xbd1b120e	-0.037859015
165	0x3dabecb8	0.0839476
166	0xbca5f8b4	-0.020260192
167	0x3db1790e	0.086656675
168	0xbd06edd9	-0.032941673
169	0xbc0ba520	-0.008523256
170	0xbca6aac5	-0.020345101
171	0xbde907ad	-0.11378417
172	0xbd3620ea	-0.044464983
173	0xbc3ef5de	-0.011655299
174	0x3ca5f3e7	0.020257903
175	0xbd3b228d	-0.045687247
176	0x3cb6db16	0.022321265
177	0xbd67a2a0	-0.056551576
178	0x3d4c5c93	0.049892973
179	0x3ddcf087	0.107880645
180	0x3cd96789	0.026538627
181	0xbc9f1df1	-0.019423457
182	0x3dd55c2b	0.1041797
183	0x3d67728e	0.056505732
184	0xbcd63aed	-0.026151145
185	0x3c06611b	0.008201863
186	0x3cacf954	0.021114983
187	0xbbe71ee8	-0.007053245
188	0x3d9c6a28	0.07637435
189	0x3d39b015	0.04533394
190	0x3c122e05	0.008922105
191	0xbcb66c3c	-0.022268407
192	0xbc8955f4	-0.016764618
193	0xbc359a06	-0.011084085
194	0x3dc1215d	0.09430192
195	0x3cf4050c	0.029787563
196	0xbd5b1258	-0.05348429
197	0x3de92a86	0.11385064
198	0x3c7c6ba6	0.015406525
199	0x3c6e64d1	0.014550404
200	0xbcb2bd97	-0.02181892
201	0xbd8fae94	-0.0701572
202	0x3c803d16	0.015654128
203	0xbd503a85	-0.05083706
204	0xbca2ba22	-0.019864146
205	0xbd5047bd	-0.050849665
206	0xbca0c7f0	-0.019626588
207	0x3dd0eaff	0.10201072
208	0xbc4adb34	-0.012381364
209	0xbc07ed5b	-0.008296336
210	0xbd4a61cd	-0.049409676
211	0x3d5d3372	0.05400414
212	0xbd3a47c3	-0.045478594
213	0xbd9081f6	-0.07056038
214	0x3d47f301	0.04881573
215	0xba99ede8	-0.0011743875
216	0x3d7c1776	0.06154581
217	0x3def9706	0.11698727
218	0xbbcea7f0	-0.006306641
219	0xbc02c56c	-0.007981639
220	0xbbc14078	-0.005897578
221	0x3e07d4e4	0.13264805
222	0xbcb30013	-0.021850621
223	0x3d8dd5b0	0.06925523
224	0x3d8955f2	0.06705846
225	0xbd101342	-0.035174616
226	0x3cdcbc37	0.026945217
227	0x3d93463e	0.07191132
228	0x3db684fe	0.08912085
229	0x3da8a5b4	0.0823473
230	0xbcf83170	-0.030297011
231	0xbd1db694	-0.0385042
232	0x3c8a79d4	0.016903795
233	0x3c6ce640	0.014459193
234	0xbd861c12	-0.06548323
235	0x3d4933e0	0.049121737
236	0xbd2ce85e	-0.04221379
237	0xbdf75b77	-0.120779924
238	0x3b25ec11	0.0025317708
239	0x3d283b8b	0.04107241
240	0x3ce8a114	0.02839712
241	0xbd308231	-0.04309291
242	0xbd62e0c4	-0.055390134
243	0x3df26f50	0.118376374
244	0x3d80545a	0.06266089
245	0xbd0a0ce3	-0.033703696
246	0x3caaf7c6	0.0208701
247	0xbc2603a8	-0.010132708
248	0x3ccd38c8	0.02505149
249	0x3cde6692	0.027148519
250	0xbc72e764	-0.014825676
251	0x3cdab800	0.026699066
252	0x3c4a6ce8	0.012355067
253	0xbd45f2fe	-0.04832744
254	0xbdb96982	-0.09053327
255	0x3d4b3312	0.04960925

rnn_cell.weight_hh f4 [300, 300]
0	0xbd1991fb	-0.037492733
1	0x3d1adcbb	0.03780816
2	0x3cf10d00	0.029425144
3	0x3d11fa24	0.035638943
4	0x3c96dd76	0.018416148
5	0x3d0b6336	0.03403016
6	0x3c818b36	0.015813451
7	0xbbb3e010	-0.005489357
8	0x3d676e0e	0.05650144
9	0xbc7e52e5	-0.015522693
10	0xbd76ffee	-0.060302667
11	0x3c0eccda	0.008715833
12	0x3d1b8186	0.03796532
13	0xbcf52e97	-0.029929442
14	0xbd82ee36	-0.063930914
15	0x3d5cf9c6	0.05394914
16	0x3d3f8148	0.04675415
17	0xbd194b3e	-0.037425272
18	0xbc4459e0	-0.0119843185
19	0xbd55472a	-0.05206982
20	0x3c0ef010	0.008724228
21	0x3d153eec	0.03643696
22	0xbd8235e4	-0.06357935
23	0xbc3abb5a	-0.011397207
24	0xbc187adc	-0.009306636
25	0xbd6772f8	-0.056506127
26	0xbc971e85	-0.01844717
27	0xbd0170f2	-0.031601854
28	0xbcce2f82	-0.025169138
29	0x3b5302d5	0.0032197733
30	0xbd80a709	-0.062818594
31	0xbb135e5c	-0.0022486662
32	0xbd1cf8fc	-0.038323388
33	0xbc83a19c	-0.016068272
34	0x3c07be70	0.00828515
35	0xbd3d1de9	-0.046171103
36	0x3c28a350	0.010292843
37	0xbcdc0b9a	-0.026861
38	0x3d1b32d8	0.037890285
39	0x3cecfd34	0.02892933
40	0x3c8eae55	0.017417112
41	0xbd3b513c	-0.045731768
42	0xbd2a2ae0	-0.041544795
43	0xbd3783e3	-0.04480351
44	0xbdab59c3	-0.0836673
45	0xbc438ca8	-0.0119353905
46	0x3cfadab8	0.030621871
47	0xbd62b6f4	-0.05535026
48	0xbc00117a	-0.007816667
49	0xbd65d181	-0.056108
50	0xbd102fd2	-0.035201855
51	0xbca2bb57	-0.019864721
52	0xbd068d7b	-0.03284977
53	0xbd610589	-0.05493692
54	0xbd586baa	-0.05283705
55	0x3c5e2652	0.013558941
56	0xbd5cf7b1	-0.053947154
57	0xbd6a5ff9	-0.057220433
58	0x3cd103df	0.025514541
59	0x3c90bb64	0.01766748
60	0xbd84d375	-0.06485645
61	0xbcb5fa82	-0.022214178
62	0xbdaa8aa0	-0.08327222
63	0xbd4db784	-0.050223842
64	0xbd4ad8a6	-0.04952302
65	0xbd885d01	-0.06658364
66	0xbc8dd251	-0.0173122
67	0x3d2c9ba8	0.042140633
68	0xbd4b761b	-0.04967318
69	0x3d271563	0.04079188
70	0xbd191b77	-0.03737971
71	0xbd69131a	-0.056902982
72	0xbd737f10	-0.059447348
73	0x3c219812	0.009862917
74	0xbd2ab908	-0.041680366
75	0x3d0e61c7	0.034761216
76	0xbdb190f7	-0.08670228
77	0xbd7e5535	-0.06209298
78	0xbd9e8c95	-0.07741658
79	0x3c9863b7	0.018602235
80	0xbd4924bf	-0.04910731
81	0xbcc8a024	-0.024490424
82	0xbd48881c	-0.04895793
83	0x3b933973	0.0044929325
84	0xbd19f866	-0.037590407
85	0x3b991656	0.004671852
86	0x3ce2e44b	0.02769675
87	0xbd37b623	-0.044851433
88	0x3d196e71	0.03745884
89	0xbd4f4c8b	-0.050610106
90	0xbb9a649d	-0.004711701
91	0xbcc0d2f4	-0.02353809
92	0xbd8f4e51	-0.069973595
93	0xbc254560	-0.010087341
94	0xbd59fecc	-0.05322151
95	0xbd093552	-0.033498116
96	0xbdabd6cb	-0.08390578
97	0x3cd6cf5d	0.026221925
98	0x3d369de2	0.044584163
99	0xbd66fa1f	-0.056390878
100	0x3b99eebd	0.0046976493
101	0xbcb148af	-0.021641104
102	0xbd271280	-0.040789127
103	0x3d374858	0.044746727
104	0xbcc67a4f	-0.024228243
105	0xbcc845e0	-0.024447381
106	0xbac1628f	-0.0014754104
107	0x3ca2193f	0.019787429
108	0xb7a15000	-1.9229949e-05
109	0x3cf35a7c	0.029706232
110	0xbd35eced	-0.044415403
111	0x3c88eb45	0.016713748
112	0x3d02d3b4	0.031940177
113	0xbb91ea7b	-0.004453001
114	0x3d37525a	0.04475627
115	0x3cf5a868	0.029987529
116	0xbce946a8	-0.028476074
117	0xbd0411d5	-0.03224357
118	0xbc947063	-0.018119996
119	0xbaea9b40	-0.0017899051
120	0xbd6c6bec	-0.05772011
121	0xbd3d3773	-0.04619546
122	0xbd422ada	-0.047404148
123	0x3cc58c8e	0.024114873
124	0xbd3e06f8	-0.046393365
125	0xbcd63d5e	-0.026152309
126	0x3ca9b4b8	0.020716056
127	0x3b580ef9	0.0032967909
128	0x3d3040b6	0.043030463
129	0x3d090310	0.033450186
130	0x3d516680	0.051123142
131	0x3d14efbe	0.03636145
132	0x39e85fcd	0.00044321865
133	0xbce08571	-0.02740738
134	0xbd1bd30b	-0.038043063
135	0xbd28e829	-0.04123703
136	0x3ce74ec8	0.028235808
137	0x3c465fd0	0.012107804
138	0xbd2251fc	-0.039628968
139	0x3c00ae10	0.007854
140	0x3d4342e0	0.0476712
141	0x3cebb844	0.028774388
142	0xbc2b8780	-0.010469317
143	0x3d012950	0.03153354
144	0x3c4773bc	0.012173589
145	0xbcbb4e46	-0.022864472
146	0x3cfa07a0	0.030521214
147	0x3d01c9a2	0.031686433
148	0xbd23a51b	-0.03995238
149	0x3d3863c2	0.04501701
150	0xbbadde9e	-0.005306079
151	0xbc8f42e4	-0.01748795
152	0x3d10a8c6	0.035317205
153	0x3c51459f	0.012772947
154	0xbda3ca9f	-0.07997631
155	0x3d599cf2	0.05312819
156	0xbce8aec5	-0.02840365
157	0x3bf39d17	0.007434498
158	0xbd10fd03	-0.03539754
159	0xbd51cefe	-0.051222794
160	0xbc6faea9	-0.014629045
161	0x3bda0270	0.0066531226
162	0xbcccf516	-0.02501921
163	0xbc259568	-0.010106422
164	0xbc7a202c	-0.015266459
165	0x3d354280	0.044252872
166	0x3cd654ce	0.026163485
167	0x3cad06c3	0.021121388
168	0x3baf94e0	0.0053583235
169	0x3cda58b0	0.026653618
170	0xbcc51206	-0.024056446
171	0xbda436cc	-0.08018264
172	0x3c8ac024	0.016937323
173	0xbcc9fbda	-0.024656225
174	0x3ca2566a	0.019816596
175	0xbda5dd73	-0.08098879
176	0xbd47adc8	-0.048749715
177	0x3c5e6328	0.013573445
178	0xbdb4ee97	-0.0883457
179	0x3d56658e	0.052342944
180	0xbc019890	-0.007909909
181	0xbd80fbf6	-0.06298058
182	0xbc0904d4	-0.0083629675
183	0x3d4c71da	0.049913265
184	0xbd7cc5bf	-0.061712023
185	0xbd146385	-0.03622772
186	0xbd5bfdea	-0.05370895
187	0x3d07ad3c	0.033124194
188	0xbd424fb4	-0.047439292
189	0x3d2f88c6	0.042855047
190	0x3c131418	0.008976959
191	0xbcf9e09b	-0.030502608
192	0xbd332513	-0.04373653
193	0xbbd64278	-0.0065386854
194	0x3d0f9de2	0.03506268
195	0xbd474d8b	-0.048657935
196	0xbd2c8ec9	-0.042128358
197	0x3ccbe79f	0.024890719
198	0x3c5ff410	0.013669029
199	0x3d1423cc	0.03616695
200	0xbd053b6a	-0.032527365
201	0x3c20af55	0.009807427
202	0xbd64cdc6	-0.055860303
203	0xbd78a5e2	-0.060705073
204	0xbd5c9910	-0.05385691
205	0xbc27652b	-0.010216991
206	0xbd60b025	-0.054855485
207	0x3cc3472a	0.023837645
208	0xbd6d4400	-0.057926178
209	0xbcd00f61	-0.025397958
210	0xbd42d6a9	-0.047567997
211	0xbd39da6d	-0.045374323
212	0x3ce7bb2b	0.02828749
213	0xbd02a40c	-0.03189473
214	0xbd2d97fb	-0.042381268
215	0xbd154e7b	-0.036451798
216	0xbccf17fc	-0.025279991
217	0xbd9f3870	-0.077744365
218	0xbd2c1f65	-0.042022128
219	0x3c4ce369	0.012505391
220	0x3ce20821	0.027591767
221	0xbc57fb64	-0.013182495
222	0x3d1758c6	0.036949895
223	0x3cc27138	0.023735628
224	0xbd5ac013	-0.053405832
225	0x3b8c3308	0.0042785443
226	0xbb30209b	-0.0026874903
227	0xbc8b1ece	-0.016982462
228	0x3d60959c	0.05483018
229	0xba54dcc0	-0.00081200525
230	0xbc851f5d	-0.016250307
231	0xbd10ac24	-0.035320416
232	0xbd25adb3	-0.040448856
233	0x3c3c98d0	0.011511043
234	0xbc0935ed	-0.008374673
235	0xbd6bf280	-0.057604313
236	0x3c14e37d	0.009087441
237	0xbb87f5f9	-0.0041491953
238	0xbd642edd	-0.055708755
239	0xbd424557	-0.04742941
240	0xbd6820e1	-0.05667198
241	0x3c0a0af8	0.008425467
242	0x3c4d5f38	0.012534909
243	0xbb3f5618	-0.0029195603
244	0x3d2e7444	0.04259135
245	0x3d3e2033	0.046417426
246	0x3c9dfa40	0.019284368
247	0x3b821ff8	0.003971096
248	0x3b61ddb9	0.0034464432
249	0xbd06c1e1	-0.03289974
250	0xbcbde4e6	-0.023180436
251	0xbc321667	-0.010869599
252	0x3c34a327	0.011025227
253	0x3d06de69	0.03292695
254	0xbd5ab9fa	-0.053400017
255	0xbd747ecc	-0.059691235

rnn_cell.bias_ih f4 [300]
0	0xbcfc080f	-0.030765561
1	0x3d574c72	0.05256314
2	0x3be06329	0.0068477583
3	0xbd3366cc	-0.043799207
4	0xbcee93d5	-0.029123226
5	0x3c36b969	0.011152604
6	0x3c36fd38	0.0111687705
7	0xbce9980c	-0.028514884
8	0xbd4ceed7	-0.050032463
9	0x3c6936ed	0.014234287
10	0xbba76cce	-0.005109406
11	0x3d6afedc	0.05737196
12	0xbdc9c7e8	-0.09852582
13	0x3aa8958b	0.001286195
14	0xbcc95cd3	-0.024580395
15	0xbd609a56	-0.054834686
16	0xbd20c7ee	-0.039253168
17	0x3ca01fc1	0.019546391
18	0x3d87a390	0.06622994
19	0xbd402a88	-0.04691556
20	0x3dbc8212	0.092044964
21	0xbdb96436	-0.09052317
22	0x3bd595b3	0.0065180897
23	0xbc06b9b1	-0.008222983
24	0xbb8d6029	-0.0043144417
25	0x3b98e693	0.0046661585
26	0x3d9cd9cd	0.0765873
27	0x39b0abcf	0.00033697343
28	0xbd07b6da	-0.033133365
29	0xbcff5a89	-0.0311711
30	0x3c735944	0.014852826
31	0xbc5087f2	-0.012727724
32	0xbe1eeb4d	-0.15519448
33	0xbce2e4de	-0.027697023
34	0x3dafbe08	0.085811675
35	0xbcf98239	-0.030457603
36	0xbd981bf1	-0.074272044
37	0x3c42eae3	0.011896822
38	0x3d5eb37f	0.0543704
39	0x3d8e56c3	0.06950142
40	0xbc63a4ab	-0.01389424
41	0xbd389eb0	-0.04507321
42	0xbc25547f	-0.010090946
43	0xbd97f211	-0.074192174
44	0xbb0033d9	-0.0019562154
45	0x3c1b348e	0.009472979
46	0x3bb76bd3	0.0055975704
47	0x3d1b875f	0.037970897
48	0xbd1933e4	-0.037403002
49	0x3c84d8ff	0.016216753
50	0xbb01531a	-0.001973337
51	0xbcb14b0e	-0.021642234
52	0xbc9d1f12	-0.019179855
53	0xbd3eea50	-0.046610177
54	0x3d54bb40	0.051936388
55	0xbc0f8e91	-0.008762018
56	0xbb71f659	-0.0036920516
57	0xbc599ab5	-0.013281514
58	0x3d7814df	0.06056678
59	0xbcd42013	-0.0258942
60	0xbccfe08b	-0.025375625
61	0x3d29067b	0.041265946
62	0x3c1083c2	0.008820476
63	0x3d0b7690	0.034048617
64	0x3b9bc109	0.004753236
65	0xbb8b3024	-0.004247682
66	0x3c92ee07	0.017935766
67	0xbdaf3c67	-0.08556443
68	0x3cd5a20c	0.026078247
69	0x3bcf72cd	0.006330824
70	0x3bcf551c	0.0063272845
71	0xbd643594	-0.05571516
72	0xbc6df1f7	-0.014523021
73	0x3c2a8910	0.010408655
74	0xbce09166	-0.027413081
75	0xbc887a10	-0.016659766
76	0xbcee1a6f	-0.029065339
77	0xbc09ec47	-0.008418149
78	0x3bd21719	0.006411445
79	0xbd305ab0	-0.043055236
80	0x3d5e0f86	0.054214023
81	0x3d71e1fb	0.059053402
82	0xbcd3bdd6	-0.025847357
83	0x3cba4527	0.022738053
84	0xbc8de6b8	-0.01732193
85	0xbcb1d46f	-0.021707742
86	0x3d0ac1db	0.03387628
87	0x3cccb732	0.024989698
88	0xbc2ce0c9	-0.01055164
89	0xbd2426fb	-0.040076237
90	0xbd6778ef	-0.056511816
91	0x3c75fe98	0.015014313
92	0xbcd88cb3	-0.026434278
93	0xbd3b51c3	-0.04573227
94	0x3d941005	0.07229618
95	0x3c5df7e0	0.013547868
96	0x3cba0c04	0.022710808
97	0x3d685727	0.05672374
98	0x3d435c8a	0.047695674
99	0xbcfea4ed	-0.031084502
100	0x3d3a93a5	0.04555096
101	0xbc15f38b	-0.009152303
102	0x3d2d733b	0.04234622
103	0xbd4b50b9	-0.04963753
104	0xbcec4662	-0.028842155
105	0x3bd54908	0.00650895
106	0x3cd8beaf	0.026458113
107	0x3cbd45d2	0.023104582
108	0x3d98fac9	0.074697085
109	0xbd870569	-0.06592829
110	0x3cae0532	0.021242712
111	0x3c94a01c	0.018142752
112	0xbd37fdb5	-0.04491969
113	0xbd97ad77	-0.07406133
114	0xbd2d22ba	-0.042269446
115	0xbd95b388	-0.073096335
116	0xbc2f55d9	-0.01070162
117	0x3c8fb7f1	0.017543765
118	0xbd2d7cbf	-0.042355295
119	0xbd328ff4	-0.043594316
120	0x3bed230f	0.0072368453
121	0x3cd18a95	0.025578776
122	0xbc97335b	-0.018457105
123	0x3d46ee55	0.048567135
124	0x3c2d2d6b	0.0105699105
125	0xbcbaef32	-0.022819135
126	0xbdd06ab7	-0.10176604
127	0xbd2531e3	-0.04033078
128	0x3cb2cf60	0.0218274
129	0xbd143ed8	-0.036192745
130	0xbba1f298	-0.0049422495
131	0xbaf33754	-0.0018555918
132	0x3c392854	0.011301119
133	0x3d73daff	0.059535023
134	0x3d485caf	0.048916515
135	0x3d54d775	0.05196329
136	0xbd418429	-0.04724518
137	0x3ba56728	0.0050476976
138	0x3d57a397	0.052646246
139	0xbc81a17a	-0.015824068
140	0xbccae3b5	-0.024766782
141	0x3bc1431b	0.005897892
142	0xbcebc78f	-0.02878168
143	0xbc9b47b4	-0.01895509
144	0x3d8c7ec8	0.06860119
145	0x3cb7a165	0.022415826
146	0xbcc87f65	-0.024474809
147	0xbc9e84b7	-0.019350393
148	0xba71bb19	-0.00092213
149	0x3c54859b	0.012971307
150	0x3b28c07d	0.0025749498
151	0x3d071150	0.032975495
152	0x3d871934	0.06596604
153	0xbd1626bb	-0.03665803
154	0x3c1bd5ab	0.009511392
155	0x3c9d11e5	0.019173572
156	0xbd83d1e1	-0.064365156
157	0xbc8bd3c2	-0.017068747
158	0xbc58bc36	-0.013228467
159	0xbb87196a	-0.0041229026
160	0xbd08928e	-0.03334289
161	0x3d1d2615	0.038366396
162	0xbcc0e345	-0.02354587
163	0xbd0c3c83	-0.034237396
164	0xbd831f95	-0.06402508
165	0x3cdb3a2e	0.02676114
166	0xbd320807	-0.043464687
167	0xbcb76072	-0.022384856
168	0xbd1f4859	-0.038887355
169	0xbd8e0a10	-0.06935513
170	0x3d99536d	0.07486615
171	0xbccf4e86	-0.025305998
172	0xbd0ed434	-0.03487034
173	0x3bd9b605	0.006644013
174	0x3d1aeff5	0.037826497
175	0x3db5ff1d	0.088865496
176	0x3c922441	0.017839553
177	0xbd606ba9	-0.054790173
178	0x3d3b13ef	0.045673307
179	0x3d9646d0	0.07337725
180	0x3d242b9c	0.04008065
181	0xbd1e31f8	-0.038621873
182	0x3ce92a3a	0.028462518
183	0xbdc44ebd	-0.09585331
184	0x3cb3b7bf	0.021938203
185	0xbb835f22	-0.0040091434
186	0xbdd442ed	-0.103643276
187	0x3c005065	0.007831668
188	0xbd4e636d	-0.05038779
189	0xbd2fef26	-0.04295268
190	0xbc17eb1d	-0.009272364
191	0xbd16931b	-0.036761384
192	0xbd963efb	-0.07336231
193	0x3c7a1335	0.015263368
194	0xbd122e24	-0.035688534
195	0xbd0f646c	-0.03500788
196	0xbd376722	-0.04477609
197	0xbcdcad4c	-0.026938103
198	0xbc1830b0	-0.009288952
199	0x3b2430a2	0.0025053401
200	0x3d640577	0.055669274
201	0xbc317cfe	-0.010833023
202	0xbda3f340	-0.08005381
203	0x3da2d56f	0.079508655
204	0xbcb46579	-0.022021042
205	0x3d2490c6	0.04017713
206	0x3da92470	0.08258903
207	0x3d0b87a8	0.03406492
208	0x3be05e50	0.0068471804
209	0xbd3f42ae	-0.04669445
210	0xbcb8ab51	-0.022542628
211	0xbc40a346	-0.011757677
212	0x3cb79ca2	0.022413556
213	0xbd29dcc1	-0.041470293
214	0x3c148420	0.009064704
215	0xbc83e042	-0.016098145
216	0xbd66ecf7	-0.05637833
217	0xbccb6351	-0.024827631
218	0x3cd2b987	0.025723232
219	0x3c145db0	0.00905554
220	0x3c854a10	0.016270667
221	0xbd47ce71	-0.048780862
222	0xbd15af43	-0.036544096
223	0x3d7a2ae4	0.06107606
224	0x3d6c24bb	0.057652216
225	0xbc448408	-0.011994369
226	0x3b5593a7	0.0032589228
227	0xba749d2b	-0.0009331281
228	0x3c977788	0.018489614
229	0xbdaa12d7	-0.08304375
230	0x3d680ef8	0.0566549
231	0xbbc0e92f	-0.0058871727
232	0x3be248c8	0.006905649
233	0x3d10a228	0.035310894
234	0xbcb0e988	-0.021595731
235	0xbc0c3884	-0.008558396
236	0xbd5e7901	-0.054314617
237	0xbbc61c55	-0.006045858
238	0x3cf93142	0.030418996
239	0xbd87f788	-0.0663901
240	0x3cb29bbc	0.021802776
241	0x3c1d83c0	0.009613931
242	0xbccf1d9d	-0.025282675
243	0xbc54249d	-0.012948182
244	0x3ce80e30	0.028327078
245	0x3ba0188c	0.0048857387
246	0xbd05cd09	-0.03266624
247	0xbd9f049e	-0.077645525
248	0x3d3a2a30	0.04545039
249	0xbd82322b	-0.06357225
250	0xbd114fb4	-0.0354764
251	0x3d2721c3	0.040803682
252	0x3c84eeb9	0.016227113
253	0xbd3703bf	-0.044681307
254	0x3d96c668	0.07362062
255	0x3cec9062	0.02887744

rnn_cell.bias_hh f4 [300]
0	0xbd200318	-0.03906545
1	0x3b8882ef	0.004165999
2	0x3dc31317	0.095251255
3	0xbda6f09e	-0.08151363
4	0x3cc6a206	0.02424718
5	0xbc952f98	-0.018211171
6	0x3c36bbe0	0.011153191
7	0x3c670a23	0.014101538
8	0xbd679777	-0.056540933
9	0xbc8b70d4	-0.017021574
10	0xbd1b70ab	-0.037949245
11	0x3d90db63	0.07073095
12	0xbdaaa995	-0.083331265
13	0x3c1a6ac3	0.009424868
14	0x39284c62	0.00016050183
15	0xbd9902a9	-0.074712105
16	0xbc0c973d	-0.00858098
17	0x3c8879a8	0.016659573
18	0x3cf9ae1a	0.030478526
19	0xbcf245b4	-0.029574253
20	0x3c418057	0.011810384
21	0xbd83737d	-0.06418512
22	0x3d8b0fce	0.06790124
23	0x3d4bc4cc	0.049748227
24	0x3c2491e6	0.0100445505
25	0xbd4b90e1	-0.049698714
26	0xbc08b994	-0.0083450265
27	0xbbd784af	-0.0065770964
28	0xbd8acd57	-0.06777447
29	0xbc8df82b	-0.01733025
30	0xbd5d4408	-0.054019958
31	0xbca466f3	-0.020068621
32	0xbe336e31	-0.17522503
33	0xb9c05d87	-0.00036690777
34	0x3c612fe3	0.013744327
35	0xbc11e5b1	-0.00890486
36	0xbdbd2ab5	-0.09236661
37	0xbc8d07d8	-0.017215654
38	0x3cd499fd	0.025952334
39	0x3db326af	0.08747613
40	0xbd01fb87	-0.031734016
41	0xbda42795	-0.08015362
42	0xbcb1b199	-0.02169113
43	0xbcd3225c	-0.02577322
44	0x3dd19ec9	0.10235364
45	0xbd2a4120	-0.041566014
46	0x3db3b994	0.087756306
47	0xbd10d0c2	-0.035355337
48	0xbcda5aff	-0.026654718
49	0xbd60c80f	-0.05487829
50	0xbd435788	-0.0476909
51	0xbd2c549c	-0.042072877
52	0xbb193f77	-0.0023383775
53	0x3bed46c7	0.0072411033
54	0xbd76a8f6	-0.060219727
55	0xbd4af4c7	-0.049549844
56	0xbd4541bb	-0.04815839
57	0xbc19a436	-0.00937753
58	0x3d221a3d	0.039575804
59	0x3c9726d7	0.018451137
60	0x3cee55f2	0.029093716
61	0x3b2d0508	0.0026400704
62	0xbc8409f9	-0.016118037
63	0xbb874b97	-0.004128884
64	0xbd2d8f0a	-0.04237274
65	0x3cc7de67	0.024398042
66	0x3d021b23	0.03176416
67	0xbc75d0a2	-0.015003355
68	0xbd7963f0	-0.060886323
69	0xbc881154	-0.016609825
70	0x3c067453	0.008206445
71	0xbd20cf18	-0.03926
72	0x3d313480	0.04326296
73	0xbd6a99cb	-0.057275575
74	0xbd4fb809	-0.05071262
75	0x3be3fa54	0.0069573317
76	0x3d773fb9	0.060363505
77	0xbd7863d8	-0.060642093
78	0xbcf7631a	-0.030198622
79	0x3d08d617	0.033407297
80	0x3d7ac7dd	0.06122576
81	0x3bcb9f8a	0.006214087
82	0x3d065ae8	0.03280154
83	0x3c8f53ed	0.017496074
84	0xbce48aea	-0.02789827
85	0x3cebef5c	0.028800659
86	0x3d31106d	0.043228555
87	0xbd60acb3	-0.0548522
88	0xbd73ee29	-0.0595533
89	0x3c59e45c	0.013299074
90	0xbd779623	-0.060445916
91	0xbd8fc40d	-0.070198156
92	0xbc861b6e	-0.016370501
93	0xbd4046f1	-0.046942655
94	0x3d932919	0.07185573
95	0xba1ea324	-0.00060515315
96	0xbc468a9b	-0.012118007
97	0x3d145080	0.036209583
98	0x3d1ff80c	0.039054915
99	0xbd90f341	-0.07077647
100	0x3cb6b882	0.022304777
101	0xbcd1a806	-0.025592815
102	0x3d1f32e7	0.038866904
103	0xbd3806ac	-0.044928238
104	0xbd667e71	-0.056272928
105	0x3c37f97b	0.011228914
106	0x3ca23e8e	0.019805219
107	0x3d366b37	0.04453584
108	0x3c13d0dc	0.009021964
109	0xbd5663b2	-0.05234117
110	0x3d7efbbd	0.062251795
111	0x3c5e7985	0.013578777
112	0xbd36de8e	-0.04464584
113	0x3cf7b2ab	0.030236563
114	0x3d8a5019	0.06753559
115	0xbd97aee4	-0.074064046
116	0xbd8967a7	-0.06709223
117	0x3d3c1f19	0.045928095
118	0x3c6a238b	0.014290701
119	0xbd01678c	-0.03159289
120	0xbd08a2c3	-0.033358347
121	0x3cef56ef	0.029216258
122	0xbd826ade	-0.063680395
123	0x3b2c7b2a	0.0026318529
124	0x3dac4ffa	0.08413692
125	0xb9e7d3fb	-0.0004421769
126	0xbdab8717	-0.08375376
127	0x3cf04fd6	0.029334944
128	0x3d57e2e5	0.052706618
129	0x3a26f30d	0.0006368615
130	0xbd056750	-0.03256923
131	0xbd002f9d	-0.031295408
132	0x3d924071	0.071411975
133	0xbcc9669f	-0.024585066
134	0x3d273825	0.040825028
135	0x3c5c162f	0.013433023
136	0xbd4168d7	-0.047219124
137	0xbd9cf414	-0.07663742
138	0xbc409672	-0.011754619
139	0x3cc0d142	0.023537282
140	0xbcd5c22d	-0.026093567
141	0x3d2c3203	0.042039882
142	0x3c980aeb	0.018559894
143	0xbcb12764	-0.021625228
144	0x3d3a6779	0.045508835
145	0x3cb3fec5	0.02197207
146	0xbd477250	-0.048693
147	0x3d14768b	0.036245864
148	0x3db3bb94	0.08776012
149	0x3d79c4cb	0.060978692
150	0xbdaccfec	-0.084380955
151	0x3c86fa57	0.016476793
152	0x3d6fadb0	0.05851525
153	0xbd4504c0	-0.048100233
154	0x3d0add0e	0.03390222
155	0x3cd0b441	0.025476577
156	0xbcbd3eb1	-0.023101183
157	0xbcc5eb31	-0.02416
158	0xbd6db915	-0.058037836
159	0x3d16e17f	0.036836144
160	0x3bf004bc	0.007324783
161	0xbaaf2718	-0.0013363091
162	0xbcc03843	-0.023464328
163	0xbc4b03c0	-0.012391031
164	0xbaac4e66	-0.0013145923
165	0x3d69ed3b	0.057111006
166	0xbc12bc6b	-0.008956055
167	0x3d63e3ae	0.055637054
168	0xbda806d3	-0.082044266
169	0xbd2cf25d	-0.042223323
170	0x3c6bf4e2	0.014401646
171	0xbc031a3e	-0.008001862
172	0x3c58232d	0.01319198
173	0xbbfb49f1	-0.0076687266
174	0xbd275fb6	-0.04086276
175	0x3d361c31	0.04446048
176	0xbd035eba	-0.03207276
177	0xbd1cd14f	-0.03828555
178	0x3d3bca4b	0.04584722
179	0x3d6288e2	0.055306323
180	0x3cd54c35	0.026037315
181	0x3d4b2031	0.049591247
182	0x3cab3e9f	0.020903884
183	0xbd351a8c	-0.04421477
184	0x3d3a909c	0.045548066
185	0xbd0951cd	-0.033525277
186	0xbdce673e	-0.10078286
187	0x3bf02b75	0.007329399
188	0xbb581c39	-0.0032975806
189	0xbc6f0657	-0.014588914
190	0xb90d041d	-0.0001344834
191	0xbd3d9825	-0.046287674
192	0xbd828bf1	-0.06374348
193	0x3c309ebf	0.0107800355
194	0xba9e7371	-0.0012088848
195	0xbcb9955d	-0.02265423
196	0xbd9e0ee2	-0.077176824
197	0xbd1e4deb	-0.038648527
198	0xbaad1e56	-0.0013207893
199	0xbda328cf	-0.07966768
200	0x3c7c960a	0.0154166315
201	0x3cee1341	0.029061915
202	0xbd8c1e08	-0.068416655
203	0x3db564a3	0.088570856
204	0xbc0f97d1	-0.008764223
205	0x3d81dc99	0.06340904
206	0x3d8c7eb7	0.068601064
207	0x3d204966	0.0391325
208	0x3c75f1fd	0.015011308
209	0xbd05de06	-0.03268244
210	0x3d18f8d6	0.037346683
211	0x3d8c2aee	0.06844126
212	0xbd2d5123	-0.042313706
213	0x3cc969b4	0.024586536
214	0xbda05288	-0.078282416
215	0xbc3a0194	-0.011352915
216	0xbc1cb660	-0.009564966
217	0xbcd04ff6	-0.025428753
218	0x3c7415b5	0.0148977535
219	0x3ca53836	0.020168405
220	0x3d383b8b	0.04497866
221	0xbd1e3004	-0.03862001
222	0x3c15d700	0.009145498
223	0x3c92c75f	0.017917333
224	0xbcbcd834	-0.023052312
225	0xbb9458cc	-0.004527187
226	0xbd49c0b1	-0.04925603
227	0xbaffb432	-0.0019508658
228	0xbd169fd6	-0.036773525
229	0xbd89c935	-0.0672783
230	0x3bcac83c	0.0061884206
231	0xbc76aa26	-0.015055215
232	0xbcb73183	-0.022362476
233	0x3dafa840	0.08577013
234	0x3d65bf52	0.05609066
235	0x3bab7bdf	0.0052332724
236	0xbd840365	-0.0644596
237	0x3cf7999e	0.030224618
238	0x393838e8	0.00017568807
239	0xbd910c90	-0.07082474
240	0x3d7ed555	0.062215168
241	0xbd2b1542	-0.04176832
242	0xbaf9575b	-0.0019023226
243	0x3cb9c436	0.022676568
244	0x3dccbe55	0.099972405
245	0x3c09aedb	0.008403505
246	0xbd496aa6	-0.049173974
247	0xbd548dbd	-0.051892985
248	0x3c97d3bb	0.018533578
249	0xbbc65904	-0.006053092
250	0xbb5d96e0	-0.0033811852
251	0xbd5a774d	-0.05333643
252	0x3c544c16	0.012957593
253	0xbcf558be	-0.029949542
254	0xb8c33c33	-9.3095376e-05
255	0x3d9ca094	0.07647815

output_layer.weight f4 [2, 300]
0	0x3d0b76c7	0.03404882
1	0xbb939923	-0.0045043393
2	0xbdb74c7b	-0.08950134
3	0xbe830936	-0.25592965
4	0x3d2193fd	0.039447773
5	0x3d406806	0.046974204
6	0xbc89683f	-0.016773341
7	0xbca0dcf9	-0.019636618
8	0xbb09387c	-0.0020938208
9	0xbc28ab60	-0.010294765
10	0x3c942a4c	0.018086575
11	0x3d5e466d	0.054266382
12	0xbdafc193	-0.08581843
13	0xbe54acb2	-0.20769003
14	0x3d5e599b	0.054284673
15	0xbd05ad9f	-0.03263628
16	0x3d66cba0	0.056346536
17	0x3ea08493	0.31351146
18	0xbe40b492	-0.18818882
19	0x3dc8d835	0.09806863
20	0x3e9c15eb	0.30485472
21	0xbcc9c17a	-0.02462839
22	0xbc81b0b6	-0.015831333
23	0xbc4137bf	-0.011793076
24	0xbd9a0691	-0.07520784
25	0x3da85db1	0.08220995
26	0xbc87e833	-0.016590213
27	0xbda6fa0f	-0.08153164
28	0xbba16535	-0.004925395
29	0xbe00b51a	-0.12569085
30	0xbfb8ad70	-1.4427929
31	0xbc8e338e	-0.017358568
32	0xbec7e23a	-0.39039785
33	0x3d25917b	0.040421944
34	0x3dadf7d6	0.084945366
35	0xbc6269b5	-0.013819148
36	0xbd811a1f	-0.0630381
37	0x3dd08426	0.10181455
38	0x3f2c86c7	0.67393154
39	0x3b8faba9	0.004384477
40	0xbcd20b4e	-0.025640156
41	0xbd82b2bb	-0.063817464
42	0xbf27ff85	-0.65624267
43	0xbc544dc1	-0.012957991
44	0xbd1ca51f	-0.03824341
45	0x3c8e4c46	0.017370354
46	0x3cc88ff3	0.024482703
47	0xbcfc1131	-0.030769916
48	0x3ccc65f0	0.024950951
49	0x401eeb2f	2.4831045
50	0x3b8e73e5	0.004347312
51	0x3d7266df	0.059180137
52	0xbcf7c298	-0.030244157
53	0x3dba0b52	0.090841904
54	0x40067fb5	2.1015446
55	0x3cd8370f	0.026393441
56	0x3cef67c3	0.029224282
57	0x3d4953ce	0.049152188
58	0x3d1cf22b	0.038316887
59	0xbf4f9d48	-0.8109937
60	0x3d0cee84	0.034407154
61	0x3d2bca39	0.0419409
62	0x3d013e7d	0.031553734
63	0xbc82bdba	-0.01595961
64	0xc081a261	-4.0510716
65	0x3d2c20d0	0.04202348
66	0x3d5ab6c9	0.053396974
67	0xbd2a67ec	-0.041603014
68	0x3f68df9a	0.9096619
69	0xbd68ff0a	-0.05688385
70	0x3d4a7647	0.049429204
71	0xbd9856d7	-0.074384384
72	0xbcb95cff	-0.022627352
73	0x3d4e27da	0.050330974
74	0xbd6fcfb4	-0.05854769
75	0xbc0dfb68	-0.008665897
76	0xbdc92454	-0.09821382
77	0x3c0530ef	0.008129342
78	0x3c974f01	0.01847029
79	0x3cc28e82	0.023749594
80	0xba370006	-0.00069808995
81	0x3d7c6dbe	0.061628096
82	0xbf87a187	-1.0596169
83	0x3c90ff44	0.017699845
84	0x3c3af269	0.011410334
85	0xbb6ee66e	-0.0036453265
86	0x3d0b7171	0.034043733
87	0x3d469b59	0.048487995
88	0x3c4756c0	0.012166679
89	0x3ebe76ea	0.372001
90	0x3cfb05a8	0.030642346
91	0x3e31f97f	0.17380331
92	0x3d510903	0.051033985
93	0xb8a050b5	-7.6444274e-05
94	0x3dd01ea6	0.10162096
95	0xbb430f75	-0.0029763852
96	0xbc8fcc49	-0.017553465
97	0x3d5ebc54	0.054378822
98	0xbfb1cd01	-1.3890687
99	0x3c789e0d	0.015174401
100	0xbc9f79cd	-0.019467259
101	0xbc6e2231	-0.014534519
102	0x3c321f54	0.010871727
103	0xbdc06e7b	-0.093960725
104	0x3c9ee40e	0.019395854
105	0xbe94c5cf	-0.29057166
106	0x3bd261ed	0.006420365
107	0x3dac9fc6	0.08428912
108	0x3de6ad49	0.1126352
109	0xbd46619d	-0.048432935
110	0x3d4c78c1	0.049919847
111	0x3d32abc9	0.04362086
112	0x3da4d5be	0.080485806
113	0x3d683c4f	0.05669814
114	0x3ffa6c72	1.9564345
115	0xbd1e65db	-0.038671356
116	0x3c89b6b5	0.016810754
117	0xbbd61ce1	-0.0065342044
118	0x3bb527c9	0.0055284244
119	0x3bbebed4	0.0058210883
120	0xbb7eceb5	-0.0038880531
121	0xbd4f06da	-0.050543644
122	0x3c81e20d	0.01585486
123	0x3ae7a611	0.0017673393
124	0x3d4cf164	0.050034896
125	0x3b0aa1c0	0.002115354
126	0x3de085e2	0.10963036
127	0xbe46b071	-0.19403245
128	0x3d185812	0.037193365
129	0x3d1c149f	0.038105603
130	0xbd95e520	-0.07319093
131	0xbfeafe8f	-1.8358935
132	0xbb784d66	-0.003788793
133	0xbdc96164	-0.09833029
134	0x3d73cff1	0.05952448
135	0x3d0fc219	0.035097215
136	0x3cd25afe	0.025678154
137	0xbaa6c7ff	-0.0012724398
138	0x3c32dbf0	0.010916695
139	0xbf291565	-0.6604827
140	0x3d0c21f7	0.03421208
141	0x3d486477	0.048923936
142	0xbefbd847	-0.49188444
143	0x3dcca186	0.09991746
144	0xbd1be3c6	-0.03805902
145	0x3d346b82	0.04404784
146	0xbdad4ab1	-0.08461512
147	0x402beb66	2.6862426
148	0xbc396e07	-0.0113177365
149	0x3b9fe796	0.004879902
150	0x3d930abd	0.071797825
151	0xbddd3203	-0.108005546
152	0x3d644503	0.055729877
153	0x3d689173	0.056779336
154	0xbc74242c	-0.014901202
155	0xbcc4eff4	-0.0240402
156	0xbc9fc9aa	-0.01950534
157	0x3cfd42d9	0.030915665
158	0x3d62ca6e	0.055368833
159	0x3da7f13a	0.08200307
160	0x3cc9f4e2	0.024652902
161	0xbce7c232	-0.028290842
162	0xbe9b8b52	-0.3037973
163	0x3c8f98fc	0.017529003
164	0xbb6767ed	-0.0035309747
165	0xbc9ada0f	-0.018902807
166	0xbc96e47c	-0.018419497
167	0x3dbe3ab1	0.09288538
168	0x3c267705	0.010160212
169	0xbc4e1dea	-0.012580374
170	0xbc301c97	-0.010749004
171	0xba97d640	-0.0011584237
172	0x3d68a14a	0.056794442
173	0x3d12bc92	0.035824366
174	0x3c355f8a	0.011070142
175	0x3cc0fa81	0.02355695
176	0xbcd65c1c	-0.026166968
177	0xbd0ff761	-0.03514803
178	0x3d82995c	0.06376907
179	0xbe7b8078	-0.24560726
180	0xbf887900	-1.0661926
181	0x3bb742b7	0.00559267
182	0xbe19b38d	-0.150099
183	0x3d60d919	0.05489454
184	0xbbc06993	-0.0058719604
185	0x3cb08ff3	0.021553015
186	0x3cc8206b	0.02442952
187	0xbfb5abb4	-1.4193025
188	0xbbadf4ef	-0.0053087394
189	0x3d8035b2	0.062602416
190	0xbf775158	-0.96608496
191	0xbe03e50c	-0.12880343
192	0x3ccbca71	0.024876805
193	0xbd502829	-0.05081955
194	0x3ccbed0c	0.024893306
195	0xbf6e6210	-0.9311838
196	0xbd2aa86c	-0.041664526
197	0x3dccd644	0.100018054
198	0x3cb5a24d	0.022172118
199	0x3ddae3dc	0.10687992
200	0x3d05ae47	0.032636907
201	0x3d1ed98f	0.0387817
202	0xbcde3f8f	-0.027129916
203	0x3d1acc0b	0.037792247
204	0x3f975c29	1.1825
205	0x3d68f1fd	0.056871403
206	0x3c996057	0.018722696
207	0x3d972337	0.073797636
208	0x3e5b3aa3	0.21409087
209	0x3cf0dad8	0.029401228
210	0xbb82ec87	-0.0039954814
211	0x3ea6d25b	0.32582363
212	0x3c0ee254	0.008720953
213	0xbcb1e45b	-0.021715334
214	0x3b92343b	0.0044617928
215	0x3d878dad	0.066188194
216	0xba5ff1d4	-0.000854281
217	0x3d27c299	0.040957067
218	0x3d3c7d40	0.046017885
219	0x3c9788a1	0.018497767
220	0x3cd85397	0.026407046
221	0x3e983138	0.2972505
222	0x3ac6cb2c	0.0015166751
223	0xbce188dd	-0.027531082
224	0x3d51cc81	0.05122042
225	0xbf6814ba	-0.90656626
226	0x3d20a87a	0.03922317
227	0x3fcea2d8	1.6143446
228	0xbed2617e	-0.41090006
229	0xbd25fe25	-0.040525574
230	0xbc9de659	-0.019274877
231	0x3c3e6877	0.011621586
232	0xbc3a3c5f	-0.011366933
233	0x3d2d1469	0.042255793
234	0x3c34cb53	0.011034804
235	0x3ad2130c	0.0016027405
236	0xbd46eebc	-0.04856752
237	0x3ea00b41	0.31258586
238	0x3ca8dd94	0.02061347
239	0xbce90df0	-0.028449029
240	0xbb0be123	-0.0021343909
241	0x3ccb5cf9	0.024824606
242	0x3cef2f2c	0.029197298
243	0xbcb49350	-0.0220429
244	0xbf7ca81d	-0.9869402
245	0x3fc97c81	1.574112
246	0x3c5c8819	0.013460183
247	0xbd51e5d0	-0.051244557
248	0x3b268823	0.0025410734
249	0x3c2e5a8c	0.010641705
250	0xbcc9a80d	-0.024616266
251	0x3ca0debb	0.019637456
252	0xbcc97e47	-0.024596347
253	0xbc6c22de	-0.01441261
254	0xbc50fa18	-0.0127549395
255	0xbd00daee	-0.031458788

output_layer.bias f4 [2]
0	0x3c2e9075	0.010654558
1	0xbc807d33	-0.0156847
