trained_model_original_200epchos.pth (torch, 369175 bytes, 6 tensors)

rnn_cell.weight_ih f4 [300, 2]
00000000: 18d1 1cba a764 02bd 5a6c 30bc 5698 3d3c
00000010: a3ea 40bc 439f a03b 327b ccbc ca3e 4d3c
00000020: b1e9 4cbc d252 6cbc f710 adbd 2b1d b6bd
00000030: c879 27bc 475d 9d3d c061 0b3a a0b8 f2bc
00000040: 89b3 9cbc 599a 6dbc 444d 0fbc 5ee1 5dbb
00000050: 4ed9 04bd 6a31 86bc 74e7 9e3c d113 3ebb
00000060: ee67 91bc d69d d23b 9a0b bcbc c935 f33c
00000070: cdd6 a33b fa69 253d 1d59 32bd 45fd b33d
00000080: 28d3 643c 842a 0abd c0f8 7d39 e6bc 09be
00000090: 2089 bbba b9b0 653d 089a 45bd b914 2a3d
000000a0: 1b58 4b3b 1fa4 acbd 2f7f 7c3d 8581 d73c
000000b0: 014c 80bd 9da1 493d bf80 f7bb b991 0a3d
000000c0: adf5 843d 9282 26bd 5f4e 183d e0e5 a1bc
000000d0: a771 13bd 7ec1 a4bd 83a6 283c ba48 483c
000000e0: 0058 73bc 5aae 383d 0310 373c 44e9 50bc
000000f0: 8361 353d 56d1 18bd 998f 07bd 596f 083c
00000100: 7062 c93b 47b2 8f3c 1af5 83bd 96d9 99bd
00000110: 559f 55bd 26ea 92bc bdcb c23b b49d 7e3a
00000120: 06c9 363d e0c9 47bb a083 7dbc a1e2 573c
00000130: 1256 39bd 4433 0dbc 5d1c 23bd cd23 08bc
00000140: b104 08bc 0b6a 8b3c b9fb 73bc 9bb3 1abc
00000150: 70a0 b13c 6f20 743c 7bde 0e3d 5877 2cbd
00000160: 21b0 a73c efd1 153d 9baf d93c b434 b1bc
00000170: 6897 203d 70d2 bebc bb01 253d 4ae9 a53d
00000180: 3dd8 133d c4c3 2bbd e017 94bd bb80 57bd
00000190: 8848 533c 06b4 953c 5fa7 02bd bdc0 b93c
000001a0: 4d85 fdbc 1939 323d 1bb5 253e c844 d53c
000001b0: 1aa8 10be 02ea 3f3c 44ec 283c 2ad7 19bd
000001c0: 8082 32bd 1b74 1fbc c0c6 f8bc f36d 6abd
000001d0: 3261 a2bd 91ee 943d fca1 89bd 2e71 3bbd
000001e0: 4c51 733d 7f49 83bc bd3f 1f3b fa1b 54bc
000001f0: 43e4 5f3d 54cb d93c c528 7ebd ce76 a53d
00000200: 483f c23e 0847 4fbe b8f2 343c 2afc 7d3b
00000210: 28a0 33bd 8c22 0abe c6e8 81bc 24d1 2e3b
00000220: d6dc 4ebe 9e9e c3bd 1a07 f2bc 3dee 9e3d
00000230: a3d6 b13b 3373 303d 89a1 93bc e382 25bd
00000240: d550 d23c b669 553c bc82 87bd 2935 053c
00000250: 2e71 4bbd 70f8 993c 43bc 373d 213e 263e
00000260: 08a2 73bc 2a40 0ebd 4aec 31bd 34e4 863c
00000270: 6dc7 8e3d da05 ccba 8315 ec3c e307 af3b
00000280: f093 6dbc 48ec 6bbc d36c c6bc 70a9 10be
00000290: ebae bd3c 6b05 7d3d 9391 3bbd 3a6f 8fbb
000002a0: 5a83 0d3d ea6e a63c 74af 03bc 2ffb ba3d
000002b0: 710d 8c3e a4cf 9e3d 53d9 2d3c 2ca1 78ba
000002c0: 5822 843c 892c 08bd 3ff1 2dbc d0dd af3d
000002d0: 63d7 6b3d 746d 16bd 44c3 ac3d f5ea ccbd
000002e0: f4b4 a73b cc99 c6bc 0e3d 4dbd 4bc4 48bd
000002f0: 3117 bbbb 3d83 81bb ea79 98bd c95e d63d
00000300: 973f b9bd 0f21 923c 46ca a73c 2a3f 7c3d
00000310: 64d3 b43c 35d7 d5bd 684e d13c 55b1 0bbd
00000320: 57d8 90bc d268 07bd 34e2 a4be ca9f 39bd
00000330: 123f a53c ae53 803c 2800 05bc 1b11 78bc
00000340: fba1 623d 2f99 06bc 66b5 4ebd 17d2 233c
00000350: f3ae a4bd ae44 5ebd a401 01bb d8b0 1d3c
00000360: 6e68 48bc a397 513d 2cad b6bc dd59 d03c
00000370: a761 9d3b 3fbb dc3c 2571 8c3d 5779 6cbd
00000380: e074 25bd 21a5 bc3c 0b4d 31bc 6022 533b
00000390: 84de abbd 17aa 6f3b 97e4 2a3d 1c1b 10bb
000003a0: f09c d03c 4625 8dbd 988f 6dbc f86b a2bc
000003b0: 0973 51bd f553 9c3c 5907 10bc bf84 54bc
000003c0: 3c16 9ebc f030 173c a039 ce3a 5239 c83d
000003d0: 2ae4 afbc 677b 993c c015 073d 64ce 5e3c
000003e0: 3754 1d3b fd34 cfbc 7f15 8f3d 9f01 6bbd
000003f0: a08a 4dbd d0a7 173d 5b52 ddbc 796c c7bc
-0.0005982085 -0.03183427 -0.0107680205 0.011571964 -0.011774692 0.004901798 -0.024961088 0.012527177
-0.012506888 -0.014424043 -0.084505014 -0.08892282 -0.010221906 0.07683807 0.0005316995 -0.029629052
-0.019128578 -0.014502131 -0.008746449 -0.0033856253 -0.0324338 -0.016380984 0.019397475 -0.002900351
-0.017749753 0.006427507 -0.02295475 0.029688733 0.0049999715 0.04038427 -0.043542016 0.08788542
0.013966359 -0.033731952 0.00024220627 -0.13450965 -0.0014307834 0.05607674 -0.0482426 0.04152367
0.0031027857 -0.08429741 0.06164473 0.026306877 -0.062644966 0.049226392 -0.0075531895 0.03383038
0.064921714 -0.040651865 0.037184115 -0.019762933 -0.03599706 -0.08044718 0.010293606 0.012224371
-0.014852524 0.04508815 0.011173251 -0.012750927 0.044282448 -0.037309013 -0.03309593 0.008327329
0.006145768 0.017541064 -0.06443234 -0.07512204 -0.052153904 -0.017933916 0.0059446977 0.00097128307
0.044625305 -0.0030485317 -0.015473276 0.013176591 -0.0452481 -0.00861818 -0.03982197 -0.008309317
-0.0083019 0.017018339 -0.014891558 -0.009442235 0.021682948 0.014900311 0.034880143 -0.042106003
0.020469727 0.03657716 0.026572993 -0.021631576 0.039206892 -0.023293704 0.040284853 0.08101137
0.036094893 -0.041934744 -0.07231116 -0.052613 0.012895711 0.018274318 -0.0318979 0.022674913
-0.030947352 0.043511484 0.16182368 0.026033774 -0.14126626 0.011713507 0.010310236 -0.037558712
-0.043581486 -0.009732272 -0.030368209 -0.057233762 -0.07928695 0.072720654 -0.06720349 -0.045762233
0.059403703 -0.016026257 0.0024299466 -0.012946123 0.054661047 0.026586212 -0.0620506 0.08079301
0.37938905 -0.2024194 0.011044197 0.0038755038 -0.04385391 -0.13489741 -0.015858065 0.002667495
-0.2020143 -0.09551738 -0.029544402 0.07760284 0.005427198 0.043078613 -0.018021362 -0.040408026
0.02567331 0.013025692 -0.066167325 0.00813035 -0.049668483 0.018795222 0.044857275 0.16234638
-0.014870174 -0.03472916 -0.043438233 0.016466238 0.06971631 -0.0015565709 0.028818851 0.0053415163
-0.014500603 -0.014399596 -0.024221813 -0.14127135 0.023154696 0.061772745 -0.045793127 -0.004377273
0.034549095 0.02031656 -0.008037437 0.09129941 0.27354005 0.07754448 0.010610896 -0.00094844657
0.016129658 -0.033245597 -0.0106166 0.08587229 0.057578456 -0.036725476 0.084356815 -0.10005752
0.005118007 -0.024243258 -0.050107054 -0.049015325 -0.0057095517 -0.0039524124 -0.07445128 0.104672976
-0.09045332 0.01783803 0.020482194 0.061583675 0.022073455 -0.10441438 0.025550082 -0.034104664
-0.017681284 -0.03305895 -0.3220383 -0.045318402 0.020171676 0.015664902 -0.008117713 -0.015140797
0.055330258 -0.008215233 -0.050465964 0.00999882 -0.080411814 -0.054264717 -0.0019684816 0.009624682
-0.012231929 0.051170003 -0.022299372 0.025433475 0.004802901 0.026944755 0.06857518 -0.057732906
-0.040394664 0.023027958 -0.010821591 0.0032216534 -0.08392051 0.0036569887 0.041721907 -0.0021988815
0.025465459 -0.06891875 -0.014499567 -0.019826874 -0.051135097 0.019083003 -0.008790814 -0.012971102
-0.019297712 0.009227976 0.0015733726 0.09776558 -0.021471102 0.0187356 0.032979727 0.013599012
0.0024006495 -0.025293821 0.06986522 -0.057374593 -0.05018103 0.037025273 -0.02701681 -0.024343716

rnn_cell.weight_hh f4 [300, 300]
00000000: 17ea 71bd 34b6 dfbc 8b67 0abd 6d3b 803b
00000010: 17c5 9ebc ae32 ef3c 3e9c 1e3c 4157 b1bc
00000020: 42b4 3b3c 78e0 193c 03bb 81bd cac0 4a3d
00000030: 6427 5c3d 9356 80bc f499 053d eaa2 bbbc
00000040: c2c1 63bd b5dd 01bd c0ee 30bd 82f2 c33c
00000050: 6063 d8bb bfb1 9dbc f5d9 11bd f28d 26bd
00000060: 3611 11bc 9bcb f5bb f57f 52bb 95d3 823c
00000070: 277c 00bd f252 40bd 53c7 82bb d7da 2c3d
00000080: 7c12 5bbd e0fc 783c 4838 4cba cdcc 0cbd
00000090: ce71 5ebd 5a65 343c 6c42 1e3b c015 5abd
000000a0: 180f 07bb 7eac e53c b2de f7bb 1d1f edbc
000000b0: b5ef b33c c7dd 01bd 82af 113a 4a08 c53c
000000c0: 87e0 07bd a749 903c a401 06bd 16ea 70bb
000000d0: beaa 343d 99f6 da3c e146 48bd 10be 0c3d
000000e0: cf57 21bc 0ca8 8c3c 5101 b7bb 2da0 1d3c
000000f0: 9380 e13c a7cc 1d3d 2f10 1a3b 4d77 563d
00000100: 9eeb 56bd 82f3 473d 6128 8a3b fb9d 623d
00000110: 9be4 3ebd bb4e 0bbd fdc6 65bb f21c 6ebd
00000120: d3dd d53c 5c74 56bd b839 bd3c 2819 2abd
00000130: 24bc abba 00aa e23c aaf1 743c b136 7bbd
00000140: 8662 85bc fa67 eabc ee88 75bc 4bb2 ccbc
00000150: 7a6a 90bd b451 d93c 1280 fcbb b17b abbc
00000160: a325 f43c 150b 72bb b08e 053c 9d02 54bd
00000170: fd5d 7abd 7a42 953b b7a8 5dbb 08af 39bd
00000180: 1629 7dbc ed7c bcbb 8bb1 9bbd c139 5f3d
00000190: 0629 3cbd c027 0abd 3c33 163d cbc3 eebc
000001a0: 1766 a13b b085 4ebd ea85 5abd 67d0 f9bc
000001b0: e4be fe3c b681 78bb 2be9 0fbd f5ec a2bc
000001c0: b440 c8bc 096b 64bc fbe3 d4bc 09b1 1a3d
000001d0: 9799 81bd 08c7 563c de28 40bd 57e8 68bb
000001e0: f7a7 e6bc 0034 893c bd51 28bc 1a60 513d
000001f0: 4685 793c f9b0 4ebc 63d7 40bb 46dc 533d
00000200: 7326 4f3b 1ae5 4a3d e153 50bd 4c8d 433c
00000210: 5050 143c 9105 89bc a968 33bd 0498 fdbc
00000220: 39e9 82bc e954 3abd ec5a 7bbd 81cd 623d
00000230: 0d4a 85bd 4853 bebb cfb4 863c 10cd 303d
00000240: 28d7 6ebd 428c 4cbd bffe 903c 6970 c03b
00000250: 353d b83c 266b ddbc 29f5 58bd ff47 92bc
00000260: ee4f 323d 721c ed3c 66f8 1dbd cd80 603d
00000270: 47ee 82bd 3d1f 473d 3248 9d3c 6d48 27bd
00000280: 17e8 d73c 6639 2ebc a9c8 1e3d 5789 463c
00000290: 0a0c 6ebc 211a 4dbd 4bb9 26bb 839f 39bd
000002a0: b664 cbba a17f ccbc 93f2 d13c 6a85 7b3c
000002b0: e2c6 88bd c82a 5cbd 777d a43c 5c49 2d3d
000002c0: c1e3 083d 728f 963c aba9 5dbd fcc3 86bb
000002d0: b930 65bd 5e9b 623c ea70 a6bb 85a0 103d
000002e0: 78b9 86bb d577 dc3c 8342 143d 3557 4c3d
000002f0: 9e7c 4bbb f129 1e3d 1655 2fbc 157e df3c
00000300: 392c 03bd 7f4c 19bd 2837 4fbd 9cef f0bc
00000310: 214c ff3c b2b1 47bd da3a 17bd 81c4 2c3c
00000320: 276f 013d 5016 5dbd 994b 863c 7497 51bd
00000330: c20a febc 72c9 463c 633b 03bd bd87 3ebc
00000340: 615a d23c 5db8 36bd 2934 3abd 3613 c6bc
00000350: 761c ec3c 9715 52bc c039 eebb aac8 c9bc
00000360: 4d0c 0bbc e6e4 113d 9a81 1b3d c9d3 15bd
00000370: bb00 4d3d dbca f1bc 5516 00bd e105 35bc
00000380: 3255 a13c 6f48 113d e703 9ebc 88f5 9b3b
00000390: b9e4 81bc a420 f83a 879d af3c 7a4e e1bc
000003a0: 03c1 5e3b 1e38 bebc ae7c 2b3c a934 433d
000003b0: 72b9 0b3d 0d93 12bd 2d4d 693d 4f43 7cbd
000003c0: e9a5 ae3c 1e0b 38bd 8834 12bd 925f 073d
000003d0: 5449 7ebd bf06 0b3b 595b cabc c4a3 0c3d
000003e0: 7c52 7ebd 8686 d23c 3db4 153d d4c4 05bd
000003f0: 24ed 5bbd f8c0 463d 2031 233d b6d6 ce3c
-0.059061136 -0.02730856 -0.033790153 0.003913334 -0.01938109 0.02919897 0.009680806 -0.021648051
0.011456551 0.009391896 -0.06334498 0.049500264 0.053748503 -0.015666282 0.032617524 -0.022904832
-0.055604704 -0.031705577 -0.04319644 0.023919348 -0.0066036433 -0.019249795 -0.03560825 -0.040662713
-0.008854201 -0.0075010783 -0.0032119725 0.01597003 -0.0313684 -0.046954103 -0.0039910465 0.04220089
-0.053484425 0.015197009 -0.0007790369 -0.034375 -0.05430775 0.011010492 0.0024148477 -0.0532434
-0.0020608362 0.028036352 -0.007564389 -0.0289455 0.021964887 -0.031705644 0.0005557464 0.024051804
-0.03317311 0.017613245 -0.03271641 -0.003676062 0.044108145 0.026728915 -0.04889572 0.034360945
-0.009847595 0.017169975 -0.0055848737 0.009620708 0.02752713 0.03852525 0.0023508181 0.052359868
-0.052470796 0.04881621 0.0042162393 0.055326443 -0.046604734 -0.03401063 -0.0035061233 -0.058133073
0.02610675 -0.052357063 0.023098812 -0.041527897 -0.0013102335 0.027668953 0.014950195 -0.061331455
-0.016282331 -0.028614033 -0.01498626 -0.02498736 -0.07051559 0.026528217 -0.007705697 -0.020933004
0.029803103 -0.0036932875 0.008151695 -0.051760305 -0.06112479 0.0045550438 -0.0033822486 -0.04533294
-0.01545169 -0.005752197 -0.07602223 0.054498438 -0.04593756 -0.033729315 0.036669955 -0.029146096
0.0049255 -0.050420463 -0.053350367 -0.030494882 0.031096883 -0.003791911 -0.035134476 -0.01988838
-0.024444915 -0.013941535 -0.025987616 0.03776649 -0.06328123 0.013108976 -0.046913974 -0.0035538876
-0.028156264 0.016748428 -0.010273394 0.05111704 0.015229529 -0.012615436 -0.0029425255 0.05172374
0.003160861 0.049534895 -0.050861243 0.011935543 0.009052351 -0.016726287 -0.043800984 -0.030956276
-0.01598035 -0.045491133 -0.061366007 0.055371765 -0.06508265 -0.0058082677 0.016443638 0.043164313
-0.058310658 -0.049938448 0.017699597 0.0058727753 0.022490123 -0.027028631 -0.052968178 -0.017856596
0.04353326 0.028944228 -0.03856697 0.054810334 -0.06393104 0.048613776 0.019199464 -0.040840555
0.026355786 -0.010633802 0.038765583 0.012117705 -0.0145292375 -0.050073747 -0.0025440033 -0.045318138
-0.0015517685 -0.024963202 0.025628364 0.015351633 -0.06678559 -0.053751737 0.020079358 0.04230629
0.033420328 0.018378947 -0.054116886 -0.0041127186 -0.05595467 0.013830988 -0.0050793784 0.035309333
-0.004111465 0.02691261 0.036196243 0.049887855 -0.003104962 0.038614217 -0.010701438 0.0272818
-0.032024596 -0.037426468 -0.05058971 -0.02941113 0.03116423 -0.048753448 -0.03692136 0.010544897
0.031600144 -0.053976357 0.01639347 -0.051169828 -0.03101099 0.012132989 -0.032039057 -0.011629042
0.025677862 -0.044609416 -0.0454599 -0.024179082 0.028822165 -0.01282253 -0.007270068 -0.024631817
-0.008486819 0.035618685 0.037965395 -0.036578927 0.050049525 -0.029515674 -0.031271297 -0.011048765
0.019693945 0.03546947 -0.01928897 0.004759494 -0.015856134 0.0018930626 0.02143742 -0.02750324
0.0033989556 -0.023220118 0.010466738 0.047657643 0.0341124 -0.03578477 0.056958366 -0.061587628
0.021319347 -0.044932477 -0.03569463 0.033050127 -0.06208165 0.0021213738 -0.024701761 0.034335867
-0.062090382 0.025698911 0.03654884 -0.032658413 -0.05369295 0.048523873 0.03984177 0.025248867

rnn_cell.bias_ih f4 [300]
00000000: 8f95 6cbd 1892 f6b9 ea00 a6bc 3cff 3bbd
00000010: 9ed2 c6bd 3602 04bb 08a3 9e3d f71a 64bd
00000020: 78bf e6bc c5a4 30bd 442f 173c 2646 1ebd
00000030: f96a 67bd e639 bb3d 3306 163c 1d30 89bd
00000040: 620a f83c 19f4 3a3d f335 4cbd 49d5 77bd
00000050: b440 ee3c 414f 95bd 8754 a0bc b3a5 a33b
00000060: 4240 a6bd 2946 a0bd 9ee7 b63c aaa3 d03b
00000070: 84bb d8bc 8ba1 1abc 47e3 c1bb 55a1 b4bd
00000080: 75fe c3bd 9676 df3b 8fbf 9f3d d073 d5bc
00000090: 2bf8 e53c fc15 24bd 0210 403d 48ec 96bd
000000a0: bd83 56bd fd91 9fbb 49fe 88bd fba0 8cbd
000000b0: 5ef3 65bd edef 0ebc 536b 99bd a707 dcbc
000000c0: 8581 b03a 4ae6 9ebc a327 60bc bd62 dbbc
000000d0: 724d bdbc dbe9 c33c cc14 d4bc 7e14 29bb
000000e0: 9fbc 62bc c997 803d dc46 36bd 4c68 8a3d
000000f0: 3e27 b3bd 0ff4 bdbc afdc 60bd cc09 4e3c
00000100: cb02 4f3d 15c2 25bd 001a 133d 7de1 86bd
00000110: 7b8f aebc e3c8 cc3c c622 afbd c8ec 5c3d
00000120: 27fa 78bd 43a6 71bc 8634 49bd 702f 5c3a
00000130: cf36 6b3c 96fa f4bc 8979 04bc d33a acbd
00000140: e157 ad3c acf1 11bb 282b 22bc deee 5e3d
00000150: 8dbc 21bd 9144 163d 7847 063c 18f9 adbd
00000160: 06ba 6f3c 850c feba 32e4 4cbd a0d1 49bd
00000170: 7502 c3bd f2da 1bbd 22c9 70bd d985 e1bb
00000180: 6637 92bd 315a 91bd 702f 7a3d bc68 afbd
00000190: ef00 7dba b818 17be 8600 09bd 7254 acbd
000001a0: d661 ce3c 52c9 203d 936f 49bd e75e f8bc
000001b0: 2117 0abd 6a8d 38bc 90f7 06bd d883 5bbd
000001c0: 58f3 57bd 8c3a 26bd ffd3 8bbd 5b3e 29bd
000001d0: ce20 cc3a 4340 8e3c 223a 7dbc 47f6 173b
000001e0: 742a 55bd b83e c23c 5256 8fbd ca73 49bd
000001f0: 68e6 adbc 98fc 68bd 9ff8 91bd e98f c43b
00000200: 2fda 853d 2473 603c adf2 d4bc c421 89bc
00000210: 659f f6bd f866 78ba 606b 85bd 9e1a d8bc
00000220: 3958 e9bc 2e44 39bd 7e01 f5bb d02d cb3d
00000230: 9592 d8bc 92b9 b7bd aa8c f03d 1035 a1bd
00000240: 06ec a1bd 75f5 05bd c666 68bd 5753 59bb
00000250: f6c8 9a3d 1f2a 34bd 9256 d0bc d406 813c
00000260: 3604 3dbd fe57 94bd e050 abbd 42aa 5cbd
00000270: 9d79 043e 7a72 2fbd 7904 92bd 8ef5 99bc
00000280: 4322 71bc 8d78 0ebd 63c7 e93c 12a9 8abd
00000290: 83d7 71bd 3a9a e03c 38fa 2d3d 2194 b73c
000002a0: d6ae 8fbd 5a18 cdbd 1482 9abd 42e4 6dbd
000002b0: 8de7 8cbd e812 2abb c4f0 b83b c566 5fbc
000002c0: e4c2 fb3b f760 bdbd 7a6e 65bc c3e9 79bc
000002d0: 6928 123b 3f18 d73c a03f 203c 2d92 20bc
000002e0: 1c0a d7bb ab73 75bc 2611 e8bc f29b c33c
000002f0: 785a aabc 4f42 a7bc 27fd 1fbd 40bb 5cbd
00000300: 4b52 a6bd de5e ea3c d025 88bd 1e53 06bc
00000310: 5852 70bd 4fa0 16bd 87f0 9bbc 2a2e b9bd
00000320: 4be6 5e3a 6a78 1bbd 6d0a 8cbc 4169 2ebd
00000330: 1c59 d3bd 2e60 86bd 78e3 5e3d 1db9 26bd
00000340: 64e8 ebbc 1ff9 413c 8ce3 bfbc 6dcc 0abc
00000350: fb67 91bc 7bbb 003c 927e 57bd 14ab e8bc
00000360: 506a 86bd 3da1 c23d 8ecc d23c 5672 91bd
00000370: 7536 94bd a566 6f3d 58b1 b5bd d118 1bbc
00000380: a793 03bd 3096 fcbc d115 9a3c 33d3 873d
00000390: 06df 4fbd b5b3 98bd 0b63 18bc bc03 c6bd
000003a0: 24dd 71bd 2ce7 24bc b43c 88bb 2131 853d
000003b0: 6ddd a5bc 88f7 a3bd 61ab 6b3c e4f4 52bd
000003c0: 917a 8cbc e8ee 4b3d 5c2c 5bbc 0c1c 853d
000003d0: 7946 da3a bfa1 093c ac30 0bbd 23b3 6ebd
000003e0: 5da0 8ebd cd2f 72bd 688a c9bd 5e7b 263d
000003f0: ebe5 e5bc 80cf afbb 9ae5 c0bc af99 9cbd
-0.057759818 -0.00047029625 -0.020264108 -0.045897707 -0.09708141 -0.002014292 0.077459395 -0.05568978
-0.028167471 -0.043125886 0.009227578 -0.038641118 -0.0564985 0.091419026 0.009156751 -0.0669863
0.030278388 0.045642946 -0.049856137 -0.06050614 0.029083587 -0.07290507 -0.019571556 0.004994118
-0.08117725 -0.07825882 0.02232724 0.0063671665 -0.026456602 -0.009437929 -0.005916986 -0.08819834
-0.09570018 0.0068195565 0.07800209 -0.0260562 0.028072437 -0.04006003 0.046890266 -0.07369286
-0.05237173 -0.004869698 -0.06689126 -0.06866642 -0.056140296 -0.008724195 -0.074911736 -0.026859118
0.0013466334 -0.01939692 -0.013681325 -0.02678048 -0.023108218 0.023915222 -0.025888823 -0.0025799568
-0.013838916 0.06278951 -0.04450117 0.06758174 -0.08747719 -0.023187665 -0.05489796 0.012575578
0.050539773 -0.040468294 0.035913467 -0.06585977 -0.021308651 0.024998134 -0.085515544 0.05393675
-0.06078544 -0.014749113 -0.049122356 0.0008399403 0.014356329 -0.029904645 -0.008085617 -0.08409657
0.021160068 -0.0022269292 -0.009897985 0.05442702 -0.039486457 0.036686484 0.00819575 -0.084947765
0.014631754 -0.0019382393 -0.05002231 -0.04927218 -0.09521953 -0.0380506 -0.058785565 -0.006882411
-0.07139473 -0.07097281 0.061080396 -0.08564898 -0.0009651323 -0.14755523 -0.033447765 -0.08414544
0.025193136 0.039254494 -0.04917867 -0.03031869 -0.033713464 -0.0112641845 -0.032950938 -0.053592533
-0.052722305 -0.04058318 -0.068275444 -0.041319232 0.0015573741 0.017364627 -0.0154557545 0.0023187564
-0.05204244 0.023711547 -0.06998886 -0.04918269 -0.02122803 -0.056881517 -0.07127499 0.0059986007
0.06535756 0.013699327 -0.025994623 -0.016739734 -0.12042121 -0.0009475793 -0.06514621 -0.02637988
-0.02848445 -0.045231037 -0.0074769845 0.099208474 -0.026437083 -0.089709416 0.117455795 -0.07871449
-0.07906346 -0.03270479 -0.056738637 -0.0033161247 0.075578615 -0.043985482 -0.025431905 0.015750326
-0.046146594 -0.07243346 -0.08365035 -0.053873308 0.12937017 -0.042833783 -0.07129759 -0.018793847
-0.014717641 -0.034782935 0.028537458 -0.06770529 -0.05904342 0.027417291 0.042474955 0.0224095
-0.07015769 -0.1001441 -0.07544342 -0.05807901 -0.06880102 -0.002595121 0.005643936 -0.013635342
0.007683145 -0.0924701 -0.01400339 -0.015253487 0.0022301918 0.026256679 0.009780794 -0.009800476
-0.0065624844 -0.014981191 -0.02832849 0.023878071 -0.020795092 -0.02041736 -0.039059784 -0.053889513
-0.08121165 0.02860969 -0.06647837 -0.008198528 -0.05867228 -0.036773976 -0.01903559 -0.09042008
0.0008502944 -0.037956633 -0.017094815 -0.042580847 -0.10319731 -0.065613136 0.05441615 -0.04070388
-0.028797336 0.01183918 -0.023423932 -0.0084715905 -0.017749777 0.007857199 -0.05261094 -0.028401889
-0.06563246 0.0950341 0.025732305 -0.07101886 -0.07236949 0.0584475 -0.08871716 -0.009466366
-0.032123234 -0.030833334 0.018809231 0.0663208 -0.0507498 -0.074561514 -0.009300957 -0.09668681
-0.059048787 -0.010064881 -0.004157627 0.06503511 -0.020247186 -0.08006197 0.014384122 -0.051503077
-0.017148288 0.049788386 -0.013377275 0.0649949 0.0016653083 0.00840038 -0.033981964 -0.058276307
-0.069641806 -0.059127618 -0.09840852 0.040644996 -0.028063735 -0.005365312 -0.023546983 -0.076465

rnn_cell.bias_hh f4 [300]
00000000: d959 90bd ea46 45bd 7721 10bd 2fb4 15bd
00000010: bda1 6bbd 56c2 eebc 7fe0 f4bc 0434 dabd
00000020: cbb9 cfbb dde2 38bd 4a30 6cbc ef18 97bd
00000030: b3ca a33c 77e7 4f3d c757 88bd e430 433d
00000040: 1f9f 91bd fad2 97bb 4947 be3b e65b 913c
00000050: ac85 d4bb 5217 53bb 7909 5cbd 9403 c0bd
00000060: 1648 64bd 41a1 afbc 083b 053c 01d4 a6bc
00000070: 46fd 25bc 15c5 8abc 3511 46bd 06da c6ba
00000080: 2f54 44bd 9e37 833d ec15 b83d 8aed 95bd
00000090: 361d 38bc 4270 453c 336d 1cbc 6abe a8bc
000000a0: c61c 0a3c fd9f b0bc ac01 6bbd 6e5f 4c3c
000000b0: e24d 14bc f8dd f8bd 38b6 bc3b 2376 413d
000000c0: a6e8 c93c 0253 973d c293 bdbd 9c5f 95bd
000000d0: 2244 76bc 31f9 d2bc bcfa a6bd 6490 2a3d
000000e0: 06b6 5d3b 66af 67bc 8432 47bd eeb2 f8bb
000000f0: 97a5 54bd de7a 83bd df73 33bd baf1 45bd
00000100: 5552 4d3d afad 92bc ab3f 4e3d 8eea 30bd
00000110: be52 9d3d 2ded 623c dd56 abbd 6c22 1d3d
00000120: d66b c0bb 8a25 3d3d 1bc0 b1bd 0f40 42bb
00000130: 12d3 ff3b 5a05 6d3d a9db edbc 2ea2 4cbc
00000140: efb3 9ebd 0224 c2ba 45e1 6abd 33e4 0e3d
00000150: f1e0 b5bc 7344 36bd e6b5 e8bc b036 eb3c
00000160: a745 49bd 8097 893b b08f 27bd 1e2f fc3c
00000170: df8d 20bc 464c 66bc 328d 8dbc e79f d73c
00000180: ff9b e9bc 9ebb 01bd f233 b13c 9e2c 26bd
00000190: d652 41bd 802a 04be 9ade d9bc d17f fdbc
000001a0: 089b acbb 85ec af3d 6a7c 1cbd ec09 99bd
000001b0: 3d22 d63c 96d7 8fbd 5379 113d 9bf8 19bd
000001c0: df7b 80bd a5c4 d8bc 5305 5cbc 0ab7 dfbc
000001d0: fd1a 7abd c458 bbbd f3df 8cbd 810c 16bd
000001e0: 77d5 643c f9c7 b13c be73 d5bc bf4d 4e3c
000001f0: ac3d c0bd 2103 b0bd c5ac afbd fdee b2bd
00000200: b680 403d 7fe1 75bd 09bb b3bc ed39 8dbd
00000210: a270 4ebd 31a3 573c 6053 1d3a 1116 42bd
00000220: 1cdf cdbc b6e0 34bd f622 6cbd b4d5 ac3d
00000230: af15 e53c 169b 9bbd a5c7 ec3d beec 8cbd
00000240: 16fa d0bd 7dfe 883c c596 51bc 869e d53c
00000250: 497a febc 8cce 83bc 8caa 3ebd a40e 433d
00000260: 4e1e f1bc 4ca0 17bd 6278 13bd b231 60bc
00000270: 1f33 d33d 67de 17bd c0b4 57bc b25a aebc
00000280: 311d 893d 07f6 fb3c 9cee d53c a94a aebd
00000290: 4c8b 62bc c515 1ebd 4d12 ce3d 2431 72bd
000002a0: 7195 d93b 2d4a fabc 8ca0 33bc e360 7cbd
000002b0: effc 8bbd 25c8 a0bd 3c8a 6a3c 5e9d 5bbd
000002c0: 7139 86bd 533a cabc 7818 04ba 2a4f b9bd
000002d0: 68c0 27bc 7c06 bcbd 1d41 a73b 0e5e 28bd
000002e0: deae 9fbd 24ca 20bd e5e8 77bd 44e2 7a3b
000002f0: c973 cebc 9847 2bbd c8ed 01bd 70f0 8bbd
00000300: e3ce 38bd d0c7 c13c bd79 83bc 05b5 4ebd
00000310: 9ed4 5bbd 580e 9ebc 5d7e c7bd 36a3 fbbb
00000320: 078a c23c d00d 6a3b 9cb1 8dbd 070f 3fbd
00000330: 5117 9bbc b0f5 d4bc 3c77 b7ba 10d9 a43c
00000340: c88f 45bc 8bac 95bd 8394 2ebd 9907 d4bd
00000350: a7e9 42bc 9d74 a1bd d804 18bc 29ea 61bd
00000360: 02ab 8e3b 8fc7 b23d 10d8 c13d 407c 6dbd
00000370: 6565 4ebd bb83 e8bc dc9c adbd 221f f63c
00000380: 3e8a cd3c 1dea b6bd 85b6 86bd 3467 8d3c
00000390: 7591 96bd e8ec 023c ea4a 20bd 372d 80bb
000003a0: 0773 3c3d bcf3 b3bd c074 cd3d 8cd5 a53d
000003b0: 6f0f 72bd bbf1 4a3c 6b78 dbbc 85dc b2bd
000003c0: 368a e5bd 90a6 c13c 29a9 d3bd 3972 6c3d
000003d0: 3976 6ebd 55a4 753b 5fc0 a7bc 7578 aebb
000003e0: ffc7 61bd 58d9 263c bd23 313c 824a e13c
000003f0: 25ad 623d 5ceb 573d 7f2d 8fbd d932 57bd
-0.07048387 -0.048163332 -0.035188165 -0.03654879 -0.057527293 -0.029145401 -0.029892204 -0.106544524
-0.006339287 -0.04513823 -0.01441581 -0.073778026 0.019994115 0.05075785 -0.06657367 0.047654048
-0.07110428 -0.0046333047 0.0058068377 0.017744016 -0.0064856615 -0.0032209945 -0.05371997 -0.093756825
-0.05573281 -0.021439197 0.00813175 -0.020364763 -0.010131186 -0.01693968 -0.048356254 -0.0015171177
-0.047931846 0.064070925 0.08988556 -0.073206976 -0.011237433 0.01205069 -0.0095475195 -0.020598609
0.008429712 -0.021560663 -0.05737464 0.012473924 -0.009051772 -0.12151712 0.005759027 0.047231805
0.024647068 0.07388879 -0.09256698 -0.07293627 -0.015030893 -0.02575359 -0.081532925 0.041641608
0.0033830418 -0.014140939 -0.04863216 -0.0075896895 -0.05191573 -0.064199194 -0.043811675 -0.04832623
0.050127346 -0.017905084 0.050353687 -0.04319244 0.076817974 0.013850492 -0.08366177 0.038362905
-0.00587223 0.04617838 -0.08679219 -0.0029640233 0.007807144 0.05786643 -0.029035406 -0.0124898385
-0.07749163 -0.0014811757 -0.05734374 0.034885596 -0.022201987 -0.044498872 -0.028407048 0.0287126
-0.04913869 0.0041989684 -0.040908515 0.030784186 -0.00979945 -0.014056271 -0.017279241 0.026321365
-0.028516768 -0.031673066 0.021631215 -0.040569894 -0.04719814 -0.12906837 -0.026595403 -0.030944737
-0.0052675046 0.085900344 -0.038204588 -0.074725956 0.026139373 -0.07023542 0.035516094 -0.037590604
-0.062736265 -0.026460955 -0.013429004 -0.02730896 -0.061060894 -0.0914779 -0.068786524 -0.03663302
0.01396691 0.0217018 -0.026056167 0.012591778 -0.09386763 -0.08594347 -0.08577875 -0.0873699
0.04699775 -0.060029503 -0.021939771 -0.06895814 -0.050400384 0.013161466 0.00060014986 -0.047384325
-0.0251308 -0.044159614 -0.05765053 0.08439198 0.027964441 -0.0759794 0.11561517 -0.068810925
-0.1020395 0.016722912 -0.012792294 0.026076566 -0.03106417 -0.0160897 -0.046549365 0.047621384
-0.029433396 -0.037018105 -0.036003478 -0.013683723 0.10312485 -0.037077334 -0.013165653 -0.021283481
0.06695021 0.030756963 0.026114754 -0.08510334 -0.013827156 -0.03859498 0.10062084 -0.059128895
0.0066401293 -0.030552948 -0.01096357 -0.061615836 -0.06835353 -0.078506745 0.014315184 -0.053616874
-0.06553925 -0.024686014 -0.00050390465 -0.090483025 -0.010238744 -0.09180924 0.0051041977 -0.041105323
-0.07797025 -0.039255276 -0.06052484 0.0038281837 -0.025201695 -0.041816324 -0.031720906 -0.06832969
-0.045119178 0.023654848 -0.01604926 -0.050465602 -0.053669564 -0.019293949 -0.09740899 -0.0076793684
0.023747457 0.00357138 -0.06918642 -0.04664519 -0.018932017 -0.02599606 -0.0013997327 0.020123035
-0.012058206 -0.073083006 -0.0426221 -0.10353012 -0.011896527 -0.0788357 -0.009278499 -0.055154953
0.004353882 0.08729469 0.09465039 -0.057979822 -0.050389666 -0.028383126 -0.08477184 0.030044142
0.025090333 -0.08931372 -0.065777816 0.017261125 -0.073519625 0.007991053 -0.039133944 -0.00391164
0.046008136 -0.08786723 0.10032034 0.080973715 -0.05909675 0.012386735 -0.026790818 -0.08733467
-0.11208002 0.023638994 -0.10334999 0.05772612 -0.058218215 0.0037481983 -0.020477472 -0.005324418
-0.05512237 0.010183655 0.010811743 0.027501348 0.055340905 0.05271469 -0.069910996 -0.052538726

output_layer.weight f4 [2, 300]
00000000: 626e 133d bf39 d53c ccd3 39bc 2ec1 8bbc
00000010: 42d4 393c 42ad 13bd 5438 613c 0a98 4ebc
00000020: 7637 063d 53eb 1c3d 000d 33bd 3d87 353d
00000030: ad86 d6bd 9e27 6ebd f04d 47bd 2b81 9040
00000040: ce52 2e3d 162b aa3d 8517 19bc 6937 01c0
00000050: 2367 ae3f e44f 8a3d 67f6 7cc0 6dae 713c
00000060: b269 be3c 8102 033e 8a1e 1abd 4429 093d
00000070: d9d2 2cc0 0591 8b3c b869 f3bc b9fe ffc0
00000080: 92c5 a6bd 9f6a 2ebd 16ce 843b ee08 803b
00000090: e856 2d3d 6b18 f93c eaaa d4bc 573e 8fbd
000000a0: b98b d13c 8442 d63c a4d4 cd3b 9ec6 f43d
000000b0: 82c2 af3c 61a4 593c 9e6f 1a3c 6c85 983c
000000c0: 1d9e e53c bd20 24bd 8076 4c3b f7fd b1bc
000000d0: 56d3 1abd 8ea2 4a40 8164 23bd c8ba 423b
000000e0: a902 debd 6c3d 80be 5670 0abd a3e6 4ebd
000000f0: 1b12 0d3d 8fff e83c f040 d2bb 64e1 80bc
00000100: ca59 733e 25b1 ffbc 5602 083e 620f a8ba
00000110: 84a3 a0be af43 78bd 6ccb 5d3d c3c5 85be
00000120: 6ad9 0f3d 60f9 8bbd 0002 83bd 0a71 be3d
00000130: e126 843d 5c88 b63c 5344 963d d5e3 083c
00000140: 624d 123d 0ff6 153d 1100 223c 027a 113d
00000150: a03f df3c ed42 bbbd 3031 643e 0a0d 553d
00000160: 0ce8 043d 34ae b8bd 64ec c9bc ae86 cd3c
00000170: 1382 873d 3d19 7f3e 1bfd 10bd ece8 48c0
00000180: 9a5a f6bd 465a cb3b 7dcc 803d 7258 183c
00000190: a0ea 723d 37a3 e73b 6a9e 333d 4d93 7fbf
000001a0: 8fef 9a3d 5c27 7cbd 7880 a3bd 7ef1 4c3d
000001b0: 545e 6f3e 2195 c63e d053 d7bd 4339 253d
000001c0: 1be6 b3bc 5f2c e93c d780 08bd 982c 2e3e
000001d0: 8ed1 5abd 80da 8c3b d68c b53e b992 7c3c
000001e0: 110e 563d 553a 563f a142 ad3d 6603 8dbe
000001f0: ebb9 d53d 7015 a13d baa7 5e3c a2b4 de3c
00000200: 1930 28be 2dc7 a43c f24f 9dbb 8605 26bd
00000210: bf1c 3a3c 7ca4 53bd 8909 c73c 8ae7 94bc
00000220: 8a0a ba3c ff45 32bd 24ff b5bc 5e71 0cc0
00000230: 6b1d 54bd f277 7a3c db45 46bd 6917 3abd
00000240: 5fcd 003d b089 85ba dff2 65bc e6db a4bd
00000250: 2201 7e40 2dc9 333d ea5a 09bd a2ec 33c0
00000260: c1f8 74bb fe13 a6bc c354 813e 58fc 4d3d
00000270: 0aa4 e4bc 74cd 53bd d41e 56bc 2fae dcbc
00000280: 7867 cb3b a80e 40bd 67e3 b2c0 44c2 56bd
00000290: ed2c c53d 6442 d4be eb5e 363b c80f 89bc
000002a0: 4607 52be 96bd 423d 062e cd3c 12ec 1e3c
000002b0: b18a 85bb 3219 f23e 494e a0bc 2444 75bd
000002c0: 98a7 ae3c 9395 2b3d 65bc 83be 07e3 123d
000002d0: 9a80 9a3d fa4c c53c d2fe 81bd a29d ae3e
000002e0: 07be d53c dc3d bfbc c2a5 ff3f 4f25 113f
000002f0: 27e6 643d d345 11bd ae04 793d 4f32 5abd
00000300: d98d f13c c246 ac3b 2d6b 9c3c ba91 3a3b
00000310: 6d4a e93c 032b e4bc 3c2e 113b ba7d fbbc
00000320: 718d 393d 2e13 6ebd da47 b2bc 7083 343d
00000330: af3a 2abf bc20 963d c396 18c0 542e b4bc
00000340: 116c 11bd 6c1c 90bc b387 963d cb5f debd
00000350: 0b7a 09bd c7ae 55bc 773a 773d e252 143d
00000360: 62d5 21bd 8e27 2240 becb 5a3c 6ea7 0cbc
00000370: 5892 533d f4b8 4abd e7cb 9abc fb3d 873d
00000380: dd3c 193d 5463 fbbb a803 22bb cf73 063d
00000390: 026a 1bbc f346 0c3d 8602 2a3d 6dab 103e
000003a0: 9ffd be3c 96ed df3c c986 2bbd 7a15 34bb
000003b0: adb6 39bd 1961 93bd 1a35 683e d905 ab3c
000003c0: f35d bc3c 2992 573c 47ee d93c 3072 2bbd
000003d0: a54c 2abb 3eeb 32bd 71a7 10bd 7a2f acc0
000003e0: 5f07 1dbd f856 223d 0375 28bd 6005 afbf
000003f0: dd83 90bd e000 abbe a88a 3dbd 06fa 92bb
0.03599394 0.026028512 -0.011342 -0.017059889 0.01134211 -0.036053903 0.01374634 -0.012609491
0.032767735 0.03831036 -0.04371357 0.044318426 -0.10474906 -0.05814325 -0.04865831 4.5157676
0.042559437 0.08308999 -0.009343986 -2.019007 1.3625225 0.06753519 -3.9525392 0.014751059
0.023243759 0.12793924 -0.03762678 0.03348662 -2.7003691 0.017036924 -0.029713497 -7.999844
-0.08143152 -0.04258215 0.0040528877 0.0039073145 0.04231921 0.030407151 -0.025960404 -0.06994312
0.02557932 0.026154764 0.0062814523 0.11951946 0.021455053 0.01328382 0.009426026 0.018618308
0.028029496 -0.040070284 0.0031198561 -0.021727545 -0.037799202 3.1661716 -0.03989077 0.002971338
-0.10840351 -0.2504686 -0.03379854 -0.05051292 0.034441095 0.028442172 -0.0064164326 -0.015732475
0.2376472 -0.031212399 0.13282141 -0.0012821967 -0.31374753 -0.060611423 0.054149076 -0.26127443
0.03511945 -0.06834674 -0.06396866 0.09298904 0.06452728 0.022281818 0.073372506 0.008355101
0.03571833 0.036611613 0.009887711 0.035516746 0.027252018 -0.091436245 0.22284389 0.05201439
0.03244786 -0.090176016 -0.024648853 0.025088634 0.066166066 0.24911971 -0.03539763 -3.1392164
-0.120289996 0.00620583 0.06289003 0.009298431 0.059305787 0.0070690173 0.043852247 -0.9983414
0.075652234 -0.061560974 -0.07983488 0.050034992 0.23375827 0.3878565 -0.10514033 0.040337812
-0.021960309 0.02846354 -0.033325996 0.17009199 -0.053422503 0.004298508 0.35459012 0.015415841
0.05225951 0.8368276 0.08459974 -0.27541655 0.10435852 0.07865417 0.013589794 0.027185742
-0.16424598 0.020114506 -0.00480079 -0.04053261 0.011359393 -0.051670536 0.024296539 -0.018176813
0.022710104 -0.043523785 -0.022216387 -2.1944194 -0.051785868 0.015287386 -0.048406463 -0.045432482
0.031445857 -0.0010188129 -0.014034956 -0.08049755 3.9688191 0.043893028 -0.033533968 -2.811318
-0.0037379714 -0.020273205 0.2525998 0.050289482 -0.027910251 -0.051709607 -0.013068873 -0.026938526
0.006207403 -0.046888977 -5.590259 -0.05243136 0.096277095 -0.41456902 0.0027827572 -0.016731158
-0.20510587 0.047544084 0.02504636 0.009699838 -0.004075371 0.47284847 -0.01956858 -0.059879437
0.02132015 0.041890692 -0.2572967 0.03586104 0.0754406 0.024084557 -0.06347431 0.3410464
0.026091589 -0.023344927 1.997246 0.56697553 0.055883553 -0.03546698 0.06079548 -0.053270634
0.029486584 0.0052574584 0.019094074 0.0028468207 0.028477872 -0.02785254 0.0022152802 -0.0306996
0.045300905 -0.05812376 -0.021762777 0.04407066 -0.66495794 0.07330462 -2.3842018 -0.021994747
-0.03550345 -0.017591678 0.07350101 -0.10858115 -0.033563655 -0.013042158 0.06035849 0.036211856
-0.03951014 2.5336642 0.01335424 -0.00858484 0.051653236 -0.04949279 -0.018896056 0.06603619
0.03741156 -0.007671753 -0.0024721418 0.032825287 -0.009485723 0.03424735 0.041506313 0.14127894
0.023314295 0.02733497 -0.041876588 -0.0027478621 -0.04534023 -0.07196254 0.22676507 0.020876812
0.022994017 0.013157406 0.026602877 -0.041856945 -0.0025985625 -0.043681376 -0.035315935 -5.3807955
-0.038337108 0.03963372 -0.041127216 -1.3673515 -0.07056401 -0.33399105 -0.04627481 -0.0044853715

output_layer.bias f4 [2]
00000000: cc1c 793e 2ce9 8c3f
0.24327391 1.1008658
