trained_model_original_200epchos.pth (torch, 369175 bytes, 6 tensors)

rnn_cell.weight_ih f4 [300, 2]
-0.0380369 0.17296623 0.059576087 -0.12569888 -0.029757915 -0.20961197 0.024623204 0.026901657
-0.06457092 -0.042841073 -0.03135958 -0.03875799 0.006111888 0.04022104 0.06150826 -0.23250204
0.18623509 -0.11169713 -0.12998742 -0.035864163 -0.22800161 -0.048644755 0.10045085 0.1058529
-0.07355935 0.20342943 -0.014928445 0.11948125 0.073767096 -0.15587308 0.024580859 0.017527107
-0.18277267 0.009952725 -0.12371834 -0.013197611 -0.07900006 -0.0067408346 0.23542652 -0.076354034
-0.12868078 -0.12394128 -0.009257098 0.040745832 -0.020772109 -0.013509334 -0.017869078 0.048792075
0.18471585 -0.0629814 0.19280064 0.039551437 0.09145112 -0.18342042 -0.09430452 -0.14595696
0.13491017 -0.08310999 0.021849137 0.05573217 -0.23234355 0.12942712 -0.031429723 -0.01764203
0.04561234 -0.01456813 0.072474234 -0.020405378 0.09181711 -0.106587425 0.09362756 -0.018512646
-0.018586451 0.04643722 -0.022032592 -0.029416863 -0.1525271 0.0032271007 -0.0070870463 0.014410585
-0.03998971 -0.02264108 0.07298047 -0.19528168 0.16519177 -0.120376766 0.0009469895 -0.19248192
-0.015846215 0.004657548 0.1640223 -0.13917309 0.25664437 -0.07497199 0.18888135 -0.07043591
-0.11272782 -0.17085634 -0.02705057 0.04126141 0.009134868 0.123538904 0.09749945 0.030109944
-0.19577605 -0.1840715 -0.025640845 -0.011396203 0.012130409 0.07178116 0.0026343565 -0.036064815
0.008579135 -0.18116616 0.06768821 -0.081900425 0.014214654 0.029401097 0.13548553 0.048075795
0.04635416 0.012002848 -0.2083012 0.12981096 -0.028979585 -0.060541328 -0.021102892 0.07246733
0.14312232 -0.12970914 -0.1336633 0.048145384 0.15369841 0.117213026 0.018804502 -0.036260244
0.00815596 -0.07653471 -0.021470873 -0.032684084 -0.018005235 -0.15349144 -0.15521422 0.13365512
-0.22788402 0.10970478 0.04073622 -0.054658655 -0.17231132 0.06245691 -0.09870985 -0.11835105
-0.16471861 0.20098199 0.024509517 0.06240951 0.099853285 -0.03476294 0.21462539 0.12089212
0.23393117 0.20141016 -0.14405152 0.15109299 -0.088093765 -0.22733727 -0.10019227 -0.021222154
0.012640919 0.005359306 -0.07951961 0.02995701 -0.074831806 0.0188335 0.20452082 -0.10616826
0.036229722 -0.130547 -0.14522432 -0.08875517 0.048607897 0.06274487 0.07281921 -0.20258158
-0.08323701 0.08733009 -0.022441126 0.03162897 -0.004787468 -0.038927875 -0.047467846 -0.018529546
0.11520536 -0.20291735 0.18305634 -0.13085133 -0.21288267 -0.06513897 0.11397107 -0.15097588
-0.10636354 -0.24273667 0.12661697 -0.14769205 -0.11200091 0.11814618 -0.17558643 0.17927939
0.25628427 0.14897121 -0.008046349 -0.14750378 0.008505432 -0.22048031 0.17041434 0.16960222
0.1555858 0.082228206 -0.031812392 -0.021258347 0.07581512 -0.06424053 0.11876952 -0.16617276
-0.04269143 0.030106848 0.042372864 -0.0038212833 0.16430244 0.0672699 -0.030891174 0.0934077
0.04256792 0.0366907 -0.010170776 0.039104786 0.006355654 0.02493671 -0.024087813 0.146948
0.10970073 0.18512191 0.02868687 -0.20649208 0.08494605 -0.18933891 -0.008281688 -0.0018732914
-0.04059853 0.0047972095 -0.1253704 0.10762734 0.07877601 -0.09929985 -0.10166224 -0.0028914297
00000000: 95cc 1bbd 0f1e 313e 0e06 743d 35b7 00be
00000010: dfc6 f3bc 85a4 56be 9ab6 c93c dd60 dc3c
00000020: c23d 84bd 1f7a 2fbd e772 00bd b3c0 1ebd
00000030: 3c46 c83b d1be 243d 16f0 7b3d 0415 6ebe
00000040: 69b4 3e3e 77c1 e4bd 6c1b 05be 4de6 12bd
00000050: 4179 69be b93f 47bd 2db9 cd3d 68c9 d83d
00000060: 49a6 96bd ce4f 503e 7096 74bc 96b2 f43d
00000070: 3413 973d 319d 1fbe cc5d c93c 0295 8f3c
00000080: c228 3bbe c110 233c 0b60 fdbd cb3a 58bc
00000090: c9ca a1bd 38e2 dcbb a613 713e 815f 9cbd
000000a0: e5c4 03be edd4 fdbd 15ab 17bc 1ae5 263d
000000b0: 452a aabc 4156 5dbc 2c62 92bc 33da 473d
000000c0: 2726 3d3e 64fc 80bd 886d 453e b000 223d
000000d0: ba4a bb3d 90d2 3bbe ba22 c1bd be75 15be
000000e0: e425 0a3e 9235 aabd f6fc b23c 6a47 643d
000000f0: 78eb 6dbe 8b88 043e 74bc 00bd 0586 90bc
00000100: 01d4 3a3d 2aaf 6ebc 5f6d 943d 2e29 a7bc
00000110: 9c0a bc3d 824a dabd cebf bf3d d5a7 97bc
00000120: 9d42 98bc f434 3e3d b27d b4bc a2fb f0bc
00000130: 1030 1cbe c47d 533b 743a e8bb 601a 6c3c
00000140: 40cc 23bd c979 b9bc c976 953d ecf7 47be
00000150: 0828 293e 1888 f6bd 643f 783a fb19 45be
00000160: eccf 81bc 589e 983b 76f5 273e 6483 0ebe
00000170: e466 833e ea8a 99bd 1d6a 413e b440 90bd
00000180: d8dd e6bd f7f4 2ebe 2899 ddbc b901 293d
00000190: 6aaa 153c f701 fd3d cbad c73d 21a9 f63c
000001a0: 8479 48be 3d7d 3cbe c00c d2bc 24b7 3abc
000001b0: 9fbe 463c 0002 933d 2ba5 2c3b b3b8 13bd
000001c0: 808f 0c3c 9f83 39be 1ea0 8a3d 69bb a7bd
000001d0: 95e4 683c 92da f03c b8bc 0a3e 20eb 443d
000001e0: dcdd 3d3d 98a7 443c e94c 55be 2aed 043e
000001f0: 9866 edbc 2ffa 77bd f9df acbc c069 943d
00000200: a88e 123e 79d2 04be 08df 08be 1834 453d
00000210: 1e63 1d3e 620d f03d e60b 9a3c 9f85 14bd
00000220: 93a0 053c 3bbe 9cbd afe3 afbc bfdf 05bd
00000230: b77f 93bc dc2c 1dbe 7af0 1ebe e3dc 083e
00000240: 6e5a 69be e6ac e03d 06db 263d c1e1 5fbd
00000250: 6172 30be d1d2 7f3d 6428 cabd 0962 f2bd
00000260: ffab 28be 39ce 4d3e 2fc8 c83c 1da1 7f3d
00000270: e17f cc3d 9663 0ebd c2c6 5b3e 4a96 f73d
00000280: a78b 6f3e 773e 4e3e 3e82 13be 1fb8 1a3e
00000290: 816a b4bd 1acb 68be 9b31 cdbd 15da adbc
000002a0: db1b 4f3c 1e9d af3b 2ddb a2bd 6768 f53c
000002b0: 6b41 99bd b648 9a3c e86d 513e bf6e d9bd
000002c0: 9e65 143d 1dae 05be afb5 14be 45c5 b5bd
000002d0: 1319 473d 6280 803d 3d22 953d 8c71 4fbe
000002e0: 2a78 aabd 1eda b23d 74d6 b7bc 618d 013d
000002f0: 31e0 9cbb d672 1fbd a56d 42bd 46cb 97bc
00000300: caf0 eb3d 91c9 4fbe 1f73 3b3e e4fd 05be
00000310: eafd 59be 9567 85bd aa69 e93d 6c99 1abe
00000320: 21d5 d9bd f68f 78be e1a7 013e 963c 17be
00000330: bc60 e5bd a0f6 f13d eecc 33be 0495 373e
00000340: b137 833e e98b 183e d5d4 03bc 3b0b 17be
00000350: 5e5a 0b3c 97c5 61be 1981 2e3e 34ac 2d3e
00000360: e251 1f3e 4367 a83d b64d 02bd fc25 aebc
00000370: f544 9b3d 8a90 83bd 6f3d f33d 3129 2abe
00000380: 35dd 2ebd a3a2 f63c 2b8f 2d3d 7f6e 7abb
00000390: e63e 283e cdc4 893d 7d0f fdbc 894c bf3d
000003a0: b35b 2e3d fd48 163d 54a3 26bc 572c 203d
000003b0: 1743 d03b 1248 cc3c ce53 c5bc 8979 163e
000003c0: c7aa e03d 9990 3d3e ba00 eb3c a972 53be
000003d0: 32f8 ad3d 0fe2 41be ebaf 07bc 3b89 f5ba
000003e0: a54a 26bd e931 9d3b 1961 00be b96b dc3d
000003f0: 5155 a13d b85d cbbd 4b34 d0bd 247e 3dbb

rnn_cell.weight_hh f4 [300, 300]
-0.052544888 0.097163066 0.012373883 0.042757113 -0.03174113 0.0043629752 0.011955325 0.0037452462
0.016143331 -0.02996647 -0.04506645 -0.08095939 -0.0438654 -0.08943373 0.010394418 0.028542038
-0.018828804 -0.030014623 0.046949774 -0.12085499 -0.026078159 0.04732749 -0.034020834 0.031245552
0.014955756 -0.09315074 0.001802516 0.022781525 -0.061870873 0.028085042 -0.010650678 0.050732236
-0.045102198 -0.08484667 -0.014137126 0.011952418 0.021757638 -0.06580124 -0.0900871 -0.060355317
-0.0062961625 0.023892187 -0.0880631 -0.060782026 0.034310963 -0.016784659 0.0128961215 -0.03582041
-0.07930441 -0.017369699 -0.008707804 0.018319406 0.018834777 -0.10277732 -0.009085125 0.00436354
-0.077887535 -0.018333882 0.055857614 -0.05405276 -0.028263709 -0.029992847 -0.029963534 -0.02575792
-0.0020758593 -0.054401383 0.086699486 -0.055720806 -0.043686338 0.025909824 -0.00048223653 -0.03720524
-0.118314944 0.011715309 0.018927293 0.10698618 -0.102248184 -0.032169826 -0.031677343 -0.10921954
-0.041909732 -0.03008688 0.004482704 -0.053491935 -0.037199117 0.005503944 -0.044088833 -0.034117922
-0.1505388 -0.044446446 0.009543333 0.007753216 0.04751026 0.02986287 0.063247696 -0.034943976
0.0059703337 -0.04106206 0.0003045936 -0.06812516 -0.0001971299 -0.071596645 -0.0598427 0.036873106
-0.07719413 0.0031624842 -0.02228858 -0.10676822 -0.11056331 0.030122906 -0.026767543 -0.011777927
-0.051661514 -0.07861255 -0.031416833 -0.09607852 -0.051546965 -0.06031847 -0.014581124 -0.07590062
-0.018698717 -0.0060114176 0.03411428 -0.05172498 -0.022540698 -0.07507793 -0.02034345 0.06812563
-0.014096545 -0.06710718 -0.005272945 -0.038202092 -0.0230399 -0.0774388 -0.06292111 -0.0900019
-0.05721738 -0.12019786 0.025244836 -0.054130305 -0.07324401 0.014719433 -0.0045744833 -0.003328852
0.009538867 -0.028810306 -0.06968063 -0.028672535 0.020289194 -0.07512833 -0.0041536987 -0.02488987
0.042290974 -0.051133152 -0.107713915 -0.01199124 -0.10295428 -0.07171067 -0.118004166 -0.056863874
-0.100361325 -0.07316501 -0.038563877 -0.066953585 -0.030892532 -0.1108914 0.02291048 -0.004476035
-0.06218359 0.004812658 -0.025809234 -0.22709258 -0.001419548 -0.046552636 -0.0063400343 0.038796913
0.007160608 -0.07559604 -0.08983751 -0.05138592 -0.019513387 -0.050843794 -0.011432055 -0.05564746
-0.11339955 -0.053977076 -0.044500895 -0.040532235 0.011627639 -0.047251604 -0.09384083 -0.012161563
0.0053156964 -0.07460118 0.008435358 0.02562108 -0.06609093 -0.016354844 -0.031046206 -0.08593364
-0.03569757 0.054115143 -9.263796e-05 0.08100811 -0.11241719 0.03663913 -0.09772263 0.048087027
-0.0840076 0.019597467 0.03045259 -0.036884382 -0.08475862 -0.027640441 -0.0036899871 -0.079445794
-0.054724697 -0.04302104 -0.101125404 -0.10310594 -0.04862738 -0.013126819 -0.03460023 -0.10059241
-0.062146343 -0.029824346 -0.09591493 -0.049241737 -0.10391715 -0.047845975 -0.011947108 -0.028541304
-0.025712509 -0.042832166 0.0059529264 -0.027540397 -0.0880346 -0.0036353155 -0.020569492 -0.014696062
0.032771394 -0.053506363 -0.045292724 -0.029890418 -0.04238934 0.020610604 -0.03853762 -0.028868455
0.0124752065 -0.032778237 -0.063018225 0.0027574254 0.0017231781 0.0073973625 -0.032457143 -0.00056681625
00000000: 4f39 57bd 6efd c63d d4bb 4a3c 1522 2f3d
00000010: fd02 02bd 4af7 8e3b 44e0 433c ce72 753b
00000020: 053f 843c 3e7c f5bc 9997 38bd 09ce a5bd
00000030: 35ac 33bd 0829 b7bd 594d 2a3c fed0 e93c
00000040: dd3e 9abc 3ae1 f5bc 684e 403d d282 f7bd
00000050: dda1 d5bc 78da 413d 6e59 0bbd acf6 ff3c
00000060: fd08 753c d1c5 bebd 6742 ec3a 52a0 ba3c
00000070: 506c 7dbd 9a12 e63c 2e80 2ebc 9bcc 4f3d
00000080: 15bd 38bd 17c4 adbd 679f 67bc 13d4 433c
00000090: 133d b23c cdc2 86bd 967f b8bd 2337 77bd
000000a0: 0a50 cebb 8cb9 c33c 6d5a b4bd 93f6 78bd
000000b0: a789 0c3d fb7f 89bc 414a 533c 6cb8 12bd
000000c0: 5a6a a2bd e64a 8ebc 2dab 0ebc 9412 963c
000000d0: 644b 9a3c ea7c d2bd c7d9 14bc 07fc 8e3b
000000e0: 8083 9fbd f030 96bc f4ca 643d 6d66 5dbd
000000f0: 4b89 e7bc 8fb3 f5bc 1676 f5bc 4602 d3bc
00000100: 240b 08bb fcd3 5ebd 808f b13d 803b 64bd
00000110: 72f0 32bd d740 d43c b1d4 fcb9 8664 18bd
00000120: 1b4f f2bd 91f1 3f3c 690d 9b3c 921b db3d
00000130: 7f67 d1bd 82c4 03bd 1ac0 01bd 7fae dfbd
00000140: 8aa9 2bbd c378 f6bc a6e3 923b 5c1a 5bbd
00000150: 1a5e 18bd 6e5a b43b 7e96 34bd 3cbf 0bbd
00000160: d826 1abe 7a0d 36bd a45b 1c3c b10e fe3b
00000170: 1e9a 423d faa2 f43c 0288 813d 6a21 0fbd
00000180: caa2 c33b b130 28bd dcb1 9f39 3485 8bbd
00000190: a8b4 4eb9 43a1 92bd 9e1d 75bd 4108 173d
000001a0: f517 9ebd ae41 4f3b 8a96 b6bc 4ca9 dabd
000001b0: 046f e2bd 50c4 f63c 9b47 dbbc 35f8 40bc
000001c0: 069b 53bd 9eff a0bd f0ae 00bd d1c4 c4bd
000001d0: e922 53bd 8010 77bd abe5 6ebc c971 9bbd
000001e0: 0d2e 99bc 6dfb c4bb 6abb 0b3d 93dd 53bd
000001f0: 45a7 b8bc 75c2 99bd 4fa7 a6bc 7385 8b3d
00000200: 32f5 66bc 7d6f 89bd abc8 acbb cc79 1cbd
00000210: 2cbe bcbc 3c98 9ebd c8dc 80bd eb52 b8bd
00000220: c55c 6abd 4c2a f6bd 42ce ce3c bdb7 5dbd
00000230: f500 96bd c729 713c 8ce5 95bb de28 5abb
00000240: e848 1c3c 9703 ecbc b8b4 8ebd aae2 eabc
00000250: 8635 a63c e2dc 99bd c01b 88bb d7e5 cbbc
00000260: 4d39 2d3d ff70 51bd 1d99 dcbd e876 44bc
00000270: b2d9 d2bd 0bdd 92bd 2bac f1bd 18ea 68bd
00000280: 3d8a cdbd 89d7 95bd 28f5 1dbd f61e 89bd
00000290: 5612 fdbc 081b e3bd c2ae bb3c b4ab 92bb
000002a0: 38b4 7ebd 80b3 9d3b e36d d3bc f58a 68be
000002b0: 2010 baba faad 3ebd 10c0 cfbb 83e9 1e3d
000002c0: 89a3 ea3b 19d2 9abd bafc b7bd 0b7a 52bd
000002d0: 8ada 9fbc 9541 50bd 844d 3bbc 97ee 63bd
000002e0: 063e e8bd 1117 5dbd 9246 36bd 2105 26bd
000002f0: da81 3e3c e68a 41bd 9f2f c0bd 4b41 47bc
00000300: 4b2f ae3b 81c8 98bd 7534 0a3c 4de3 d13c
00000310: ae5a 87bd 98fa 85bc 9d54 febc fafd afbd
00000320: 9d37 12bd d7a7 5d3d a046 c2b8 94e7 a53d
00000330: fc3a e6bd ea12 163d cd22 c8bd e7f6 443d
00000340: 2d0c acbd de8a a03c b677 f93c 1414 17bd
00000350: ed95 adbd 356e e2bc b6d3 71bb 7ab4 a2bd
00000360: 0127 60bd d436 30bd d61a cfbd 3529 d3bd
00000370: 812d 47bd df11 57bc f9b8 0dbd 6503 cebd
00000380: 2a8d 7ebd 3052 f4bc 0c6f c4bd b4b1 49bd
00000390: 84d2 d4bd 24fa 43bd cebd 43bc 74cf e9bc
000003a0: 0aa3 d2bc c870 2fbd c410 c33b 669c e1bc
000003b0: 7c4b b4bd 793e 6ebb 5a81 a8bc c0c7 70bc
000003c0: 4c3b 063d 7d29 5bbd dd84 39bd c0dc f4bc
000003d0: 72a0 2dbd 92d7 a83c a0d9 1dbd 8a7d ecbc
000003e0: cf64 4c3c 7942 06bd b30f 81bd ecb5 343b
000003f0: 43dc e13a 9365 f23b c8f1 04bd 6596 14ba

rnn_cell.bias_ih f4 [300]
0.07049676 0.0612969 -0.010425254 -0.030865153 0.008954881 -0.069753304 0.019973462 -0.0015594228
0.04817129 -0.0576503 0.029062811 -0.055455506 -0.0049193758 -0.04318494 0.029608604 -0.017153503
-0.0028142086 0.037304807 -0.048088398 0.011798835 -0.01598401 -0.044049323 -0.05994238 -0.012665485
0.033147544 0.07930797 0.02804307 0.037112292 -0.04283679 -0.03400981 -0.02191873 -0.039467767
0.011874319 0.005161585 -0.016444715 -0.0130513515 -0.049389318 -0.0103729805 0.09861469 -0.033576556
-0.038789272 -0.09101703 -0.028358422 0.0064023044 -0.055467572 0.025750792 0.02533718 -0.057201177
-0.02208348 -0.033521358 0.053235006 -0.07592913 0.05161236 -0.053045355 -0.031988002 -0.036207408
-0.00048684614 0.023788188 -0.036875766 0.016834022 -0.033586495 0.029371243 -0.016277608 0.0022640126
0.043821312 0.0083737355 0.06540995 -0.047056414 0.043881204 -0.075910024 0.021140471 0.044841662
-0.0193413 -0.0063511143 0.044854917 -0.06496769 -0.01626592 -0.07701988 0.0015316253 0.05252203
0.08298039 0.07047354 0.03078258 -0.015914068 -0.051967155 -0.05145997 0.027163597 0.049635626
-0.06287442 0.09130242 -0.043758575 -0.023540339 0.0053425473 -0.026668472 -0.005283043 -0.028388526
-0.042716026 -0.026221223 0.043664906 0.050392225 0.08102489 0.08240733 -0.06843429 0.028795825
0.049400643 0.055914 0.08540888 0.013318584 0.038456984 -0.015197407 0.007659559 -0.006381509
-0.009055565 -0.028536618 0.023171876 -0.033527043 -0.04283612 -0.034334004 -0.053674098 0.022820111
0.052095603 -0.04284273 0.07899468 -0.0029014274 -0.033230204 0.016741693 -0.046406496 0.014004323
0.031114183 0.05081366 -0.009625636 0.0039322097 -0.043420877 -0.030530095 0.051161233 0.009284939
-0.067822 -0.07031153 -0.06645298 -0.05970377 0.058979314 -0.058858614 0.05866118 0.039871503
-0.012264471 -0.0359155 0.014009162 0.06405583 0.0153288245 -0.03461476 -0.055406615 -0.031934444
0.013839266 0.048582304 0.005625833 -0.021653024 -0.017084919 -0.02118149 0.00043619768 0.008728973
0.045080047 0.07508905 0.071565226 -0.009186439 0.033971112 0.057681732 -0.05167142 -0.021575825
0.008139436 -0.007360769 0.0068504545 -0.005858506 0.021125276 -0.01891001 -0.032569565 -0.054335456
-0.0105048735 0.0052916044 0.06393188 0.009170573 -0.05502778 -0.017349262 0.013881981 -0.047144327
0.03088174 0.0012236048 0.02867826 0.04863948 -0.0019990602 0.027304865 -0.007941651 -0.031439558
-0.004936916 -0.018857935 0.057606265 0.02188765 0.012495109 0.051157746 -0.0019110184 0.032423962
-0.048659723 -0.03225399 -0.02817771 -0.02579758 0.021094635 -0.031705372 -0.03353531 -0.038215797
0.07105522 -0.036036137 -0.061737653 -0.02100086 0.03373971 -0.031807497 -0.031491272 -0.035855904
-0.013642077 -0.025562668 -0.023727395 0.03450103 0.019563295 0.05714116 -0.07554257 0.01719151
-0.0103960605 -0.07743809 0.015381211 0.018766131 -0.06082657 0.057292774 0.053224392 0.02374045
-0.012563735 0.03223227 0.009542524 0.031954594 -0.009917788 -0.050637737 0.014736253 -0.05663173
0.063382424 0.011385847 -0.025285998 -0.008226035 0.07212746 0.03206371 -0.01253114 -0.02259976
-0.0035685294 -0.023107871 -0.054042332 0.06476546 0.073708445 0.038573135 -0.030716512 -0.04471928
00000000: 9b60 903d 7512 7b3d afce 2abc ebd8 fcbc
00000010: 7eb7 123c d2da 8ebd 639f a33c 8c65 ccba
00000020: 424f 453d b922 6cbd 2215 ee3c 5025 63bd
00000030: b732 a1bb b1e2 30bd be8d f23c 8185 8cbc
00000040: 966e 38bb edcc 183d 57f8 44bd e74f 413c
00000050: e6f0 82bc 106d 34bd 2486 75bd e582 4fbc
00000060: b8c5 073d 386c a23d 95ba e53c 0f03 183d
00000070: a175 2fbd df4d 0bbd e98e b3bc f4a8 21bd
00000080: 818c 423c 8322 a93b 11b7 86bc 56d5 55bc
00000090: 744c 4abd 6ff3 29bc 80f6 c93d 9287 09bd
000000a0: 80e1 1ebd 2367 babd ec4f e8bc 6cca d13b
000000b0: f731 63bd 53f3 d23c eb8f cf3c c84b 6abd
000000c0: 6ae8 b4bc b14d 09bd f30c 5a3d bb80 9bbd
000000d0: 7b67 533d 1646 59bd da05 03bd 384e 14bd
000000e0: 623f ffb9 72df c23c 0b0b 17bd 81e7 893c
000000f0: fe91 09bd f69b f03c 9e58 85bc d45f 143b
00000100: fa7d 333d fe31 093c a7f5 853d 3abe 40bd
00000110: c7bc 333d b776 9bbd c82e ad3c e4ab 373d
00000120: a571 9ebc 021d d0bb cab9 373d c80d 85bd
00000130: 1b40 85bc 99bc 9dbd d1c0 c83a 5721 573d
00000140: 9ff1 a93d 6e54 903d c02b fc3c 385e 82bc
00000150: 83db 54bd b1c7 52bd 3186 de3c ba4e 4b3d
00000160: 4ec4 80bd c3fc ba3d 313c 33bd abd7 c0bc
00000170: 8910 af3b d777 dabc 601d adbb 0e8f e8bc
00000180: 00f7 2ebd e4cd d6bc f9d9 323d 1468 4e3d
00000190: 61f0 a53d 2dc5 a83d 4727 8cbd 39e5 eb3c
000001a0: 5458 4a3d 1406 653d daea ae3d 3136 5a3c
000001b0: 1285 1d3d 8cfe 78bc 0afd fa3b fa1b d1bb
000001c0: cb5d 14bc a0c5 e9bc f2d2 bd3c a753 09bd
000001d0: ed74 2fbd d0a1 0cbd 5fd9 5bbd 3ef1 ba3c
000001e0: 3362 553d dc7b 2fbd f6c7 a13d e025 3ebb
000001f0: 651c 08bd e025 893c bd14 3ebd 6372 653c
00000200: 2ce3 fe3c fc21 503d d8b4 1dbc c4d9 803b
00000210: 17da 31bd 401a fabc 718e 513d db1f 183c
00000220: 43e6 8abd 7eff 8fbd 8018 88bd f18b 74bd
00000230: 4b94 713d bb15 71bd b546 703d 4d50 233d
00000240: ebf0 48bc 221c 13bd af86 653c b42f 833d
00000250: c025 7b3c 35c8 0dbd 0cf2 62bd b1cd 02bd
00000260: 17be 623c 3dfe 463d e858 b83b af61 b1bc
00000270: acf5 8bbc ce84 adbc 76b1 e439 f703 0f3c
00000280: dba5 383d 4ac8 993d ca90 923d b882 16bc
00000290: 4b25 0b3d ae43 6c3d 69a5 53bd c9bf b0bc
000002a0: 455b 053c 9b32 f1bb c779 e03b b6f8 bfbb
000002b0: ea0e ad3c 2ae9 9abc aa67 05bd db8e 5ebd
000002c0: a21c 2cbc 3265 ad3b b8ee 823d 2c40 163c
000002d0: cf64 61bd 0a20 8ebc 4071 633c 691a 41bd
000002e0: b4fb fc3c 5d61 a03a acee ea3c 313a 473d
000002f0: aa02 03bb 74ae df3c b31d 02bc c4c6 00bd
00000300: dac5 a1bb f57b 9abc 8cf4 6b3d bb4d b33c
00000310: 49b8 4c3c c98a 513d 237b faba fdce 043d
00000320: 6b4f 47bd c31c 04bd f1d4 e6bc 7255 d3bc
00000330: a8ce ac3c 7edd 01bd 525c 09bd 2b88 1cbd
00000340: 6685 913d a19a 13bd 9fe0 7cbd ff09 acbc
00000350: a632 0a3d 9448 02bd fefc 00bd a4dd 12bd
00000360: 0583 5fbc cd68 d1bc f45f c2bc f450 0d3d
00000370: 3443 a03c d90c 6a3d 10b6 9abd 36d5 8c3c
00000380: 3d54 2abc dd97 9ebd 7a01 7c3c 6ebb 993c
00000390: 4825 79bd d4ab 6a3d d201 5a3d 557b c23c
000003a0: 20d8 4dbc fc05 043d 3f58 1c3c d2e2 023d
000003b0: 387e 22bc 8469 4fbd 5370 713c acf6 67bd
000003c0: a5ce 813d b48b 3a3c 9524 cfbc 7ec6 06bc
000003d0: 90b7 933d 3d55 033d 694f 4dbc 2223 b9bc
000003e0: fddd 69bb b84c bdbc 7e5b 5dbd c1a3 843d
000003f0: 74f4 963d ddfe 1d3d 32a1 fbbc 902b 37bd

rnn_cell.bias_hh f4 [300]
0.070659675 0.061033223 0.022458397 -0.021557555 -0.093490705 -0.030730313 -0.0013524615 0.04939397
0.081344314 -0.008688737 0.050066948 -0.066420265 0.07156221 -0.024632296 0.024624294 -0.03748939
0.057184767 0.020952856 -0.02875635 -0.017318456 0.057098832 -0.015265089 -0.01462988 -0.06412889
-0.047720157 0.0034927847 -0.01925132 -0.029892812 0.010249735 -0.041733567 0.03638754 0.0025022458
-0.038533162 -0.02414129 -0.056083694 -0.018947203 -0.023165267 0.005624069 0.04059727 0.0005051211
-0.04062975 -0.06761795 0.03669733 0.04074292 -3.2432377e-05 0.08073237 0.028718686 0.033448197
0.06879548 -0.030482765 0.031369977 -0.008000117 -0.0142526915 0.019973492 -0.048857827 -0.008643461
0.06261646 -0.078429 -0.057871636 -0.057892006 -0.054350432 0.021924073 -0.00866405 0.006390914
0.009346285 -0.026686704 0.032294672 -0.032131102 0.011492703 -0.010974634 0.08573367 0.037380386
0.028639283 0.012413301 -0.0020711236 -0.03890349 0.07274856 0.0066545242 -0.041115124 0.034614567
-0.0037159799 0.059587713 0.07258801 0.007852735 -0.02456327 0.010092548 0.027863383 -0.00028154918
0.030911649 0.032279015 -0.045846228 -0.0030774157 0.021664444 -0.017993608 -0.044188853 -0.036382522
0.019719804 0.020587394 0.0341526 0.046469294 -0.017825136 -0.019044984 -0.010375906 0.041481093
-0.040854186 0.05956391 0.053277504 0.039578315 -0.032431636 -0.034897048 0.022031564 0.059880923
-0.062892 0.0020336595 0.059262678 -0.0001713093 -0.013500978 -0.018029185 -0.08351774 -0.04673932
0.055949487 -0.055076394 0.066367485 -0.0068372716 -0.038651984 0.0052832644 -0.030769726 -0.03564981
0.057450276 0.06315927 -0.030442312 0.05186045 0.036304142 -0.02006757 -0.014349702 -0.037475605
-0.041383322 -0.07613626 -0.021626512 -0.04527042 0.051313672 -0.032323103 0.009345229 0.034356613
-0.012844967 0.006829009 0.0116286045 0.053410176 0.11614254 0.05927781 -0.011843637 0.00075255334
-0.03722219 -0.018882373 0.038351018 0.02568767 -0.018133752 -0.026659809 0.029904049 -0.044188514
-0.0050382335 0.0702707 -0.0053588734 0.053674284 0.007420305 -0.044569645 -0.0065475265 -0.042644985
0.038423326 -0.033228394 0.010415906 0.0747326 0.054768607 -0.023190347 -0.041704956 -0.03007371
-0.050891407 0.017955761 0.055501755 -0.061722066 0.00058005913 -0.011548975 -0.0070250137 -0.053632773
0.018447546 0.013894898 -0.016018052 -0.05247603 0.05968402 -0.005806979 0.042450212 -0.017445108
-0.0012227589 -0.054363552 -0.03484725 0.08259043 0.04455405 0.034631286 0.013116232 -0.028466871
-0.023535956 -0.012183996 -0.027132919 -0.114826635 0.006496134 -0.05346477 -0.009709998 -0.04743317
-0.019275235 0.0032292819 -0.017337106 -0.04434424 -0.0325341 0.07296186 -0.0059261657 -0.025691152
0.041600272 -0.028754476 0.0634964 -0.06392893 -0.025865363 0.018579837 -0.052800424 0.050314866
0.062416475 -0.06959757 0.07674324 0.030755801 -0.029879052 -0.04719989 0.0748197 -0.012782348
0.02691598 0.013949162 0.04130547 -0.00069347816 -0.020155713 -0.05352591 0.02225981 -0.061477367
-0.009958375 -0.0045881155 -0.02512268 -0.017511904 -0.018204523 0.072590105 -0.03681177 -0.012421706
0.08372311 -0.06343094 0.01592358 0.05494344 0.011141334 0.00455498 -0.010178459 -0.0026673134
00000000: 05b6 903d f9fd 793d acfa b73c 7899 b0bc
00000010: 0e78 bfbd 23be fbbc 1445 b1ba 5551 4a3d
00000020: d997 a63d 345b 0ebc 0013 4d3d 5907 88bd
00000030: 358f 923d abc9 c9bc e3b8 c93c 798e 19bd
00000040: 933a 6a3d 53a5 ab3c 7092 ebbc 6fdf 8dbc
00000050: 77e0 693d 6d1a 7abc 2ab2 6fbc 0256 83bd
00000060: 3676 43bd 34e7 643b f2b4 9dbc c5e1 f4bc
00000070: 81ee 273c d1f0 2abd 1a0b 153d b8fc 233b
00000080: f3d4 1dbd f4c3 c5bc 04b8 65bd 2a37 9bbc
00000090: 16c5 bdbc 1c4a b83b 5349 263d 1a6a 043a
000000a0: 616b 26bd 487b 8abd f14f 163d 0ce2 263d
000000b0: 0008 08b8 0357 a53d 7343 eb3c fa00 093d
000000c0: a5e4 8c3d feb6 f9bc ce7d 003d ec12 03bc
000000d0: 1f84 69bc 739f a33c 251f 48bd 4e9d 0dbc
000000e0: 0f3d 803d 629f a0bd cf0a 6dbd 2b20 6dbd
000000f0: 8f9e 5ebd 1d9a b33c a9f3 0dbc df6a d13b
00000100: 2921 193c 139e dabc 6b47 043d e79b 03bd
00000110: e44b 3c3c f4ce 33bc 2295 af3d 2d1c 193d
00000120: ee9c ea3c 2861 4b3c b0bb 07bb 4459 1fbd
00000130: 32fd 943d 320e da3b 5568 28bd 01c8 0d3d
00000140: cc87 73bb 3f12 743d 06a9 943d c2a8 003c
00000150: e938 c9bc 375b 253c c041 e43c e49c 93b9
00000160: 6d3a fd3c 0037 043d 41c9 3bbd 78ae 49bb
00000170: a279 b13c 5567 93bc 5fff 34bd d705 15bd
00000180: 6d8b a13c e5a6 a83c 99e3 0b3d 9656 3e3d
00000190: 0506 92bc 3a04 9cbc b4ff 29bc 14e8 293d
000001a0: b856 27bd 49f9 733d 8339 5a3d df1c 223d
000001b0: 09d7 04bd 35f0 0ebd 8a7b b43c b345 753d
000001c0: 85cd 80bd 2547 053b 6cbd 723d 7da1 33b9
000001d0: 3533 5dbc f1b1 93bc 590b abbd bb71 3fbd
000001e0: 4a2b 653d c997 61bd adeb 873d 310b e0bb
000001f0: 8b51 1ebd 3c1f ad3b cb10 fcbc 8905 12bd
00000200: fb50 6b3d a659 813d 2862 f9bc a06b 543d
00000210: a7b3 143d bf64 a4bc 031b 6bbc 0580 19bd
00000220: 8f81 29bd 54ed 9bbd 152a b1bc 7a6d 39bd
00000230: 492e 523d 3b65 04bd bb1c 193c 85b9 0c3d
00000240: b273 52bc e1c5 df3b e785 3e3c a1c4 5a3d
00000250: 24dc ed3d 4acd 723d d00b 42bc 0047 453a
00000260: 4c76 18bd 35af 9abc f515 1d3d f36e d23c
00000270: 3c8d 94bc ac65 dabc 56f9 f43c 04ff 34bd
00000280: c417 a5bb 16ea 8f3d 7d99 afbb 91d9 5b3d
00000290: 0826 f33b a98e 36bd a28c d6bb 82ac 2ebd
000002a0: c761 1d3d 7f1a 08bd 7aa7 2a3c 680d 993d
000002b0: 0c55 603d aff9 bdbc d1d2 2abd 245d f6bc
000002c0: 8273 50bd f617 933c cf55 633d 47d0 7cbd
000002d0: 1c0f 183a e937 3dbc 1632 e6bb 0aae 5bbd
000002e0: 4f1f 973c 6da7 633c 4a38 83bc 1bf1 56bd
000002f0: 3b77 743d 7848 bebb 46e0 2d3d 0be9 8ebc
00000300: fb44 a0ba 51ac 5ebd fdbb 0ebd 2c25 a93d
00000310: 4f7e 363d 89d9 0d3d 77e5 563c 5b33 e9bc
00000320: 7ace c0bc 629f 47bc db45 debc 3a2a ebbd
00000330: 86dd d43b e0fd 5abd af16 1fbc 4949 42bd
00000340: 19e7 9dbc 5ca2 533b 8c06 8ebc 4ea2 35bd
00000350: 7a42 05bd 076d 953d 4830 c2bb 4076 d2bc
00000360: 0c65 2a3d 828e ebbc 670a 823d 2ced 82bd
00000370: 99e3 d3bc be34 983c 4245 58bd f616 4e3d
00000380: 6ba8 7f3d 2c89 8ebd 8f2b 9d3d 97f3 fb3c
00000390: eac4 f4bc ac54 41bd 123b 993d 0e6d 51bc
000003a0: e77e dc3c 078b 643c ed2f 293d 88ca 35ba
000003b0: 981d a5bc fc3d 5bbd 345a b63c b1cf 7bbd
000003c0: 7428 23bc e757 96bb 14ce cdbc 2075 8fbc
000003d0: a721 95bc 1faa 943d f0c7 16bd 6984 4bbc
000003e0: 0677 ab3d 15e8 81bd 2b72 823c 5f0c 613d
000003f0: 248a 363c f141 953b 8dc3 26bc 18ce 2ebb

output_layer.weight f4 [2, 300]
0.22264285 -0.1912015 -0.10251956 -0.007392385 0.0018655844 -0.031393275 -0.079806685 0.039797366
0.14169021 -0.060010202 -0.12935054 0.04780579 -0.08373229 0.04964247 0.12779187 -0.04021823
-0.03571149 0.010662048 0.023809746 0.1069853 -0.11800966 0.042214543 0.003823785 -0.011871577
0.036075942 0.16024257 0.030500676 0.15426314 0.07968091 0.048369907 -0.13119958 -0.009842288
-0.068144366 -0.07241474 0.0573431 -0.06153484 -0.0062172483 0.054777548 0.37045994 0.027956186
-0.0070019495 0.08513703 0.12620538 -0.03533296 0.047177054 0.09033115 0.1652336 0.116218455
-0.10572648 0.030330203 0.0656194 -0.015704323 -0.1336451 -0.047658525 0.00893986 -0.005002796
-0.05994679 0.0048744204 -0.012408916 0.07029011 -0.047067594 -0.13910729 0.068069525 -0.06792992
-0.19614528 -0.16491517 -0.21484801 0.054207504 -0.061606724 0.04826376 -0.09088551 -0.11103673
-0.12919475 -0.07472938 -0.1369 -0.025497233 -0.11207737 0.030736353 -0.1300621 0.13835391
-0.24923341 -0.09162409 -0.046081677 0.016156377 -0.043389212 0.10189958 0.12470848 0.121642694
-0.057447623 -0.106847905 -0.0047453893 -0.14844975 0.17218755 -0.022884496 -0.025055336 0.03623206
0.009162576 0.08936386 -0.14368986 0.048883364 -0.04150025 0.12529182 0.020977758 0.21739371
0.12908165 0.10981375 0.09415772 0.050043944 0.0032100596 0.0329013 -0.07138706 0.053945456
-0.0015720458 -0.055677958 0.07677568 0.047094468 -0.023042193 0.012938651 0.011067391 0.06743239
0.0482558 0.06780182 0.059258573 -0.045441028 0.028146569 -0.10478427 0.11646814 -0.17481047
-0.10427469 -0.15070468 0.05200568 -0.11307937 0.0076500406 0.08782797 0.04046386 0.037998594
-0.032950066 0.06502629 0.025704281 -0.008352816 -0.08847099 0.0072823022 -0.14230208 0.033532914
0.051409304 -0.09882562 -0.014751135 0.16564251 -0.0561235 0.13098586 0.039952543 0.099696144
-0.051190227 0.052766696 0.105707794 -0.09080231 0.052985813 0.01576198 -0.1332929 -0.04333682
0.10705886 -0.13802189 -0.067682184 0.04007711 -0.013278705 0.079202205 -0.013885808 0.016575314
-0.10739995 -0.054518808 -0.02415739 -0.09035246 -0.09365603 -0.0613602 -0.01683184 -0.054847628
-0.06136644 -0.10514334 -0.07216139 0.020464899 -0.028297216 0.05379785 0.1309276 0.026842613
0.0931871 0.034611106 0.030873466 0.08963011 -0.13779624 -0.032466788 0.15509026 -0.082471065
0.048922814 0.09862297 0.062288176 -0.1629962 -0.059054185 0.14320026 0.09084491 -0.058157314
0.036689803 0.020681916 0.037530206 -0.057759833 -0.03010673 -0.0036912065 -0.048201416 0.04015587
-0.13294369 -0.03633935 0.051748574 -0.08544911 0.01954956 -0.13729002 -0.19670434 0.041037876
0.085140906 -0.0023413473 -0.012933945 -0.0034464223 0.08175304 0.049289446 0.060756467 0.028826503
0.084499836 -0.0061717043 0.17601874 0.13612264 0.05297801 -0.11188933 0.16032918 -0.08708848
0.13165075 -0.047614075 -0.11147033 -0.06179377 0.09481347 0.05175915 -0.09688681 -0.047457036
-0.078489505 -0.12535286 -0.044775814 -0.063635685 -0.10286435 0.0077970624 0.02796565 0.08857318
-0.14885724 0.031717926 0.048344508 0.15147538 -0.14385524 -0.07908267 -0.046027258 -0.072034806
00000000: 7dfc 633e 53ca 43be c6f5 d1bd d23b f2bb
00000010: a086 f43a 3c96 00bd b071 a3bd 9002 233d
00000020: 3d17 113e 42cd 75bd 7874 04be 01d0 433d
00000030: d67b abbd e755 4b3d dfdb 023e dfbb 24bd
00000040: 3646 12bd dfaf 2e3c a80c c33c 1c1b db3d
00000050: 0caf f1bd 28e9 2c3d 7898 7a3b 0181 42bc
00000060: 5ec4 133d a116 243e 8edc f93c 28f7 1d3e
00000070: bf2f a33d 861f 463d 2f59 06be 8c41 21bc
00000080: 468f 8bbd 2e4e 94bd 99e0 6a3d f50b 7cbd
00000090: 0fba cbbb 6c5e 603d edac bd3e 5f04 e53c
000000a0: 9c70 e5bb 535c ae3d fc3b 013e 4bb9 10bd
000000b0: ba3c 413d 8aff b83d ff32 293e f103 ee3d
000000c0: 2087 d8bd 0c77 f83c 7763 863d 5aa6 80bc
000000d0: 43da 08be 9635 43bd 7e78 123c 7fee a3bb
000000e0: c48a 75bd 9ab9 9f3b c44e 4bbc 43f4 8f3d
000000f0: f3c9 40bd 2472 0ebe 0968 8b3d d81e 8bbd
00000100: 4fda 48be 86df 28be 1e01 5cbe b008 5e3d
00000110: 5557 7cbd 38b0 453d 2f22 babd 3a67 e3bd
00000120: a14b 04be b80b 99bd 832f 0cbe 93df d0bc
00000130: d288 e5bd ceca fb3c 002f 05be a6ac 0d3e
00000140: 0b37 7fbe 69a5 bbbd 24c0 3cbd 615a 843c
00000150: e3b8 31bd bab0 d03d 2967 ff3d ce1f f93d
00000160: 334e 6bbd 13d3 dabd 367f 9bbb 3603 18be
00000170: ef51 303e 4478 bbbc d940 cdbc 1268 143d
00000180: a11e 163c 6604 b73d 6f23 13be ec39 483d
00000190: 2bfc 29bd 804c 003e 8cd9 ab3c 759c 5e3e
000001a0: fb2d 043e 08e6 e03d c3d5 c03d e1fa 4c3d
000001b0: dd5f 523b 83c3 063d 6133 92bd e9f5 5c3d
000001c0: 1b0d ceba 920e 64bd 913c 9d3d 21e6 403d
000001d0: fbc2 bcbc a3fc 533c 0154 353c fe19 8a3d
000001e0: e0a7 453d aedb 8a3d 1eb9 723d 5f20 3abd
000001f0: a293 e63c 2399 d6bd d986 ee3d 8401 33be
00000200: f88d d5bd 5452 1abe e803 553d 2896 e7bd
00000210: 31ad fa3b 27df b33d 6fbd 253d 6aa4 1b3d
00000220: a6f6 06bd 812c 853d c991 d23c 40da 08bc
00000230: 4730 b5bd 61a0 ee3b a3b7 11be cf59 093d
00000240: 9092 523d 1665 cabd bfae 71bc 319e 293e
00000250: c1e1 65bd 2821 063e 47a5 233d 7e2d cc3d
00000260: d8ac 51bd e421 583d 547d d83d 90f6 b9bd
00000270: a707 593d 451f 813c ef7d 08be f381 31bd
00000280: ad41 db3d 9c55 0dbe f59c 8abd e527 243d
00000290: ed8e 59bc c434 a23d 4d81 63bc f4c8 873c
000002a0: 81f4 dbbd 1d4f 5fbd b8e5 c5bc b60a b9bd
000002b0: bcce bfbd d554 7bbd ede2 89bc e8a7 60bd
000002c0: 605b 7bbd 6455 d7bd 5ac9 93bd 01a6 a73c
000002d0: 90cf e7bc 225b 5c3d e311 063e 0ae5 db3c
000002e0: e1d8 be3d 60c4 0d3d 5aea fc3c fe8f b73d
000002f0: 751a 0dbe e5fb 04bd fbcf 1e3e 97e6 a8bd
00000300: 4a63 483d d7fa c93d e321 7f3d 7ae8 26be
00000310: cde2 71bd 17a3 123e e50c ba3d 5d36 6ebd
00000320: 0c48 163d 1f6d a93c 46b9 193d 9395 6cbd
00000330: 64a2 f6bc 2be8 71bb d96e 45bd 7b7a 243d
00000340: 6422 08be 92d8 14bd 50f6 533d f1ff aebd
00000350: 6626 a03c c195 0cbe dd6c 49be 5517 283d
00000360: 5b5e ae3d 4a71 19bb e6e8 53bc 5fdd 61bb
00000370: 236e a73d bbe3 493d c6db 783d 8f25 ec3c
00000380: 400e ad3d 023c cabb 423e 343e bc63 0b3e
00000390: 78ff 583d 3c26 e5bd 552d 243e 725b b2bd
000003a0: 74cf 063e fa06 43bd 8e4a e4bd 771b 7dbd
000003b0: 912d c23d 6701 543d 986c c6bd 4f62 42bd
000003c0: 1bbf a0bd 805c 00be d866 37bd 6d53 82bd
000003d0: 8baa d2bd 807e ff3b 3818 e53c db65 b53d
000003e0: 086e 18be a8ea 013d e404 463d 5d1c 1b3e
000003f0: ca4e 13be 18f6 a1bd 1487 3cbd fc86 93bd

output_layer.bias f4 [2]
0.036044486 0.030789703
00000000: 62a3 133d b03a fc3c
