trained_model_with_input_error_200epochs.pth (torch, 369175 bytes, 6 tensors)

rnn_cell.weight_ih f4 [300, 2]
00000000: 1992 95bd 158f 2ebe 2df9 033d c2b7 bcbd
00000010: 89ac 15bc 8a12 d4bc 2d55 08be e539 a2bd
00000020: 1eac b13d 3a01 703d 507f 9c3b 2029 d03b
00000030: 3854 30bc 8821 df3c 0e76 4439 90c8 e43c
00000040: 8a8d 653c cd8f e6bc bf0a df3c 2aa4 f5bc
00000050: daa4 693c 4409 12bd 3b88 ffbc 6722 b73b
00000060: bc4a 88bd 0ddc 91bb 9215 75bd 6c03 153d
00000070: f56f 363c b687 e33d 83e2 c5ba 39db d0ba
00000080: 1d57 973d 4a3f 81bd 3d0b 5b3c 6f5d 883c
00000090: 907f bc39 82a3 bf3c ecc7 bd3d 0584 38bd
000000a0: 1ded da3c 3779 10bd 4c00 a13d 50cd 5d3d
000000b0: c2eb 43bd 3747 acbd 8b7b 463d 58a1 553c
000000c0: cb2f adbd c3a3 c53d 64a1 adbd 59b6 6abd
000000d0: 53f3 763d 9bf6 adbd 6307 25be d2cd 34bf
000000e0: cabd 313d 5054 57bc 11dc 92bd c821 b7bb
000000f0: 135a ca3b e0f8 973d 0013 58bb ac44 16bc
00000100: 5a69 ba3d 294f e33d f0ae 0abd 3f03 85bd
00000110: 1f1d a0bd 8771 353d bc3a 3f3d 3291 33bd
00000120: 4b48 39bd 44bf 44be 2e15 84bd dc8f 92bd
00000130: f6e4 a4bc 1e18 8fb9 6cfb 6f3c c75b 6aba
00000140: 268e f9bc dc61 b23c 339a 79bc 64ae 9fbd
00000150: 181b f93b 9fca ad3d a21b 7ebc ccc2 10bd
00000160: 8169 3ebd 741a 00bd e834 5e3b 539f 833b
00000170: 316d b3bb d2ae e13b f001 febc 81df 18bd
00000180: f3ac 78bc 4664 a43c 29fb b3ba 806f d63d
00000190: f920 4c3e 3e0b b3be 7213 89bd f2b6 a23b
000001a0: 415f 06bd 1f99 323d 304f 543d 3cb5 62bc
000001b0: 4e58 a33d 967a bdbc 47a6 373d 7ebb 13bd
000001c0: bda5 3c3c 422f b0bc 71f0 29bd 1a1a e4bb
000001d0: 5bb3 9d3e 6126 823e b449 c8bb 5d3c 55bd
000001e0: 2c8d 4ebc 0872 5c3c 5b07 d43b 1365 1f3e
000001f0: c3e1 91be 8c06 ae3d 2890 19bd 43d3 04bd
00000200: d04f cc3c 740c 09bd 17f5 e03b 7001 57bc
00000210: 6be2 863d 66b9 42bd adde a93d abec 663d
00000220: 99e3 ca3c 7ad3 303d 1922 293e 0ff2 593e
00000230: 203a 803d 605e 1abc ec56 9bbd a239 a1bd
00000240: dad8 51be 2a8f 09bf 6c58 5bbd 119b 0cbb
00000250: 553f 1e3d 8109 0cbd ab7d 1a3d e3df 5abc
00000260: c0fa 9ebb c826 a4bc 2c43 2b3d ab07 a1bc
00000270: fb7d f63d 6c3d 60bd 1944 b13d 0059 2abd
00000280: 3390 d9bc ab0d 34bd 1c76 25bc f2e8 efbc
00000290: 801d aebd 675d 083d 321f 3dbc 5485 60bd
000002a0: 8e3c 32bd 11a8 5ebd 82f4 0ebd 6311 da39
000002b0: c10d 32bd 4c29 45bb bccf 49bd e629 f9bd
000002c0: 1f47 7fbf 41e2 82bf 8bda d0bc cf77 b9bd
000002d0: bcc3 15bd 2228 05bc 5595 27bd 41cd c6bc
000002e0: e304 b43c e945 11bd 862b 763c 7461 df3c
000002f0: 403d b9ba 3052 863c 3cfc 54bd 16f9 13bc
00000300: 1d71 be3c 188a 3c3d 2316 4c3d 307f 8e39
00000310: 2495 0c3d 5ffc 5f3d b38b 8dbd 2d75 1d3d
00000320: 3f00 0ebd 682b e4bc 4efd c9bc 90ab 0b3d
00000330: df63 973b 0380 66bd 3e16 7a3d b9f8 a83a
00000340: fe4a 9dbb fc5b 9d3c 72d2 fbbc 5d0a 14bd
00000350: 2de8 903c dca7 1abd ca8c 22bd 6464 adbc
00000360: d6a0 83bd b5fc 363d 079c 7b3c 3eb9 67bd
00000370: e233 833c dc0b 45bc 8d68 c5bd 0194 203e
00000380: 3b51 acbd a216 ce3d 0583 d63d b740 833c
00000390: c451 153d af79 8dbd 31ac c63c a790 743b
000003a0: 03e1 603d 65cf f1bb 7a8a e6bc bfc8 a2bd
000003b0: 9ee7 68bd 724a 04bd 6d4c 2dbd f335 383c
000003c0: 1978 553b 5f39 81bd afc0 6e3d 86fa 923d
000003d0: 03ae 4fbd 6096 abbb d84a 92bd a19a c13d
000003e0: 6d4e c03b dd10 213d 26a8 db3c 73f3 02bd
000003f0: 845d a5b9 c49b fabc 385a 07bc 0f42 92bc
-0.073032565 -0.17046769 0.032220054 -0.092147365 -0.009135374 -0.025887746 -0.13313742 -0.07921199
0.08675407 0.05859492 0.004775919 0.0063525587 -0.010762267 0.027237669 0.00018735995 0.027927667
0.014010796 -0.028144741 0.027226804 -0.029985506 0.014260495 -0.035653368 -0.03119289 0.005588818
-0.066548795 -0.004451281 -0.059835024 0.036380216 0.011135091 0.11109869 -0.0015097413 -0.0015934474
0.073896624 -0.063108996 0.013369379 0.016646115 0.00035953196 0.023393396 0.09266648 -0.04504778
0.026724393 -0.03527185 0.07861385 0.05415088 -0.047832258 -0.08412021 0.048457664 0.013038956
-0.084563814 0.09650376 -0.084780484 -0.057302807 0.060290646 -0.08494302 -0.16116099 -0.70626557
0.043393888 -0.01314266 -0.071708806 -0.005588744 0.0061752885 0.07420516 -0.003297031 -0.009171646
0.091021255 0.11099083 -0.03385824 -0.0649476 -0.078180544 0.04429772 0.046686873 -0.04383964
-0.04523496 -0.19213587 -0.06449352 -0.07156345 -0.020128708 -0.00027293054 0.014647346 -0.00089400675
-0.03046329 0.021775179 -0.015234518 -0.07796934 0.007602107 0.084859125 -0.015509518 -0.035342023
-0.046487335 -0.031275228 0.0033906046 0.0040167957 -0.005475663 0.0068872953 -0.031006783 -0.037322525
-0.015177953 0.020067345 -0.0013731468 0.10470486 0.19934453 -0.34969515 -0.06693162 0.0049656564
-0.032805685 0.04360306 0.05183333 -0.013837155 0.07975827 -0.023129743 0.04483631 -0.03606748
0.011514124 -0.02150691 -0.04148907 -0.0069611194 0.308009 0.25419906 -0.0061123017 -0.05205952
-0.0126069 0.013454922 0.0064706034 0.155659 -0.28492555 0.084973425 -0.037490994 -0.032428037
0.024940401 -0.03345914 0.0068651545 -0.013122901 0.065861546 -0.04754009 0.08294425 0.056378048
0.02476673 0.04317043 0.16516913 0.21283744 0.062610865 -0.009421915 -0.075849384 -0.07872321
-0.20492879 -0.53734076 -0.053551123 -0.0021454731 0.038634617 -0.03418875 0.037717503 -0.013359043
-0.004851669 -0.020038024 0.041812107 -0.019656977 0.120357476 -0.054746076 0.08655567 -0.041588783
-0.026558017 -0.043958347 -0.01009896 -0.029285882 -0.085017204 0.0332922 -0.011543082 -0.05481465
-0.04351478 -0.0543595 -0.03490115 0.00041593154 -0.043470148 -0.003008443 -0.049270377 -0.121661946
-0.997179 -1.0225297 -0.025494834 -0.09056055 -0.03656362 -0.008127244 -0.0409139 -0.024267795
0.021974986 -0.035467062 0.015025025 0.027268149 -0.0014132634 0.016396612 -0.051998362 -0.009031555
0.023247296 0.046030134 0.0498258 0.00027179113 0.03432192 0.05468404 -0.06911411 0.038441826
-0.034668203 -0.027852729 -0.024656918 0.03409916 0.00462006 -0.056274425 0.061056368 0.0012891508
-0.0048001995 0.0192089 -0.030739997 -0.036142696 0.017688835 -0.03775774 -0.03968505 -0.021166034
-0.064271614 0.044674594 0.015357024 -0.056573145 0.01601595 -0.012026753 -0.09639082 0.15681459
-0.08413931 0.100629106 0.10474209 0.01602207 0.03645493 -0.06907975 0.02425203 0.0037317665
0.054902088 -0.0073794597 -0.028142203 -0.079484455 -0.056861512 -0.03229756 -0.042309213 0.011243331
0.0032572804 -0.06309771 0.058289226 0.0717669 -0.05070306 -0.005236432 -0.071431816 0.09453321
0.005868724 0.039322723 0.026813578 -0.031970453 -0.00031540927 -0.030591853 -0.008261256 -0.017853765

rnn_cell.weight_hh f4 [300, 300]
00000000: f7ee d2bd 794a 43bd 03e8 18bd 8494 963e
00000010: 1d8d 8fbe 4127 4cbd c042 223d 80a0 c43b
00000020: ad7e fc3a a16d 95be 8f01 283e d733 6c3e
00000030: 0cce 613d 7645 b23c fcf5 44be 53d9 6ebe
00000040: 63f6 173c bc56 823e cc19 03bc 4abe c23d
00000050: f2e3 cbbd 191a 6dbd 9db4 a53c 6287 61be
00000060: 72c1 a9be 6772 543e fe05 7fbd 8aff 093f
00000070: b706 1cbd ae80 cabc ec10 523e 0b1e a3bd
00000080: 0e71 08c0 20df 823d 2b63 5cbe c71f 1f3e
00000090: 87c8 10bc 9218 0cbb 27d5 28bd fb75 8c3d
000000a0: 5463 113d 7d72 503e 4b63 a6be fbd4 793e
000000b0: ac04 2dbd edfe 8d3d a3bf 9fbe 92e7 803e
000000c0: f4a7 0ebe 9506 5ebc e404 df3c 0359 45be
000000d0: 873e 2b3e 3e37 06be 46ac f7bc 0443 abbd
000000e0: 0e16 513d e1ad a2bd 2f60 c2bd 978b 8b3e
000000f0: b423 b43c 836c fcbd aa0a 5aba a9bb 903e
00000100: 85de 783e d9bb fa3c 60f0 483e 5b60 30bf
00000110: 260c 5dbd 049c e8be 79bd fb3a de96 d5bc
00000120: f97d 6c3e d124 723e 405f 973e 5cff cd3c
00000130: e636 123d 9974 8ebd b9b9 2bbd da77 053e
00000140: e075 733c 9878 6c3e fbbc 3f3e 6558 b7bb
00000150: f05b 06be 6dd5 c5b9 0155 10bd a5c9 d53c
00000160: eef3 e6bd 7fc0 863e 6244 0c3d 6587 8d3e
00000170: fe89 063e 8090 c1b9 6454 093d 9749 a23d
00000180: 7514 8abe 7327 40bc 686a 6abe fb66 683e
00000190: c899 81bb 9ba1 d53d 9451 113e 86fb 1b3e
000001a0: 0618 f4be 3336 383e 9c70 f23c 2d58 f23d
000001b0: 3dcd b0be 7b45 5c3e af2e 6b3e 48a6 c23c
000001c0: 55ab eabe 52cf 693c fdf1 063c 587b 5c3c
000001d0: 0a1f 63be 587f d0bc 6665 a73c 8bab 8a3e
000001e0: 162d 603e eb9c aabe 88f5 383e 7208 d4be
000001f0: feeb 5f3e f115 8abc 1c4c bdbc e2ab 353e
00000200: 389b f43d b07f 633e b4fb efbc 3599 e6bd
00000210: 9ad3 113d efc4 ddbe a560 4ebe 2bf3 433d
00000220: 2f42 cdbb 1a39 3dbd 9129 7cbe b951 dabd
00000230: 45ce 543e c31b 3c40 770e 2ebe 0bc9 a9be
00000240: 6bef 633e 556c 8f3e 5639 0e3e 1697 7ebe
00000250: 1019 863e ba7c 32be 0f86 f23d 9dac 133e
00000260: 55ef 203e e35b cfbe 2c68 bc3c cd26 753e
00000270: f25a 3c3e 7eb4 fc3d b469 4d3e cc6e afbe
00000280: c6fc b1bc 558b d2bc 4779 553d 8a8a 36be
00000290: 42d2 90bd c00b b7bd 68bf 143c c679 efbd
000002a0: 080c 273d a9c7 983e be9b 8a3d e271 253d
000002b0: d9bb a43e 5d1d 86bd aac0 c8be 12da c9bb
000002c0: cfef f6be 3c44 7abd a737 9abe 5ea3 813d
000002d0: eca7 143d ebc5 a53e 52b3 373e acec 62be
000002e0: 8710 823e 67a8 56bf ab8c 713b 80b9 a5ba
000002f0: b746 87be f0fd f83b f8b3 25be df69 8abe
00000300: c63f f7bc a19f b03d 3f0f 12be 8c86 0dbd
00000310: 1919 833e 7085 a6be e953 57bd 4c78 a23e
00000320: 54ac 4abd bd3b ddbc 5f34 c4be 9d9b e33c
00000330: 8ff5 92be 6fa7 5b3e 3ef6 573e c105 e5bc
00000340: d4ae 383e c16f 653e cf0a 9a3c 2e36 f83c
00000350: f9e9 6d3e f7fe 3abe 6642 303e 97f8 833e
00000360: d60b d6be 6094 c4be 0cc6 d63c 525e f1bc
00000370: a0fb b6bb 3abb 46be 7212 4ebd b038 76bd
00000380: ceec fcbd 6ec1 0ebd 010c 63bd fe01 843d
00000390: a448 a73d c2d3 4e3d 688d 483c 3084 0ebe
000003a0: 1a87 08be 9ee8 9eb9 e5ad cebd 96d6 04bc
000003b0: 82b6 84be 22a5 1e3d 12a0 85bd 7341 7f3e
000003c0: ebc0 8cbe 26aa 313d 4c12 a4bd 1ab0 153d
000003d0: 5398 5dbd 6025 81be e01c 373c 1818 30bd
000003e0: 36c8 51bd 5200 e1bd b457 713e dd7a 03bc
000003f0: 9119 e9bc 48e4 9fbd cb5a 853e 7971 e9be
-0.10299485 -0.047678445 -0.03733064 0.29410183 -0.28037348 -0.049842123 0.03961444 0.0060005784
0.0019263827 -0.29185203 0.16406845 0.2306665 0.055128142 0.021761637 -0.1923446 -0.2332509
0.009275052 0.25456798 -0.008001756 0.09508951 -0.099555865 -0.057886217 0.020227725 -0.220243
-0.331554 0.20746766 -0.062261574 0.53905547 -0.03809234 -0.024719562 0.20514268 -0.079647146
-2.1319003 0.06390214 -0.21522205 0.15539466 -0.008836872 -0.002137695 -0.041218903 0.068584405
0.035495117 0.20356174 -0.3249763 0.24397652 -0.042240784 0.06933389 -0.31200895 0.25176674
-0.13931257 -0.013551374 0.027224012 -0.19272237 0.16723071 -0.1310701 -0.030233514 -0.083623916
0.051046424 -0.07943321 -0.09491002 0.27254936 0.02198968 -0.123253845 -0.0008317629 0.28268173
0.24303634 0.03060715 0.19622946 -0.68897027 -0.053966664 -0.4543153 0.0019206248 -0.026072916
0.2309493 0.23646857 0.29564857 0.025146179 0.035696886 -0.06955833 -0.041925166 0.13034001
0.014859647 0.23092878 0.18724434 -0.0055952542 -0.13121009 -0.00037733783 -0.035237316 0.026097128
-0.11276995 0.26318738 0.034244902 0.2764236 0.13138577 -0.0003691949 0.033527747 0.079241924
-0.26968732 -0.011728155 -0.22892153 0.22695534 -0.0039550997 0.104312144 0.14191276 0.15232667
-0.47674578 0.17989425 0.029594712 0.118332244 -0.34531584 0.2151088 0.22967027 0.02376093
-0.4583384 0.01427062 0.008236405 0.013457142 -0.22179809 -0.025451347 0.020434093 0.27084002
0.21892199 -0.33322844 0.18062413 -0.41412693 0.21867368 -0.016856166 -0.02310758 0.1774135
0.11943668 0.22216678 -0.029294826 -0.11259691 0.03560219 -0.4331431 -0.20154054 0.047839325
-0.006263993 -0.046197034 -0.24625231 -0.106601186 0.2078181 2.9391944 -0.16997705 -0.33161196
0.222593 0.28012338 0.1388906 -0.24862322 0.26190996 -0.17430392 0.11841976 0.14421315
0.15716298 -0.40499792 0.022998892 0.23940583 0.18394068 0.12339114 0.20059854 -0.3426422
-0.021726977 -0.025701204 0.052117612 -0.17826286 -0.070713535 -0.08937788 0.009078838 -0.11693148
0.04078296 0.2983983 0.06767987 0.04039181 0.32174566 -0.06548569 -0.3920949 -0.006160029
-0.48229834 -0.06110023 -0.30120584 0.06329988 0.036292955 0.32377562 0.17939499 -0.22160596
0.25403234 -0.8385071 0.0036857526 -0.0012643784 -0.2642114 0.007598631 -0.16181934 -0.27033898
-0.030181777 0.08624197 -0.14263628 -0.034552142 0.25605085 -0.3252368 -0.052570257 0.31732404
-0.04948075 -0.027006024 -0.38321206 0.027784163 -0.2870297 0.2145059 0.21090028 -0.027956845
0.18035442 0.22405912 0.018803982 0.030299272 0.23233785 -0.18261324 0.17212829 0.25775596
-0.41805905 -0.3839445 0.026217483 -0.02946392 -0.0055841953 -0.19407359 -0.05031056 -0.060112655
-0.123498544 -0.034852438 -0.05543137 0.064456925 0.08168152 0.050494917 0.012240745 -0.13917613
-0.13332787 -0.00030309422 -0.100917615 -0.008107802 -0.25920492 0.0387317 -0.065246716 0.2492731
-0.27490935 0.043375157 -0.08011302 0.036544897 -0.054100346 -0.25223827 0.011176318 -0.042991728
-0.051216327 -0.10986389 0.23568612 -0.008024898 -0.028454574 -0.07807213 0.26045832 -0.45594385

rnn_cell.bias_ih f4 [300]
00000000: 2f8a 51bd 266c 4cbd 4ed4 90bd b42f 653d
00000010: 60ae dcbd 5031 65bd a666 a8bd 21a8 b0bb
00000020: 054c 56bd 5022 39bd 188a fdbc 4101 34bd
00000030: 43fb c4bd 9a81 8abc 3a24 713c c334 9fbd
00000040: ec6b b6bd badc 6cbd 2504 6dbd fba1 ebbd
00000050: 30c2 26bd bf81 0d3c a382 1f3d 6e72 bbbc
00000060: d6f3 3ebb 26d3 913c 88dc f1bc e92e b1bd
00000070: 74f3 b1bd 8144 b9bd 0e16 d83c 86a6 95bd
00000080: 38f0 2dbd ff70 76bd 5e4b 8e3d 587d adbd
00000090: 4268 15bd 998e dabd 36e6 fc3d 4b14 273d
000000a0: 0b70 9ebd 0af4 42bd aa45 7a3d 7694 9ebd
000000b0: 63a2 a0bd 43e9 94bc 99f0 83bd 8b6a 9cbc
000000c0: 5e94 30bd e7dc c53d a6b1 6e3e 0103 9fbd
000000d0: 76b4 9bbc e3a2 8abd 9c8d 7b3d 2a83 a5bc
000000e0: 0805 a9bc 31cc 09bd 6388 433d f8f2 99bc
000000f0: 68d5 0abd 1956 8d3d 107a 733c f964 a1bd
00000100: 3596 bbbc eddd dcbd b345 b0bc f497 d03b
00000110: 3a32 28bd 33bc a2bc 31b0 243d ea5a 883c
00000120: aba7 863c 84d0 27bd ebbe a8bd 3d04 96bb
00000130: 9fc3 dfbc 0964 a4bd f2f3 cd3d f1d6 d8bb
00000140: e9ad 18bb 6333 2ebd 9d79 673c 4dff 9d3d
00000150: 8a0a 873d 27c3 aabd 9519 82bd 0f5d 17bc
00000160: fddf 2ebd 63c8 403d b000 a0bd 2f38 153e
00000170: cf2a e7bd a65c 483b f5c1 51bd a723 adbc
00000180: 60bb 52bb 59ef 65bd 8199 a0bd 0aa3 13bc
00000190: b99a 6cbd 87ce 8dbd e283 71bc 4dd3 a03a
000001a0: 2c72 91bd 1f7d b0bd d932 8fbc 20fa 20bd
000001b0: 2367 0b3d 1e7a 84ba 1536 76bd fa8e 3bbd
000001c0: 6586 ebbc 3217 9abd 48f2 45bc 13f9 09bd
000001d0: 56f9 1fbd 875c c63d 4bff 633d b494 1f3d
000001e0: d9c6 c4bc 61de f7bd bcaa 87bd 008c 1fbc
000001f0: 4b93 b23c a874 66bc 35dd 5bbd 3ea5 21bd
00000200: 3db6 aa3d d8fb 843d c22c 43bd 5ff6 93bd
00000210: c4d5 af3a d198 77bd de0e 70bb 7ffc bd3c
00000220: 6863 e5bc 9b05 e4bc bbf9 2dbd cc60 293d
00000230: 239d b33b 3ca5 d8bc a8b6 cd3c 57de 0dbd
00000240: 77c3 873c 0e56 d8bd 7d81 9bbd ffdd c4bd
00000250: 5bd0 fcbc 3b20 d8bd 2524 3fbc 2d97 59bd
00000260: eccf 86bd 7cca 56bd 2847 adbc 387b 3abd
00000270: a658 7dbd 18d9 6e3c 4923 07bd 07ad 88bc
00000280: 0480 a6bd 6c4f 82bd e2cb e1bb f989 b9bc
00000290: d44c dd3d e62d c33d 25ac 46bd f9d2 b33d
000002a0: 0d4b d0bd 2a4f acbd 35f4 8a3d c747 1fbd
000002b0: 6c3d 57bc fb83 64bd 5ab6 8fbc 0ebd 6e3d
000002c0: 37a5 30bd dcd9 053e 26ec 32bd 2b2f 29bd
000002d0: 279f d1bd 88ae 39bd d07c 8dbd 0f57 013c
000002e0: 06a1 2f3d 63fe a3bc 97a8 be3d 687c aabc
000002f0: 7f6c 8bbd db2b b2bc 9d16 a3ba b3f2 d9bc
00000300: 7326 82bd 6923 07be f3bc b23a 57aa 5fbd
00000310: 488e c1bb 7679 90bc 89d0 1dbd a054 1c3c
00000320: 4fb9 39bd c9de 47bd 87dd 24bd 55fe aabd
00000330: a1e4 89bd f883 7cbc d7ba 76bd e8d1 edbc
00000340: e2ff dcbd c942 4dbd 92c8 80bd 1bb6 3cbd
00000350: 2e15 6cbd a83e 20bc 6cd8 a6ba a541 8dbc
00000360: 34d8 edbb 8667 4ebd 5d98 61bd caff 8bbd
00000370: 2a31 c2bd 97d1 22bd 0396 a5bc ebd1 cf3b
00000380: 15a7 55bd 5f9d ecbc 6a84 fc3d 9072 97bd
00000390: 2e30 96bd 1ee4 bdbd 1bed 26bd d558 343d
000003a0: 73a8 f9bb e0fb 84bd 2a52 ccbd 62aa 82bd
000003b0: f4c7 9abc 449f 3dbd 190f 863d 6d3d 22bd
000003c0: 2120 11bd 15c7 08bd 8901 23bc ff65 c5bd
000003d0: a5de 943d e9b4 94bd 5873 a0bc 68cd 9dbc
000003e0: eca1 533b e4e9 493d 1857 4dbc 34e1 7cbd
000003f0: 74fe 89bd a947 4b3d 9997 88bc d657 aebb
-0.051157173 -0.049907826 -0.07071744 0.055953696 -0.10775447 -0.05595523 -0.08222704 -0.0053911363
-0.05231859 -0.04519874 -0.030949637 -0.04394651 -0.09618237 -0.016907502 0.01471811 -0.077737354
-0.08907303 -0.05782769 -0.05786528 -0.11505505 -0.040712535 0.008636891 0.038942944 -0.022881713
-0.0029137037 0.017800879 -0.029524103 -0.086515255 -0.08689013 -0.09046269 0.026377704 -0.073071525
-0.04246542 -0.060166355 0.06947969 -0.08471173 -0.03647638 -0.106717296 0.12348597 0.040790837
-0.07736214 -0.047596015 0.061101593 -0.077431604 -0.07843473 -0.018177634 -0.06442375 -0.019093772
-0.043110244 0.096612744 0.23309955 -0.07764245 -0.019006949 -0.067693494 0.061414346 -0.020204145
-0.020632282 -0.033641998 0.04773749 -0.018792614 -0.033894926 0.069011874 0.014860645 -0.07880587
-0.022898773 -0.107845165 -0.02151761 0.0063657705 -0.041063525 -0.019865131 0.04020709 0.016644914
0.016437372 -0.04097034 -0.0823954 -0.004578142 -0.02731496 -0.08026893 0.100562945 -0.00661742
-0.0023297018 -0.042529475 0.014128116 0.077147104 0.06593807 -0.083380036 -0.06352536 -0.0092384955
-0.04269408 0.047066104 -0.07812631 0.14572214 -0.11287462 0.00305728 -0.051210362 -0.021135164
-0.0032155141 -0.056136463 -0.078417785 -0.0090110395 -0.057764743 -0.069241576 -0.014740916 0.0012270004
-0.07101855 -0.08617615 -0.0174803 -0.039301038 0.034033906 -0.0010107195 -0.06011017 -0.04579065
-0.028750608 -0.075239554 -0.01208169 -0.0336848 -0.039056145 0.09685617 0.05566339 0.038960174
-0.0240206 -0.12102962 -0.06624362 -0.009737968 0.02179875 -0.014065899 -0.053677756 -0.039464228
0.083355404 0.06493348 -0.047650106 -0.07224726 0.0013415148 -0.06044847 -0.0036629955 0.023191689
-0.028001502 -0.027834704 -0.04247449 0.04135208 0.0054813786 -0.026445977 0.025111511 -0.034635868
0.016572697 -0.10563289 -0.07593057 -0.09612655 -0.03086107 -0.105530225 -0.011666332 -0.053122688
-0.06582627 -0.052439198 -0.021152094 -0.045527667 -0.06185212 0.014578126 -0.032992635 -0.016684068
-0.08129886 -0.06362805 -0.00689076 -0.022648798 0.108056694 0.09530239 -0.048504014 0.08780474
-0.10170565 -0.08413537 0.0678486 -0.03888681 -0.013137203 -0.05578993 -0.017543007 0.058285765
-0.04312631 0.13071388 -0.04368224 -0.04130475 -0.10235434 -0.04533246 -0.06908572 0.007894292
0.042878173 -0.020018762 0.093095 -0.020811275 -0.06807803 -0.021749428 -0.0012442652 -0.026604986
-0.0635499 -0.13197102 0.0013636634 -0.054605808 -0.005906854 -0.017636042 -0.038528953 0.009541661
-0.04534274 -0.04879645 -0.040250327 -0.08349291 -0.06733061 -0.015412323 -0.060236778 -0.029030755
-0.10790993 -0.05011252 -0.06288256 -0.046072107 -0.057637386 -0.009780563 -0.0012729294 -0.017243216
-0.0072584394 -0.050391696 -0.055076946 -0.06835897 -0.094820336 -0.03975066 -0.020213133 0.006342163
-0.052161295 -0.028883634 0.123299435 -0.07394898 -0.07333408 -0.092720255 -0.040753465 0.04403003
-0.0076189577 -0.06493354 -0.09976609 -0.06380154 -0.018894173 -0.046294466 0.065458484 -0.03960936
-0.03543103 -0.033392984 -0.0099490965 -0.09638595 0.072690286 -0.072610684 -0.01958625 -0.019262984
0.0032292558 0.04929532 -0.012532972 -0.061738208 -0.06737986 0.049628887 -0.01667385 -0.0053205295

rnn_cell.bias_hh f4 [300]
00000000: 7792 5fbd 877e bbbd 6656 ebbc 76f0 903b
00000010: f6ef 29bd 2d6e 773b 29a6 4ebd 94be 92bd
00000020: 6557 ebbb 8c0b a0bd e03f a3bc be7b e1bb
00000030: 7211 c9bd a852 9bbc 1fc8 a23b ed98 dbbd
00000040: 3529 68bc de3d 18bc 5969 9cbb 86ff d9bc
00000050: 5e37 25bd f335 023d 98f9 053e fa51 a5bd
00000060: 9b81 b33b 3c3e ac3d 9b35 2cbc a51d 85bd
00000070: bee4 27bd de23 f13a 92c7 9b3d 26e5 b3bd
00000080: acaf 4b3d 3021 8a3c 7d2c de3c 1d80 80bc
00000090: f188 04be 0b7e b5bd 109c 833d f6d6 17bc
000000a0: a195 9fbc d451 74bd 7f67 11bb 1ff8 6d3c
000000b0: 8676 06bd d64d a6bd 5987 20bd 72e8 94bd
000000c0: b813 30bd c4a4 983d 48c1 593e d0ab f4bb
000000d0: b1f6 2e3d 1d69 aebd 4e82 873d 751b 84bd
000000e0: 19a8 aebc 3c68 eabc 7930 0c3d cf7f 33bd
000000f0: c066 82bd 6607 c83c 2868 f0bc 10f6 90bd
00000100: fcb9 d3bd fca9 04be a257 e5bd 5dd4 fa3c
00000110: dbc2 7ebc e7d5 52bd 933c 593d 2e8a aabb
00000120: 2636 09bd 45f6 98bd e2b2 a839 8c05 e8bd
00000130: 8d34 57bd fee9 0cbd fef3 b13d b6c2 d9bc
00000140: cd90 94bd 6dae 69bc ca11 d8bc 6d33 e53d
00000150: 3466 023e 919d a1bd 4c9f 273b 76e3 f03a
00000160: 5a20 bbbb 54a8 0dbc 9165 82bc c3af 1d3d
00000170: f0fd babc cfdf a6bd e4a3 05bd c16a cdbd
00000180: 5981 5dbd 9192 70bd fb53 8a3a fa5b a0bd
00000190: f568 b2bd a0c7 23bd 04d7 42bd 8112 483d
000001a0: 845f f9bb c1ef 30bd dd34 afbd 7bb9 0fbc
000001b0: f5c6 c83c 37da de3c e5d4 4cbd f7a2 12bc
000001c0: 2f05 4e3d f36a bbbb ecd2 503d e8ff cabd
000001d0: 9bb0 24bd a178 ec3d 52dd 423c b10c bf3b
000001e0: b042 4ebd e31e fdbd 57a1 75bd e888 f33c
000001f0: 7617 87bd 3588 9cbc dd01 3dbc 0202 09bd
00000200: 5d92 ea3d 40fb b03c 92c5 863b 43be abbd
00000210: 6544 a3bd cc4b 85bd 0747 babd 248a 00bd
00000220: e4e9 51bd b77d 4ebd ca2e efbc 55c5 16bc
00000230: 0f11 663d f2fe d6bc 0dc2 193d 1332 113c
00000240: d63c 5cbd 2735 05be 528f debd 691c cabb
00000250: 0f89 2fbd 173b a6bc 2647 5bbd dd7b c7bc
00000260: aa55 c5bd b865 01be 3eef 3abd c6e5 37bd
00000270: 9f47 bfbd b260 fb3c 611a a0bd 0488 eabc
00000280: 5ed7 37bd d1aa 71bd 0d29 73bb 635b 82bd
00000290: a8af d03c e2d7 003e 3de4 39bd c904 9a3d
000002a0: e636 03bd dfbb 20bc 58f3 403c c41b 33bd
000002b0: 1890 a2bd a94f 2dbd 9d01 0bbd ee3b f03d
000002c0: 2a34 c8bc 5580 9f3d 29e9 f7bc 32fd d2bd
000002d0: b46c 93bd 24fc 94bd bad1 49bd e33c 82bd
000002e0: 3fd6 043d 1d67 c03c 9810 ae3d a42b 95bd
000002f0: ea72 b2bc d03d 72bd afd7 44bd 9bdc 8cbd
00000300: 5bc0 c9bc 2299 f3bc 9935 8ebd 162d 4bbd
00000310: 1346 80bd 9ffb a9bd d7fc fdbc 0a7d af3c
00000320: 68aa 05bd c063 61bc b503 c13a 27a3 52bc
00000330: 733f fbbc 489b dfbc 4e1d 80bb ba01 60bd
00000340: 17a7 55bd 78a3 60bd 2861 6ebd 2ec7 6bbd
00000350: 03f8 92bc 020c 89bd 6f7c 96bd e931 02bb
00000360: 76da d5bd 9fc4 9abd 67f4 2ebd 5c1f 54bc
00000370: d29e 9dbd 80a1 ffbd edfc 1f3c 36c3 343d
00000380: 74b1 0cbd 3275 b2bd bc64 d93d 291e 90bd
00000390: b24c 3abd f242 1abd 9276 85bd fa9c 0d3c
000003a0: 938d 5dbd 50ca dabd 22f6 56bc e52a bfbc
000003b0: ba9d 4dbc 84d6 96bd a578 f13c 8d5f 83bd
000003c0: c4be 15bd c55b 53bd 58dc 9cbd 9347 acbd
000003d0: acaf 703d 3fd1 00bc 6d6a 92bd 8db4 63bc
000003e0: 08ca d83c 1bad 47ba b452 9abd 4958 a1bc
000003f0: 9b59 babb c22f b53d 4d77 bfbd 311b 63bc
-0.05458304 -0.091549926 -0.028727721 0.0044231964 -0.04148861 0.003775488 -0.05045143 -0.07165256
-0.007182049 -0.078147024 -0.019927919 -0.0068812063 -0.098177806 -0.018960312 0.004967704 -0.10722528
-0.014169981 -0.009292094 -0.0047733006 -0.0266111 -0.040336005 0.03178973 0.13083494 -0.080722764
0.0054780967 0.08410308 -0.010510827 -0.06499795 -0.04098963 0.001839753 0.076064244 -0.08783941
0.04972808 0.016861528 0.027120823 -0.01568609 -0.12942864 -0.088619314 0.06426251 -0.009267559
-0.019480528 -0.05964835 -0.0022186933 0.014524489 -0.032827877 -0.08120315 -0.039191578 -0.07270898
-0.042987555 0.074533015 0.21265137 -0.0074667707 0.042715732 -0.085161425 0.066166505 -0.064505495
-0.02132039 -0.028614156 0.034225915 -0.04382306 -0.06367254 0.02441759 -0.02934654 -0.07078183
-0.10338208 -0.12955469 -0.11198355 0.03061884 -0.015549387 -0.051473524 0.053036284 -0.0052044606
-0.033498906 -0.07468847 0.00032176735 -0.11329183 -0.05254035 -0.03440284 0.08689116 -0.026582103
-0.07254181 -0.014262778 -0.02637567 0.11191449 0.127343 -0.078913815 0.0025577126 0.0018378336
-0.0057106437 -0.00864609 -0.015917571 0.038497698 -0.022826165 -0.08148157 -0.032627 -0.10030127
-0.054078434 -0.058733527 0.0010553593 -0.07830043 -0.08711425 -0.0399853 -0.047568336 0.04884577
-0.0076102633 -0.043197397 -0.08555005 -0.008772249 0.024508933 0.027203662 -0.05000772 -0.008949987
0.050297912 -0.0057195364 0.0509824 -0.099120915 -0.040207487 0.11546446 0.011893587 0.0058303704
-0.050356567 -0.12359407 -0.05996832 0.029728368 -0.06596272 -0.019107917 -0.011536089 -0.03344918
0.11453698 0.02160418 0.0041129077 -0.08385899 -0.079720296 -0.06508598 -0.09095579 -0.03138174
-0.051248446 -0.05041286 -0.029197115 -0.009202321 0.056168612 -0.026244614 0.037538577 0.008862036
-0.053768955 -0.13008557 -0.1086718 -0.0061679375 -0.04285532 -0.020291848 -0.05353465 -0.024351055
-0.0963548 -0.12636459 -0.045638315 -0.044896863 -0.093398325 0.030685756 -0.078175314 -0.02862931
-0.044883125 -0.059000794 -0.0037103326 -0.06365087 0.025474384 0.12582353 -0.04538368 0.07520444
-0.032034777 -0.009810417 0.011776768 -0.04372765 -0.0793764 -0.042312298 -0.033937085 0.11730181
-0.024438936 0.07788149 -0.030262547 -0.103021994 -0.07198468 -0.072746545 -0.049272276 -0.063592695
0.032430883 0.023486668 0.08499259 -0.072837144 -0.02178331 -0.05914098 -0.048057254 -0.06878015
-0.024627855 -0.029736105 -0.06943817 -0.049603544 -0.062633656 -0.08299946 -0.031004352 0.021421928
-0.032633215 -0.013756692 0.0014725836 -0.012856281 -0.030669903 -0.027295724 -0.0039097434 -0.054689147
-0.052161302 -0.054843396 -0.058198124 -0.057563 -0.017940527 -0.066917434 -0.073479526 -0.0019866175
-0.10442059 -0.07557034 -0.04271355 -0.01294693 -0.07696308 -0.124819756 0.009764892 0.04413148
-0.03434892 -0.087137595 0.10614917 -0.070370026 -0.0454833 -0.0376615 -0.06516756 0.008643383
-0.054090094 -0.10683119 -0.013120206 -0.023335883 -0.012549812 -0.07365134 0.029476473 -0.06414709
-0.03655888 -0.05160119 -0.07659215 -0.08412089 0.058761284 -0.007862388 -0.07149205 -0.013898027
0.026463524 -0.0007617042 -0.075353056 -0.019695418 -0.0056869513 0.08847 -0.09348927 -0.013861463

output_layer.weight f4 [2, 300]
00000000: a4fa e43d 73c7 dabb e280 9a3c 3776 3dbd
00000010: a2d8 153d 077e 253d a8e4 81bc 70f2 d6bc
00000020: caab 6c3c 62cc 8ebc b151 c8bc 58c4 91ba
00000030: 2a36 80bb 71ca 2f40 a747 97be 48ec 7e3d
00000040: 42c9 883d 35e8 843c ec42 703c 923f 5c3d
00000050: b6a7 f93d ecee 943c 4096 9abc d70b 5fbc
00000060: 8dc3 9c3c 37ee 2e3d 97b3 c43d 7e56 a1bc
00000070: e1fc 96bb 991d 2fbd 5667 86bf 2f5b 2cbd
00000080: 7822 07bd 0bc4 89bf 23a0 85c0 1cb8 9140
00000090: 5931 86bd 3257 aa3d f5b6 b2bc c8c4 803e
000000a0: 04be 83bb da4f 22bd d4ee 27bf 8fc7 8bbd
000000b0: d20c 133c 53d7 9b3c 33a3 8a3c b8b3 8dbc
000000c0: 4244 273c c5ba 723e 78ed 573e 6518 14be
000000d0: 583e 48bf 48e4 d33e 7948 e03b d86e 33bd
000000e0: 48d7 0b3c bcf5 963d 3a3d ee3b 5b69 83bf
000000f0: efc5 353d 4d45 88bd 644e ebb9 2496 28bc
00000100: 4723 39bd 917f 1bbe e0da f53c cb49 e2bb
00000110: 7ccb babc 78d6 473c 73ec 82bc 66c7 b83d
00000120: 7d35 f9be 08e0 30bd 01c1 74bc b221 e03d
00000130: c53a c63c 65ee e3bb 75ef 613d a0d0 9abd
00000140: 6dce 19be d5fb 333d 7659 16bc d21b 19bd
00000150: 5d0d 32bd 57bb a83d 5cd2 84bf e30a 3b3d
00000160: 5042 90bd 0f2a 25bd 5c7a e03c a2e0 c0bd
00000170: eef9 2d3d f351 3a3d c514 fbbc 5808 19bd
00000180: dc38 b7bc 804a 513e cf2e 483d 4f08 25bd
00000190: ced9 4b3d 1536 a1bd 6e17 893b b2ca 493f
000001a0: 47e3 7f3d 726d 97bc eda1 953b 383e 80bd
000001b0: 2588 c8bf fb1d 053f 9ed7 f2bc c39a d9bc
000001c0: f8dd 9abd 7a65 66bc d23c 403f b00f d3bc
000001d0: e351 843d e839 dbbc d78c 273e 3f7a c33c
000001e0: 2b38 923c b31c d93d 60c0 af3c dcde f73d
000001f0: 7ab7 1e3d 5a77 7abd 3543 2d3d f9d5 153d
00000200: 978f c53e 3d47 3040 e430 693d 83d7 74bb
00000210: 9572 f13c e694 38bd 0c32 113f 9baf 49bc
00000220: 4b14 00bd 398d 433d 315c 8bbc 337e 45bb
00000230: 955d 6a40 4896 a8bf 66f8 adbc ba2b 0bbd
00000240: 2329 33bd 79e8 40bd e686 ac3d 792b b43c
00000250: 0bb9 f4bc b588 563d 9f80 2dbd 1692 b43c
00000260: 63ae a8bc b217 9f3e 1634 71bc 47ef b4bc
00000270: 2f8d bbbd 7f2b a43d f72b 6bbd 900b 02bc
00000280: 8b2a 723d d7a4 333a a169 f13e abcc d23a
00000290: 6aca 7b3f b742 093d 660f a13c 510f 393c
000002a0: b34a 94bc c0f2 6cbe 62a6 edbd 7b62 31bd
000002b0: 891e f83b 921c 1c3d 478a 10bb 6015 7dbd
000002c0: 8247 633d ac46 11bd 057f b43e a077 113e
000002d0: 87bb 80bd aea3 8dbd 3aa0 5abb 546e 2dbd
000002e0: 2c7e c7be 258c 9a3e e7ba 6dbc b529 853c
000002f0: b07d 82bd 915f b43c fefe 0ec0 bea4 fe3c
00000300: 1950 e93c 7020 a9bb d59b b3bc 63d1 b8bc
00000310: fd61 6dbc c69d 4a40 4f3e 05bd a04a f4bf
00000320: bbc5 e6bb 5aa9 103c 09db 003e f4af f8bc
00000330: f181 9a3c 0644 f5bc cd57 ea3c 6e25 9bbc
00000340: f9e9 5fbc 678c 3dbc bb35 da3e 3f20 c9bc
00000350: 80ae 843b da4a d23f 6786 93be ffb1 52bf
00000360: 466a c13f 353d bfbb 4eeb 1cbd 58a9 0fbd
00000370: ea4c 2dbd 67e0 263f 8eaa fabe 538c 2fbf
00000380: 7e6a 5a3d a1a0 1e3d b248 4e3b da20 77bc
00000390: bb99 1c3d bde4 333d 8f75 09bd 18de ab3e
000003a0: 9255 15bd 4e97 11bc 51d2 a4bc 6e69 87be
000003b0: ab59 8d3d 6772 e63c 63b0 34bd 50f1 12be
000003c0: 9b82 b03c 0024 433b cca5 babb 4089 4dbd
000003d0: 08e9 e63b c680 d9bc 2b8b af3c 172d 2d3b
000003e0: 6882 22bd 945f 933d d641 a5bd 69f5 edb9
000003f0: f38f cc3b 07fc 783c 9a37 82bd 8287 b7be
0.111806184 -0.006676608 0.018860284 -0.046255317 0.03658355 0.040403392 -0.015856102 -0.02623865
0.014445255 -0.017431442 -0.024453016 -0.0011121137 -0.003912707 2.746731 -0.29546854 0.062237054
0.06679012 0.016224006 0.014664393 0.053771563 0.121901914 0.018180333 -0.018870473 -0.013613663
0.019136215 0.042707648 0.096045665 -0.019694563 -0.0046077822 -0.042752836 -1.0500286 -0.042079147
-0.032991856 -1.0762953 -4.175798 4.5537243 -0.06552381 0.083174124 -0.021815756 0.25150132
-0.0040204544 -0.039626934 -0.655988 -0.06825172 0.008975225 0.019023573 0.016923523 -0.01729761
0.010209145 0.2370406 0.21086681 -0.14462431 -0.7822013 0.41385102 0.006844577 -0.04380688
0.008535214 0.07371089 0.0072704824 -1.0266527 0.044378217 -0.06653843 -0.00044881098 -0.010289703
-0.04519966 -0.15185381 0.030011594 -0.0069057695 -0.022802107 0.012197129 -0.015981888 0.09022407
-0.4867362 -0.043182403 -0.014938594 0.10943927 0.024197945 -0.006955909 0.055160005 -0.07559323
-0.15020151 0.043941338 -0.009176603 -0.037380047 -0.043469775 0.08238857 -1.0376697 0.04566468
-0.07043898 -0.040323313 0.027402095 -0.09417845 0.04247468 0.04548831 -0.030649552 -0.037361473
-0.02236598 0.20438576 0.048872765 -0.040291127 0.04976826 -0.078716435 0.0041837012 0.78824914
0.062472608 -0.018484805 0.004566422 -0.06261867 -1.5666548 0.5199887 -0.02964383 -0.026563054
-0.075618684 -0.01406228 0.75092804 -0.025764316 0.06460931 -0.02676101 0.1636232 0.023862002
0.017849049 0.10601177 0.021454036 0.12103054 0.038749196 -0.06114898 0.04230042 0.036581013
0.38586113 2.754348 0.05693139 -0.00373599 0.029473582 -0.045063876 0.5671699 -0.012309934
-0.031269353 0.047742102 -0.017011734 -0.0030135035 3.6619618 -1.3170862 -0.02123661 -0.033977248
-0.043740403 -0.047096703 0.08424167 0.021993386 -0.029873392 0.052376468 -0.04235899 0.022042315
-0.020590967 0.31072766 -0.014721891 -0.022086753 -0.09157788 0.08016109 -0.057414975 -0.007937327
0.059122603 0.0006852871 0.471509 0.0016082724 0.98355734 0.03351089 0.019660663 0.011295156
-0.018102026 -0.23139477 -0.11604001 -0.04330681 0.0075719994 0.038113184 -0.0022055076 -0.061787963
0.055488117 -0.03546779 0.35253158 0.1420579 -0.06285768 -0.06915985 -0.0033359663 -0.042341545
-0.3896345 0.30185047 -0.014509893 0.016255239 -0.06371629 0.022018226 -2.2343135 0.031084415
0.028480576 -0.0051613376 -0.021924892 -0.02256078 -0.014488694 3.1658797 -0.032530125 -1.9085274
-0.0070426143 0.008829439 0.12583555 -0.030357338 0.018860789 -0.029939663 0.02860632 -0.018938746
-0.013666623 -0.011569119 0.42619118 -0.024551509 0.0040491223 1.6429093 -0.28813478 -0.8230285
1.5110557 -0.005836154 -0.03831034 -0.03507361 -0.04230968 0.6518616 -0.48958248 -0.6857349
0.053324215 0.038727406 0.0031476435 -0.015083516 0.038232546 0.043919314 -0.03355938 0.33567882
-0.03645856 -0.0088861715 -0.020119818 -0.26447624 0.069018684 0.028130723 -0.044113528 -0.14349866
0.021546653 0.0029776096 -0.005696034 -0.05017972 0.0070468225 -0.026550662 0.021428665 0.002642458
-0.039675146 0.071959645 -0.08069198 -0.00045387007 0.006242746 0.015196807 -0.063582614 -0.35845572

output_layer.bias f4 [2]
00000000: d651 343f 7713 763d
0.7043737 0.060077157
