trained_model_with_input_error_rnn_error_200epchos.pth (torch, 369175 bytes, 6 tensors)

rnn_cell.weight_ih f4 [300, 2]
00000000: c95c 8dbc 208a d53c 30f2 453c e0a1 efbc
00000010: 0a7e 1640 20f9 193f 8076 99b7 dcf8 fe3b
00000020: 1a20 10bc 20f7 e83b cd59 09be f0ff 0f3e
00000030: 839a 6b3d 8b48 e93d afeb 0b3d d50a 1f3e
00000040: f637 e63f d711 a4bc dd81 e63d 5f73 023e
00000050: 217e 08bd 3cd6 50bb a8f8 0e3e 3494 983d
00000060: 8dc6 1abe f2a1 62bd 9a30 a23d ecf7 e4bd
00000070: ae94 c5bc fdf0 be3c b406 5bbe 5a7d 923e
00000080: dd68 2d3e 5bc4 0abe 9651 813e a404 9abd
00000090: 8dc1 81bb e324 b8bc 8101 a63d 1f83 8b3d
000000a0: 78fa a43e bd97 2040 8aad a33c 75f7 afbc
000000b0: f98b 423e a2be 8e3d f50e f13d 3dd8 253e
000000c0: d2eb 413e 86ea 0e3e 0da0 fb3d 891b 20bd
000000d0: 6a58 c0bd 4c98 9b3b c0b4 9d3c cbb6 a63d
000000e0: 4f7b 863b 25e7 d3bc fb85 d9bf b673 843e
000000f0: 41b9 973c 3478 44be 7e06 21be 85da 053e
00000100: 9322 6a3f dfe4 21bf 8722 69bc d8ab 0bbd
00000110: a381 12bd be10 2e3d b330 70bc 9135 513d
00000120: 2bcb 5dbd eda5 053d 3e5a a53d 6dc4 903d
00000130: 5040 293e 3fad 08be 07d9 713f 1dac d4be
00000140: 534c 3cbe a0c5 863e 5973 e4bd f057 673b
00000150: 88c8 3c3e d728 273e 9d2d a1bf af4c 3abf
00000160: 49d6 c73d 9703 1abd 379d 363d f72d 4ebc
00000170: 9ee3 973d 2b00 323e 599a a73c ac57 a53c
00000180: 7a8f d8bb 33cd 4abd 7851 123e 826a 3ebe
00000190: 33c7 91bd fac8 8c39 edee fd3d 3893 173b
000001a0: a6e3 3c3b 7fa6 9fbd 92ca 7e3e dd6e 1dbe
000001b0: 603d babd 26a5 0f3e d87f c13d 49de 693e
000001c0: c14f 153c c677 cf3d 1e28 b9bd 6188 083e
000001d0: a027 ae3f 9881 eebf d6f7 babc 539c 07bd
000001e0: fd25 123b c208 7ebd 1400 523d df0f f13c
000001f0: 63e8 013e 8492 51bd a19c e23e ff4c 5fbf
00000200: 760d 44bd 79dc 983e 5eff aebc c7f0 c9bc
00000210: 9be6 933d 5097 3dbd 1aef 17bd 2dce 073d
00000220: c763 163d 2627 183d 36bc acbc ca83 1cbd
00000230: 326a de3c 9f39 06bc 620d b9bc 79a9 4cbd
00000240: 433a 3fbe adaa db3d ada0 37be 8812 3e3e
00000250: 5c6c a03d 2755 593e b2f1 903e 2b6d 29bf
00000260: 164e eabe 308d 293f 6863 4fbd 5a55 023e
00000270: d060 033e a0bd 383e 9420 403e a2d0 22be
00000280: 24bd 983d 9ce2 53bc 5f1d 293e c4e1 45be
00000290: 7db3 01bd 2291 813e 139f 36bd 936a 4bbc
000002a0: 3f93 16bf 93e3 513e 2c78 20bd 3071 cf38
000002b0: 4eb2 53bd a95d eebd 9178 1bbf 0574 0cbf
000002c0: 61be 813f 6619 5f3f 01c9 e9bd 67d9 d0bd
000002d0: edaa 4abc 6263 203d dda3 7e3d 0381 503d
000002e0: 0e3c 473c fd85 f53c 37da 02bc fbb3 42bd
000002f0: 3723 95ba c2e3 32bc 7e45 af3d c36a c13d
00000300: f0b6 5e3b 87c9 0a3d 90d5 8c3d d4c3 953b
00000310: e9e6 a5be e0f7 91bd 5a1b ea3c 7a26 12bd
00000320: 3ce8 91bd 4ccb 013d 240c fd3d 3718 963d
00000330: 5f36 c8bc 48c2 2ebd d0a9 0d40 89ed c33d
00000340: dca4 87bf 13f0 71be 21e3 873e 1631 743c
00000350: 2840 e7bd 5ab7 62bd ca0b 6a3d 7f95 833d
00000360: 3629 15be c9e2 e1bc b8c0 1cbd 17f6 2f3e
00000370: bdc9 863d d2b7 abbd ebb9 30bc 006f a9bd
00000380: cccf d1bd 1f77 edbc 3b97 8dbe 9bb5 e3bd
00000390: ba3c 0fbf bef1 a03e 381a d9bf 74b0 07bf
000003a0: de1b 36be 91bb d5bd 645f debe 62f5 013f
000003b0: 9e18 483d 9398 143e 04f7 c13d 5633 e73d
000003c0: 24fd a43d 76e9 bc3a 6f44 9e3c 60e3 10bc
000003d0: 8bed c5bc 861f 683e e630 b33b 2fc2 72bc
000003e0: c57b 293c 38cb 7b3d b99c 92bf c623 7f3e
000003f0: 7ca5 37bd c1b5 b3bc 2ea7 bfbd f241 24bd
-0.017256157 0.02606684 0.012081668 -0.029251993 2.3514428 0.6014576 -1.8294202e-05 0.007781131
-0.008796716 0.0071095377 -0.13413163 0.14062476 0.0575204 0.113907896 0.034160312 0.15531476
1.7985828 -0.020028038 0.11255238 0.12739323 -0.03332341 -0.0031865975 0.13962042 0.074501425
-0.15114804 -0.055330224 0.07919426 -0.111801 -0.024118748 0.023308272 -0.21389276 0.2861126
0.16934533 -0.13551466 0.25257558 -0.075204164 -0.0039598406 -0.022478526 0.081057556 0.06812119
0.32222342 2.5092614 0.01998021 -0.021480301 0.18998708 0.06969954 0.11770431 0.1619577
0.18937615 0.13956651 0.12286387 -0.03908876 -0.09391864 0.00474838 0.019251227 0.08140334
0.004104055 -0.025867054 -1.6994013 0.2586953 0.018520953 -0.19186479 -0.15725133 0.1307164
0.91459006 -0.63239855 -0.014229423 -0.03409943 -0.035768162 0.042496435 -0.014660048 0.051076476
-0.054148834 0.032628942 0.08073853 0.07068715 0.1652844 -0.13347338 0.9447178 -0.41537562
-0.1838849 0.2632265 -0.11154813 0.0035300218 0.18435872 0.16324173 -1.2592045 -0.7277326
0.097576685 -0.03760108 0.044583526 -0.012584201 0.074164614 0.17382877 0.02045934 0.020183407
-0.0066089006 -0.0495121 0.1428889 -0.18595317 -0.07118072 0.0002685262 0.12399087 0.002312852
0.0028822212 -0.077954285 0.24881962 -0.15374322 -0.090937376 0.14027843 0.094482124 0.22838701
0.009113253 0.10130267 -0.09040855 0.13333274 1.3605843 -1.8633299 -0.022823256 -0.033108067
0.0022300475 -0.06202007 0.051269606 0.029426513 0.12686305 -0.05116512 0.44260123 -0.8722686
-0.0478644 0.29855707 -0.021362003 -0.024650944 0.07221719 -0.04628688 -0.03709326 0.03315561
0.03671625 0.03714671 -0.02108584 -0.03821162 0.027150247 -0.008192449 -0.02258939 -0.04996631
-0.18674569 0.10725913 -0.17932387 0.18561757 0.07833168 0.2122389 0.283094 -0.661822
-0.457627 0.6623106 -0.05063191 0.12727872 0.128299 0.18041086 0.18762428 -0.158999
0.07457951 -0.012932446 0.1651511 -0.19324404 -0.031665314 0.2530604 -0.0445853 -0.012415546
-0.5881843 0.20496969 -0.039177105 9.891612e-05 -0.051683716 -0.11638958 -0.60730845 -0.5486453
1.0136224 0.8714813 -0.114152916 -0.10197716 -0.012369853 0.03915728 0.06216799 0.050904285
0.012160314 0.029971117 -0.007986597 -0.047534924 -0.0011378293 -0.0109185595 0.085581765 0.09444191
0.003398355 0.033883598 0.06876671 0.0045704637 -0.32402733 -0.071273565 0.028577495 -0.035681225
-0.07124373 0.03168802 0.12355831 0.07328837 -0.024439989 -0.04266575 2.2134895 0.095667906
-1.0597186 -0.23626737 0.26540473 0.014904281 -0.11291534 -0.05535064 0.05714015 0.064249985
-0.14566502 -0.02757396 -0.03826973 0.1718372 0.06581447 -0.0838467 -0.010786514 -0.08273125
-0.10244712 -0.028987465 -0.27654442 -0.11118623 -0.55952036 0.31434435 -1.6961126 -0.5300362
-0.17784068 -0.10436166 -0.43432152 0.5076505 0.0488516 0.14511327 0.094709426 0.112890884
0.08056095 0.0014412838 0.019319741 -0.008843273 -0.02416112 0.22668275 0.0054684756 -0.014816805
0.01034445 0.0614731 -1.1454078 0.2491599 -0.044835553 -0.021937253 -0.09358059 -0.040101953

rnn_cell.weight_hh f4 [300, 300]
00000000: b3a1 e2bc fc11 3cbd bc95 143d d493 d33c
00000010: e29c 14bc 5762 2dbd fc25 ad3c 9565 1f3d
00000020: 22a0 ee3c ff00 78bd 0783 e73c 6cc2 8c3c
00000030: 3529 35bd 1cb7 74bb 5d62 bd3c b49c 8f3c
00000040: b4c9 27bd 4a64 34bd afe2 2bbd 0ef2 183d
00000050: 12c8 85bd 58c6 98bc 6850 bb3c 2397 5eba
00000060: 5051 8cbc 691f 5b3d 9d42 5a3c 2452 0d3a
00000070: 3038 5abb 91f2 443d c84a 59bb acf8 35bd
00000080: 1753 0e3d 9ff8 f83c 6287 51bd 20b7 493c
00000090: c205 febb 64c0 213d 170c 6abd 2c76 3dbd
000000a0: 6286 713c ddb4 d13c 830a 98bc 8a54 273d
000000b0: 2c8e 83bb 26c7 003d 48f3 923b 3550 45bd
000000c0: c974 3a3d b16c 4fbd cfb8 f8bc 8639 4d3d
000000d0: c93d 05bc ddc6 27bd 09a5 f83c 4ece 773d
000000e0: 0f07 433c 991b 1bbd 5888 883a c119 64bd
000000f0: aec6 1e3c 2623 92bc 73f6 063d 5fc0 533c
00000100: 9664 5fbd 4166 5c3c ab60 203d b268 eb3c
00000110: b66d 243d 5acd 583d e27c 5dbd d9f3 073d
00000120: 6cb1 c2bb 0bf5 48bd 2697 78bd 071c 8ebb
00000130: 0053 0635 00b4 d43c 5882 2c3d e8b6 14bd
00000140: 5ebf b33c e087 383b 0799 da3c 4b5d 343c
00000150: 17bb 7fbc 494c cbbc 0649 f13c d647 263d
00000160: 8b59 4ebd 50ae 65bd a890 223d 45c0 483d
00000170: 5bb8 16bd 55ee 86bc 2245 4abd 9f72 4a3d
00000180: 0924 163d b6c5 2abb 9c0f e03c 249e 9b3b
00000190: a007 32bb 5900 f1bc 0f3d 083d 23b1 01bd
000001a0: 7b94 eabc 62ae e839 9623 d7bc c160 273d
000001b0: 2689 033d 3f47 1d3d d109 34bc 1e5a 03bc
000001c0: 3c6a 36b8 3071 c53b 16b1 d4bb d24d 82bc
000001d0: 76ed 76bb 7f32 51bd d53f 403c 83f0 3a3c
000001e0: b51d 1fbd 360b 5d3c 68ed f73c 8a5a 37bd
000001f0: bed0 b33c 587d a3bc 678c db3c 9439 2fbc
00000200: 0fe1 3d3d 1b18 7dbb 8143 653b fb39 15bd
00000210: e85f d43c 42f2 62bc c3c8 a43c 69b6 0abd
00000220: 28a8 71bd 162f 3bbc e717 923c d089 a339
00000230: 081b 353d 36ce 56bd eecb 34bb e3f2 283d
00000240: 623c 313b 1572 573c a8e1 b63b a895 0abd
00000250: 2236 6b3c 6239 053b 5d5f 41bd 1de7 c6bc
00000260: e483 dcbc 1737 04bd fed5 aebc 75df 3a3b
00000270: e019 3b3c ef48 fe3c 6fb9 34bd d512 30bb
00000280: 8e02 3e3d 60e2 24bd 71c7 db3c 77c2 933c
00000290: cbf0 073c 30ea 2abd d7d0 82bc ed23 113d
000002a0: db21 393d 9b69 35bd e853 393d 9b11 2ebd
000002b0: 1f97 34bd be6b 2cbd afb6 313d d21e 3d3d
000002c0: 0ec8 203d 7fd7 e8bc 1abb 3cbd b465 3dbd
000002d0: 3f76 143d 7708 7e3d af3e f2bc a6f8 113d
000002e0: 4013 2ebb f5a5 16bd f6d6 373d 83ff 42bd
000002f0: 3650 90bc 27a0 1e3d 206e 093c 7c60 9f3b
00000300: 0cb4 2cbd d65e 96bc 66c3 10ba d0a8 3f3c
00000310: b02c c8bc 8774 04bd 833e a63c 0891 30bd
00000320: e5bf 513d d1fa 10bd 39a7 c2bc 4f03 cf3c
00000330: 24df f3bc 3f69 ea3c 65fd e03c e042 3f3d
00000340: 518b 8ebc 385d 023d 449b 13bc 919d 15bd
00000350: 4f8a 8e3c cb04 203d ea4d 563d 7e5c 153d
00000360: aedd 29bd 245b 46bc 313a b7bc 314f 6ebc
00000370: 5018 47bc 828c 3ebd 6236 ef3c f80f a93c
00000380: 3e9c 8c3c dbcb 4f3d 9072 eb3c 34e6 4bbd
00000390: c8c7 5b3d 35cb 3dbd 4cfd aa3c 9369 eeba
000003a0: 3391 013d 8552 edbc 98d6 25bc 34fd 12bc
000003b0: 0748 0e3d 8a3d 5a3d 2811 683d 08f0 41bc
000003c0: e698 93bc c5fe 80bc d058 7c3c 02b9 263d
000003d0: 1e8c 2f3c 45bb d2bc 7d8d a5ba 43eb cc3c
000003e0: cf69 7abc 66f0 d53b 905b d03c a0ee c33c
000003f0: ec47 2ebd 3486 e6b9 0325 34bd 12c4 36bd
-0.027664995 -0.04591559 0.03627561 0.025827326 -0.009070607 -0.042330112 0.021136276 0.038915236
0.029129092 -0.060547825 0.02826072 0.017182551 -0.04422875 -0.0037340587 0.023118192 0.017530777
-0.040963843 -0.044040956 -0.04196423 0.037340216 -0.06532301 -0.018649265 0.02286549 -0.0008491149
-0.017128617 0.053496752 0.013321546 0.0005390963 -0.003329765 0.04808289 -0.0033156145 -0.044426605
0.03474721 0.03039199 -0.0511545 0.012311727 -0.007752151 0.03949012 -0.057140436 -0.046255276
0.014741512 0.025598938 -0.0185597 0.040852107 -0.004014751 0.031439923 0.004484568 -0.048172195
0.04552153 -0.050640766 -0.030361561 0.050103687 -0.0081324065 -0.040961135 0.030352132 0.06049948
0.011903538 -0.037868116 0.001041661 -0.055688623 0.009690924 -0.017839026 0.032949876 0.012924283
-0.054539286 0.013452114 0.03915469 0.028736446 0.04014369 0.052930214 -0.054074176 0.033191536
-0.0059415605 -0.049061816 -0.06069102 -0.004336837 5.003967e-07 0.025964737 0.042116493 -0.036307245
0.021941837 0.002815716 0.026684297 0.011008571 -0.015608571 -0.024816649 0.029453766 0.04059585
-0.050378364 -0.05607444 0.039688736 0.049011488 -0.03679691 -0.016471067 -0.049382336 0.049425717
0.03665546 -0.0026057786 0.027351193 0.0047490764 -0.002716519 -0.029419111 0.033261355 -0.03166307
-0.028635254 0.00044380414 -0.026262086 0.040863756 0.032113217 0.038398024 -0.010988669 -0.008017091
-4.349112e-05 0.006025456 -0.006490837 -0.015906248 -0.003767816 -0.051073547 0.011733969 0.0114098815
-0.03884669 0.013491442 0.030264571 -0.04476408 0.021950122 -0.01995723 0.026800347 -0.01069488
0.04635721 -0.0038619104 0.0034982862 -0.036432248 0.025924638 -0.013851704 0.020115262 -0.033865366
-0.058998257 -0.0114248 0.017833663 0.0003119246 0.044215232 -0.05244275 -0.0027587372 0.04124726
0.0027044048 0.013149758 0.0055810995 -0.03383413 0.014356168 0.0020328392 -0.047210086 -0.024280125
-0.02691836 -0.0322791 -0.021342274 0.0028514538 0.011419743 0.031040637 -0.044122156 -0.0026866694
0.046389155 -0.04025495 0.0268285 0.018037064 0.008297156 -0.041727245 -0.015968723 0.035434652
0.045198303 -0.044290166 0.045246035 -0.04249726 -0.044089433 -0.04209494 0.04338711 0.04617197
0.039253287 -0.028423069 -0.04607687 -0.04623957 0.03624558 0.06201979 -0.029570905 0.03563752
-0.0026561767 -0.036779363 0.044882737 -0.047606956 -0.017616373 0.038726952 0.008388072 0.0048637968
-0.042163894 -0.018355768 -0.00055222807 0.011697963 -0.024435371 -0.03233769 0.02029348 -0.043107063
0.051208396 -0.035395447 -0.023761379 0.025270132 -0.029769488 0.028614638 0.027464578 0.046694636
-0.017400416 0.03182718 -0.009009186 -0.03652722 0.017399935 0.03906707 0.0523204 0.03646516
-0.041471176 -0.012106691 -0.022366615 -0.014545248 -0.012151793 -0.046520717 0.029200736 0.020637497
0.017164346 0.05073152 0.028741151 -0.049780086 0.053657323 -0.04633637 0.020872734 -0.0018189423
0.031632613 -0.028970012 -0.010121964 -0.008971501 0.03473666 0.053281344 0.056656986 -0.011837013
-0.018017244 -0.015746484 0.015402034 0.04070378 0.010714559 -0.025724063 -0.0012630668 0.025014525
-0.015284016 0.006528902 0.025434285 0.023917496 -0.04254906 -0.00043969008 -0.04398061 -0.04462058

rnn_cell.bias_ih f4 [300]
00000000: 4553 81bd fd35 3ebd 9aca e63e fb48 28bd
00000010: d4f6 00bd 8096 e93c 7412 2fbd 67d5 103d
00000020: 7000 463f 45b4 563c 3fab 7ebd 4ca1 9c3c
00000030: 880c aa3d 2a9b 99bd 848a 1ebd c34d 843c
00000040: a165 333d a94f 103e ca1e 72bd 5228 8bbd
00000050: 60f9 563f ac08 2abd aeaa 00bd b48d 633d
00000060: 149e 713d e938 53bc 4c6c a5bc a7c7 77bc
00000070: ef6c 4abd 1446 2b3f 00e3 c03d 64e0 c83d
00000080: 482d d43e 4521 76bd bba2 67bd 2410 9abd
00000090: 82ac e8bb dbeb e0bc d607 8d3d 242f c73e
000000a0: 4d32 8c3d 8939 eebc 8018 123e b361 e03e
000000b0: 412c 67bd 316a c8bc 165a b93d bed8 63bd
000000c0: 8ed3 10bd 1580 ed3d d49f a5bd a784 6bbd
000000d0: 7d32 4cbd 96c3 ba3c e92c d73d 1634 9d3d
000000e0: 8442 eabb 0eda cc3b 54a2 4e3f 1bc3 2abd
000000f0: af02 803c 53dd 2bbd 1e5c 803d 8c8f a43e
00000100: 0def 2a3e 744c b53c 3bb4 81bb 2238 01bd
00000110: 543e 07bc a3c3 35bc 3911 aabc ae2b 26bd
00000120: 22d9 d73c 376a b83d 78f3 833d c97d 9f3e
00000130: e367 953e 4c13 84bd f83d 133d 85fa 773d
00000140: fdde 54bd 9bb6 863d 5828 cf3d db75 8cbd
00000150: 8463 4a3e 6343 c53c c42a 263d 89de 983e
00000160: cc5f 1d3f 5a66 ae3d e23a 72bd 62e0 cebd
00000170: 418f d8bb b44a 79bd 7c4e 2bbc 0f8c 9cbc
00000180: 3308 73bc 036a 86bc e604 013e 52b6 6fbd
00000190: 3173 acbd 16f1 7fbc 3784 7ebd 7c0a 803f
000001a0: ae64 ce3e b4f5 fe3d a9b0 52bc 83e1 01bd
000001b0: 19ae aa3b 1b57 b73d 1947 c53b 12da 16bd
000001c0: a6a4 873c 874e 023e e018 8b3e c88f 163f
000001d0: 37a1 683d 5f6d 5e3e cfb3 01bd 0c02 7a3d
000001e0: fc50 82bd a457 82bd fc0e cc3d 077b 413c
000001f0: 7392 87bd 5646 cd3e d66d f1bc 8409 87bd
00000200: 6e19 c23e 85d9 ba3e d7b7 9c3b 5f50 b73c
00000210: 595d 9d3d 705a 0cbb 51e7 ec3b 1558 df3d
00000220: e466 243c 244e 13bd 1dcd f03c 2855 6cbc
00000230: a8f6 4b3e c359 993d 59fa c7bb 395e 64bd
00000240: 80fd 3e3d f96d 30bd 635e ce3c 7ac4 13bd
00000250: cbd9 103e 0aa9 b8bd 9bff 0b3e 9ffe 263e
00000260: 8f9a 11bd 808a b1bc 4b25 9dbb 08f2 53bc
00000270: 3f19 913c 16d1 20bd aa08 21bd 73d4 c93d
00000280: 9468 06bd 67a5 fb3c 01f6 89bd 436a 813d
00000290: 7d94 bf3b e7e7 0dbc 9da2 ab3c c011 66bc
000002a0: de25 903d 915f 2dbd 4bc5 41bb d9f3 303d
000002b0: 7b65 f43c 7652 e6bc a277 c03e 9842 ffbc
000002c0: 6499 84bd 0239 6eba c5c3 483d b0c5 a83d
000002d0: c562 f2bc b191 18bd 78f9 14bc 3276 80bd
000002e0: 4e1f 18bc 9b7d ee3c 1499 dabc 7ca3 32bd
000002f0: e3cd 2bbd 4af9 e63c e91e c3bc 48bb 9e3d
00000300: 762a 91bd 9ef5 b23d ef5e 67bd e46e 043d
00000310: 9c92 21bd 3321 57bd 7cb8 f23c b513 533d
00000320: f475 623d faa6 a0bc c66f 813d 0085 98bd
00000330: 45b9 60bd 3842 da3d 2a9f c23d 5fea 843d
00000340: 664e 7abd 6087 babb b5ae a63d c48e 2d3d
00000350: a2ad 773c 579d ebbc 3e67 103d 22b2 823e
00000360: 7758 d23d e1e0 a33d 997f c13c e637 34bd
00000370: 9622 a2bd 4327 dc3e af12 fd3e 0ec2 ea3c
00000380: 1350 743d 75ec 363d 1493 85bd 2a15 c83d
00000390: 7a15 a8bd 75c2 963d 4441 c63e f761 fc3c
000003a0: a5d2 be3d 9c65 553d f4f9 80bc 76c8 693f
000003b0: 9211 683d 8e3e 163c b28e 303d 18e9 af3c
000003c0: 93d0 623d 7e5b a8bc 0b88 7c3c 7807 e63d
000003d0: b400 9a3d 5c20 67bc 33df 6e3d b31b b43d
000003e0: 9ee4 efbc dae9 123e 3f30 d93c b87e b33e
000003f0: 2867 5ebd 7c10 c03c c9b9 693c 0e86 27bd
-0.063147105 -0.046438206 0.45076448 -0.041085225 -0.031485394 0.028514147 -0.042742208 0.035359766
0.7734442 0.013104503 -0.06217503 0.019119881 0.083031714 -0.07500298 -0.038706318 0.01615036
0.043798093 0.14092888 -0.059111394 -0.067948 0.83974266 -0.041512176 -0.031412773 0.05555506
0.058988646 -0.012891986 -0.020193242 -0.015123284 -0.049420293 0.66903806 0.09418297 0.09808424
0.41440797 -0.060090322 -0.056551676 -0.0752261 -0.0071006427 -0.027456215 0.0688626 0.38903153
0.068455316 -0.02908017 0.14267159 0.4382454 -0.05643869 -0.024464699 0.09050386 -0.055626623
-0.035358004 0.11596695 -0.080871254 -0.057499554 -0.049852837 0.02279834 0.10506613 0.0767595
-0.0071490426 0.00625158 0.80716443 -0.041689973 0.01562628 -0.041959118 0.0626757 0.32140768
0.16692753 0.022131182 -0.0039582527 -0.031547673 -0.008254606 -0.011094007 -0.020760166 -0.040569
0.026348654 0.09004634 0.06442922 0.31150654 0.29180822 -0.06448993 0.03594777 0.06054165
-0.05197047 0.06577798 0.10115117 -0.06858417 0.19764525 0.024079984 0.04056813 0.2985728
0.614743 0.08515616 -0.059138186 -0.101013914 -0.006608874 -0.060862258 -0.010455724 -0.019109754
-0.014833498 -0.016407972 0.12599525 -0.058523484 -0.084204085 -0.015621444 -0.06213781 1.00032
0.40311188 0.12449208 -0.012859502 -0.031709205 0.0052087423 0.08952161 0.0060204384 -0.03682906
0.016558003 0.12725268 0.27167416 0.5881314 0.05679437 0.2172141 -0.03166562 0.06103711
-0.06363103 -0.063643724 0.099637955 0.011809117 -0.0661973 0.40092725 -0.02947132 -0.06593612
0.37910026 0.3649408 0.0047826576 0.022377191 0.0768382 -0.002141621 0.0072297235 0.10905472
0.010034297 -0.035963193 0.02939468 -0.0144246 0.1991831 0.07487824 -0.006102842 -0.05575392
0.046628475 -0.043073628 0.025191491 -0.036076047 0.14145581 -0.09016617 0.13671724 0.16308068
-0.03554779 -0.021672487 -0.0047957054 -0.012936123 0.017712234 -0.0392619 -0.039314903 0.098549746
-0.032814577 0.030718518 -0.06736375 0.06319096 0.0058465586 -0.008661247 0.020951563 -0.014042318
0.070384726 -0.042327467 -0.0029567059 0.0432013 0.029833546 -0.028115492 0.37591273 -0.031159684
-0.064745694 -0.00090874743 0.049014825 0.08240831 -0.029588113 -0.037248317 -0.009092681 -0.06272544
-0.009284807 0.029112628 -0.026684321 -0.043612942 -0.041944396 0.028195042 -0.02381845 0.07750565
-0.07088177 0.08738254 -0.05648702 0.032332316 -0.03944646 -0.052521896 0.029628985 0.051532466
0.05528827 -0.01961087 0.06320147 -0.07447243 -0.054864187 0.106571615 0.095030144 0.06490015
-0.061109923 -0.0056924075 0.081387915 0.04237248 0.015117081 -0.028761549 0.03525471 0.2552653
0.102707796 0.080018766 0.023620414 -0.04399862 -0.07916753 0.42998704 0.49428317 0.028656986
0.059646677 0.044659097 -0.065221936 0.09769662 -0.08207221 0.073613085 0.3872167 0.030808432
0.09317521 0.052098855 -0.015744187 0.91321504 0.05665738 0.009170188 0.043104835 0.021473452
0.055374693 -0.02055144 0.015413295 0.11231893 0.07519665 -0.014106836 0.058318328 0.08794346
-0.029283818 0.1434702 0.026512263 0.35057616 -0.054297596 0.02344536 0.014265486 -0.04089933

rnn_cell.bias_hh f4 [300]
00000000: 98d4 9fbc 232e c2bc c063 043f 7f44 553b
00000010: 06f9 96bd 7907 893b 1704 9fbc c12b 323d
00000020: 1d95 3b3f 48e7 92bd 8bdb 18bd 765e 38bc
00000030: 6c72 39bb 067a 06bd 1754 26bd af05 cb3b
00000040: 55a0 d83d 7ed9 7d3d 7036 083c f378 4dbd
00000050: ae74 593f e29a 3cbd b4e2 833d ecfc 9a3c
00000060: 0c95 0f3e 5f99 22bd 00e5 87bd ffbc 21bd
00000070: c0ce 0bbd e706 303f 265e 973d 0c94 ac3d
00000080: c89f e23e 840d c7bc 6a58 d8bc ce92 ebbb
00000090: 042a 7abd b3e6 11ba d150 bc3d 5d80 b83e
000000a0: fc13 bc3d 89c0 ae3c 528e 6d3d 4920 fb3e
000000b0: 8283 4bbd e7a9 ddbc 0d13 b03d 3629 c03b
000000c0: 038f 5bbc 628f 853d 526b 0a3c 3a43 e7bb
000000d0: 7cc3 f8bc 2e23 bc3d 6a69 083d ba11 eabc
000000e0: 8e84 7abd cccc 6bbc ec15 4d3f 8d5c 0ebd
000000f0: 1fac a7bd fbad 2dbd d8fc 4f3d 7cce ae3e
00000100: 4b43 833d 85ce 87bd 09ed aebd 295c 4bbd
00000110: f701 7dbd e5bf 5abd bf6e fabb 0d6d 0bbc
00000120: 29a5 c63c adc9 a93d 35f5 c23d b1f9 713e
00000130: f4b5 833e 9698 63bd c024 273d b972 e83d
00000140: e566 debc 0817 a63d 54c5 fa3d 6fd1 de3b
00000150: b3f5 573e 614c 8fbd cda8 00bd 0c8c 903e
00000160: e729 163f 56a3 083c b6ec d3bc 668e 5e3c
00000170: fb1c 81bd c4e6 4d3c c2b2 a7ba 184c 90bd
00000180: 1b04 6dbd af51 5ebd 829c 003e 583e 8bbd
00000190: 985a 99bd 84e9 22bd 7f7a f339 71e4 743f
000001a0: 8253 ab3e b6e6 a73d 426f 6f3d b888 d0b8
000001b0: 229f cfbb 1e55 f93c 7608 743c 41d1 c43c
000001c0: ca23 52bc 2578 8f3d 0552 3b3e e273 013f
000001d0: 8c6a 493d 7f84 533e e26c 033d 6651 a93c
000001e0: be18 aabc f6ac 44bd 8e2f 603d 9601 e4bc
000001f0: 57f6 49bd 8cba ce3e ea84 8ebd 8c20 1dbc
00000200: 9bf8 ac3e 5115 e13e eeaf 95bd 19e9 06bd
00000210: 3d57 983d 1789 823d 739d 67bd 25d5 b83d
00000220: 402a 5c3d 6550 f9bc c819 09bc 6b95 91bb
00000230: 7be2 243e 00ea 763d fab4 65bd 9327 52bd
00000240: c744 023c 4075 8dbc 04eb 693d 26bd 05bc
00000250: fd26 153e f228 80bd 389d db3d 8169 1e3e
00000260: affd 20bd 8bf3 a5bc 18f4 88bd 4edd c9ba
00000270: 5cc8 633d d3e7 3ebc 123e efbc b77e 053e
00000280: de4c bf3b f151 053d 4983 a6bd 5dd6 ec3c
00000290: c6b8 83bd 9f83 e6bc 131c 34bd 52b9 44bd
000002a0: f0b0 943d 2b73 463d 2655 933d b6bd 0c3c
000002b0: 6db6 79bd ac53 133d 0154 9f3e 2161 babc
000002c0: 0386 febb 92cc b03d 5047 da3d 884d c33d
000002d0: 11bd 493d 1671 5ebd 8796 21bd b872 2cbd
000002e0: e5a3 6abd d012 65bd ed0e 493b 2c6a e8bc
000002f0: 7913 29bd 8cb0 0abd 1e3b 62bd 805d 493b
00000300: c865 8c3c a939 543d 324c e5bc a022 923d
00000310: 94b7 a63b 5bb7 acbc e18d ee3c 2271 b73d
00000320: a88d c73d d80c 10bd 28fd 603d fba6 55bd
00000330: ee57 7d3c 2373 593d fa7e 9e3c 615a 3bbd
00000340: f2bf 133c aacf ebbc c075 b53b 1f7a a0bc
00000350: d61b b7bc e52b adbc 4f27 a73d 4d76 903e
00000360: 0fe6 f83d 7448 0b3e ea94 f4ba 7547 22bd
00000370: 414e 86bd 7514 e33e 8424 013f 3d42 cf3d
00000380: 7e40 e43d 080f 233d 9e29 28bd 389b 5e3c
00000390: e8ef 80bc c70f c03d 7591 ef3e e407 83bc
000003a0: c571 fe3c fcfd 063d ac6a d23c 1c08 673f
000003b0: 2f25 583d 11bb 78bd 6691 fb3d 8b5b feba
000003c0: 59de 433d dd46 08bd 7baa 553d 47dd 153e
000003d0: fead b33d c71b 75bd b015 b53b cf04 f43d
000003e0: a1c5 edbc 24c9 293d 5cc1 5d3d 3e39 cb3e
000003f0: 7c49 65bc 8d4f adbc 1876 7ebd 38b6 d6bc
-0.019510552 -0.02370364 0.51714706 0.0032542048 -0.07371716 0.004181799 -0.01941113 0.04349876
0.73274404 -0.0717302 -0.037318747 -0.01125299 -0.002829696 -0.032831214 -0.040607538 0.006195746
0.10577456 0.061974995 0.00831376 -0.050164174 0.84943664 -0.046046145 0.064397246 0.01891943
0.140217 -0.039697047 -0.06635475 -0.03948688 -0.03413272 0.6876053 0.07391004 0.08426675
0.44262528 -0.024298437 -0.026409347 -0.0071891313 -0.061075225 -0.0005565688 0.09195102 0.36035433
0.09183499 0.021332042 0.057997055 0.4904807 -0.049685962 -0.027058555 0.08597384 0.0058642877
-0.013400796 0.06521489 0.008448439 -0.0070575746 -0.030366652 0.091863975 0.033303656 -0.028572906
-0.06116157 -0.014392089 0.80111575 -0.034756232 -0.08187126 -0.04240225 0.05077824 0.3414191
0.064093195 -0.06631187 -0.085413046 -0.049648438 -0.061769452 -0.05340566 -0.0076425965 -0.008509886
0.024248676 0.0829042 0.09519426 0.23630406 0.25724757 -0.05556544 0.040806532 0.113500066
-0.027148673 0.081098616 0.122446686 0.006799869 0.2108982 -0.0699699 -0.03141098 0.28231847
0.5865769 0.008339724 -0.025869709 0.013583755 -0.06304356 0.012567226 -0.0012794363 -0.07045764
-0.057865243 -0.05427712 0.12559703 -0.067990005 -0.074879825 -0.03977348 0.00046439838 0.95661074
0.3346215 0.081983015 0.058455713 -9.943679e-05 -0.006336109 0.030436095 0.014894595 0.024025561
-0.012825916 0.070053376 0.18293007 0.5056745 0.049173877 0.20656012 0.03208626 0.020668697
-0.020763751 -0.04801651 0.05473285 -0.027832787 -0.049307194 0.403767 -0.06958945 -0.009590279
0.3378342 0.43961576 -0.073089465 -0.032937143 0.074385144 0.06373804 -0.05654664 0.09025029
0.05375123 -0.030433843 -0.008367963 -0.004442861 0.1610202 0.060281754 -0.056080796 -0.051307272
0.007950968 -0.017267823 0.057108894 -0.008162772 0.14565654 -0.0625781 0.107233465 0.15469934
-0.03930443 -0.020257732 -0.06687182 -0.0015401037 0.055611 -0.011651951 -0.029204402 0.13036619
0.0058380207 0.03254885 -0.081305094 0.02891081 -0.06431727 -0.028138934 -0.043972086 -0.048028298
0.07260311 0.048449676 0.07193975 0.0085901525 -0.06096499 0.035968468 0.31118777 -0.022751393
-0.0077674403 0.08632769 0.10658133 0.09536272 0.049252573 -0.054307066 -0.039450195 -0.04210159
-0.05728521 -0.055926144 0.0030679062 -0.02837094 -0.041278336 -0.033859774 -0.05523216 0.0030725896
0.017138377 0.0518128 -0.027990434 0.071355104 0.005087802 -0.021083524 0.029120388 0.08957125
0.09743816 -0.0351685 0.05492893 -0.052161198 0.015462859 0.05308832 0.019347657 -0.04574049
0.009017931 -0.028785545 0.0055377185 -0.019589482 -0.02235214 -0.021139095 0.081617944 0.28215256
0.12153255 0.13601857 -0.0018660103 -0.039618928 -0.065578945 0.44351545 0.50446343 0.10120056
0.111451134 0.039809257 -0.041055314 0.013586812 -0.015739396 0.09378009 0.46790662 -0.015994973
0.031060109 0.032957062 0.02568563 0.9024675 0.052769836 -0.060725275 0.12283592 -0.0019405944
0.04781947 -0.033270705 0.052164536 0.14635192 0.08773421 -0.059840944 0.005526267 0.1191498
-0.0290249 0.04145159 0.05413948 0.3969211 -0.013994571 -0.021156097 -0.06212434 -0.026209936

output_layer.weight f4 [2, 300]
00000000: fadd f03a 4c29 233a 642b 083d c22b 093a
00000010: 1367 9fba 1462 15bb 5ee6 05ba 31ab 90ba
00000020: 841c 043d 8ec2 673a 3105 fb3a a809 3a3b
00000030: a156 43ba df13 85ba ff0d 0c3b ec26 0cbb
00000040: 79c1 193d 9d8d 573d 4ead 763b b4d5 593b
00000050: 82f4 e73a 82d8 08bb 0cce 2b3a 9049 7739
00000060: 11cd 4d3d a31f fdba 4a58 373b 60a2 6cb9
00000070: 794b 2cba 4308 05bd 473e 383c e7d6 5abb
00000080: 887e 153d b85a 36bb 95ba b23a aca5 04bb
00000090: e00e 863a b6f4 6a3a 2161 013d 69c9 813c
000000a0: 0f3c e7bc 2474 44bb dbd5 303d 7cc6 c0bc
000000b0: 700d 0ebb fa55 c4b9 f56a 9b3a fbda c9ba
000000c0: c040 7cba d12b e53c 713b 9fb9 a018 0a3b
000000d0: 4ec3 7c3b e3bf 503d 67b2 803a 9abd 863a
000000e0: c858 4abb 3073 3fbb d6b9 d73c d072 52bb
000000f0: f7ce ddb9 cb28 413a 7f8f 423b 8bef 183c
00000100: 6fd3 8e39 d2ac 173b 9fc0 5fba 5484 5c3b
00000110: 561c c03a b1ef 37bb a02a 97ba 4950 f5b9
00000120: 0403 71bb b0a2 c5bb 23f9 a63c 3658 ad3c
00000130: 954c 0fbc 0241 0c3a 0093 4238 5b0a 273d
00000140: 2c66 ddba bd8d f93c e084 ed3b cca9 5f3a
00000150: 77f7 37bc 8ed3 1eba 98f9 2cbb c2e7 47bc
00000160: 310c c73c 803a dfb8 3718 a03a 5ce6 eb3a
00000170: 6114 ec39 a318 e5ba fafa 393b ac04 6e3b
00000180: 2626 a5ba ad16 6d3a 3be4 74bd 44cd 65ba
00000190: 7624 5bba a8cf 61ba 4495 17bb 5352 243d
000001a0: c416 afbc a03e 823d ba17 503a c208 b8b9
000001b0: b205 baba e7c9 5539 5c8f 8aba d0bc eb39
000001c0: 8040 63ba efdd 4bbd 4956 94bd 7d20 f4bc
000001d0: 56cf 1ebb d2fc 1bbc 0cbf 1d39 12c4 19b8
000001e0: 3bd9 cdb8 ba7e 003a 59f6 d23b 92f6 5b3a
000001f0: 1235 92ba c305 a5bc 192e 19bb b477 683a
00000200: 4302 f1bb b9b7 8a3c b6b8 823a a217 cc3a
00000210: ec5d 8ebb c18a 7dbb c120 2abb 6a1c 1fbd
00000220: 906c 013b 80ea e838 7efb 26bb d174 f23a
00000230: 80c7 123c 5c32 e9bb e079 9738 9383 5cb9
00000240: afe8 19bc 23fe e63a a303 5439 557b 233a
00000250: 7fe0 213b 5532 6cbb 9fd0 c9bb 94d8 083c
00000260: 0825 ecba c079 813b c31d eaba a242 f93a
00000270: 65c6 503b 8f0a 033b 6277 e339 0dff 1fbc
00000280: 83e8 2eba e996 b7ba 1620 92ba 70c9 7abb
00000290: 78aa 4cb9 30e8 a33a ba3b 1dbb d05b fcb9
000002a0: 3743 ca3b 1501 2eba f98f ff3a 6b22 0b3b
000002b0: dd32 9ebb 93e7 8a3a 6ea6 963d a0d4 6d3a
000002c0: 9dd2 46ba 9a74 c23a bac4 1cbc 8c00 663a
000002d0: 60e9 50bb 2439 48bb 9e8f 43ba 5e8f 643b
000002e0: e802 a6b9 0656 ba39 a428 793b d18e 803a
000002f0: a165 1d3b 1279 c6ba 9f09 c53a 3649 2d3b
00000300: 5c87 af3a b12a 68bb 2c9d eeba 4707 aabb
00000310: a4d1 a9ba d8fe a5ba dcbc 953a 026c ccbb
00000320: a071 8639 f2d8 9139 8e71 5e3b 2046 25b9
00000330: 1091 0a3b d2ed aa3a 6126 ecbb 1573 5cba
00000340: d2d4 f33a 8038 40b9 2b4f 3c3c 20cb e936
00000350: c433 d13a 2f45 ac39 9a5f 053d 94b9 66bc
00000360: 7f60 dcbc 2ab6 05bd 365f 953a 1217 d2ba
00000370: 4172 433b 4951 9bbc a0cc 38bc d131 4dbc
00000380: eb2a 13bd b4cb 00bb 40fb b5b8 86fc 03bc
00000390: 51ea abba edda cdbb caeb 34bd 8098 463a
000003a0: f0ca feb8 5632 8b3a 869c 53bb 392e fabc
000003b0: 9522 2dbc dcfa 5f3b aa1a 403d 8409 01bb
000003c0: e956 de3c 19b6 85b9 a809 ee3b cacd 02bd
000003d0: e617 bdbb 9727 b13b 5038 81ba 73b0 16bb
000003e0: 2f6c 29bb 4aac 22bd 206f 24bb d0a2 7fbc
000003f0: 14ca ab3a a4b9 17ba 1f8a 423a a297 12bb
0.0018376701 0.000622411 0.033244506 0.00052326557 -0.0012161456 -0.0022794055 -0.0005107875 -0.0011037347
0.032253757 0.00088409416 0.0019151327 0.0028387103 -0.00074515684 -0.0010153017 0.0021370647 -0.0021385504
0.037538026 0.052625287 0.0037639919 0.003323895 0.001769677 -0.0020881002 0.00065538357 0.0002358316
0.050244395 -0.0019311797 0.0027976208 -0.00022567203 -0.00065725256 -0.032478582 0.011245317 -0.0033392252
0.036497623 -0.0027825069 0.0013635928 -0.002024035 0.0010227822 0.00089628564 0.03158677 0.01584311
-0.02822688 -0.0029976452 0.0431727 -0.023532145 -0.002167549 -0.0003744809 0.0011857437 -0.0015400344
-0.00096226856 0.027974995 -0.0003037113 0.0021071807 0.003856856 0.050964247 0.0009818793 0.0010279894
-0.0030875672 -0.0029212944 0.02633373 -0.003211189 -0.00042306606 0.00073684443 0.002968758 0.009334455
0.0002724188 0.002314378 -0.00085354777 0.003364821 0.0014656882 -0.0028066451 -0.0011533089 -0.0004678986
-0.003677548 -0.0060313568 0.02038247 0.021160226 -0.008746286 0.0005350263 4.639011e-05 0.04078136
-0.0016891412 0.030463094 0.007248506 0.00085320766 -0.011228434 -0.0006058746 -0.0026393887 -0.012201251
0.024297806 -0.00010644365 0.0012214248 0.001799773 0.0004502861 -0.0017478656 0.0028378353 0.0036318703
-0.001259987 0.00090442115 -0.05978797 -0.00087662437 -0.000835962 -0.0008614012 -0.002312974 0.040117573
-0.02137316 0.06359601 0.0007938106 -0.0003510174 -0.0014192371 0.00020388477 -0.0010571289 0.0004496337
-0.0008668974 -0.0497722 -0.0724302 -0.029800648 -0.0024232469 -0.009520726 0.00015043857 -3.6660647e-05
-9.815624e-05 0.0004901696 0.0064380583 0.0008390929 -0.0011154732 -0.020144349 -0.0023373424 0.0008867935
-0.007355006 0.016933309 0.0009973261 0.0015571008 -0.0043446925 -0.003868744 -0.0025959464 -0.038845457
0.0019748546 0.00011106301 -0.002547949 0.0018497949 0.008958697 -0.007116599 7.222942e-05 -0.0002102985
-0.009393855 0.0017623346 0.0002021925 0.00062363344 0.002470046 -0.0036040742 -0.006158903 0.0083524175
-0.0018016407 0.0039512813 -0.0017861653 0.001901705 0.0031856534 0.0019995307 0.0004338576 -0.009765399
-0.000667222 -0.0014006767 -0.0011148478 -0.0038267039 -0.0001951846 0.001250511 -0.0023991899 -0.0004813359
0.0061725634 -0.00066377345 0.0019497863 0.0021230232 -0.0048278407 0.0010597579 0.07355963 0.0009072516
-0.00075844844 0.0014835775 -0.009568388 0.0008773885 -0.0031877384 -0.0030551637 -0.00074600603 0.0034875493
-0.00031664153 0.00035540777 0.0038018608 0.0009808188 0.0024016874 -0.0015142283 0.0015032775 0.0026441342
0.0013391781 -0.0035425837 -0.00182048 -0.005188856 -0.0012956155 -0.001266445 0.0011424082 -0.0062384615
0.0002564313 0.00027818192 0.0033942196 -0.0001576175 0.0021143593 0.0013040847 -0.0072067236 -0.00084094825
0.0018602854 -0.00018331595 0.0114934845 6.967588e-06 0.0015960862 0.00032857942 0.032561876 -0.014082331
-0.026901482 -0.03264443 0.0011396173 -0.0016028604 0.002982274 -0.018959658 -0.011279255 -0.012524084
-0.0359296 -0.0019652667 -8.6775515e-05 -0.008055812 -0.0013116096 -0.0062822015 -0.04417018 0.0007575825
-0.00012149464 0.001061986 -0.003228934 -0.030539619 -0.010567327 0.0034176623 0.04690043 -0.001968951
0.027141051 -0.0002550341 0.0072643347 -0.031934537 -0.005770671 0.005406331 -0.0009858701 -0.0022993356
-0.0025851836 -0.03971509 -0.002509065 -0.015602782 0.0013106489 -0.00057878555 0.00074210943 -0.0022368212

output_layer.bias f4 [2]
00000000: 069d d73b a5eb 273d
0.006579998 0.040996213
